models/DeeperNetClassifier_on_Kuzushiji49.pth (torch_old, 395562 bytes, 26 tensors)

features.0.weight f4 [16, 1, 5, 5]
000000 4f cc 1b bd da 16 7e 3f 73 75 09 c0 3c 1a 83 c0
       -0.03803664 0.9925362 -2.1477935 -4.0969524
000010 da 4b eb c0 b2 5a 03 40 56 c4 21 3f e4 82 11 40
       -7.353009 2.0524106 0.6319021 2.273614
000020 f2 86 07 40 c2 7d 13 c0 16 54 69 bf 18 8a f6 bf
       2.1176114 -2.3045506 -0.9114393 -1.9260893
000030 3e dc 49 40 ff 1b 94 40 09 64 9d be 4a c5 33 40
       3.1540675 4.6284175 -0.30740383 2.8089166
000040 f9 93 26 40 b7 df a3 3f eb 96 35 3f c6 38 1a c0
       2.6027815 1.2802647 0.7093341 -2.4097152
000050 2d 21 9c 40 ae 9f b7 3f 3f ed 91 bf c0 ea 1e bf
       4.87905 1.4345605 -1.1400527 -0.6207695
000060 28 8b 0b c0 ab 51 0a 40 53 c2 13 3e f0 2f 8a c0
       -2.1803684 2.1612346 0.14429598 -4.3183517
000070 f2 cf 08 c0 fd b6 9d 3d df 40 8f 3e 94 f2 34 c0
       -2.137692 0.07700918 0.2797918 -2.8273058
000080 93 36 1a c0 07 c3 ff 3f ca f7 2e 3f 31 0c 05 40
       -2.409581 1.9981393 0.68346846 2.078869
000090 5b 9f cf 3f 8e 23 e6 3f 24 cc aa 3f 04 62 4a be
       1.6220506 1.79796 1.3343549 -0.19763952
0000a0 20 87 0c 40 78 2c 9d 40 73 fc f8 3f ba b0 39 3f
       2.1957474 4.9116783 1.9452041 0.7253529
0000b0 b9 72 01 40 d6 a5 8b c0 49 c8 4d bf 89 a2 06 40
       2.022627 -4.3639936 -0.80383736 2.1036704
0000c0 36 82 55 40 ee fc 81 40 39 50 fd 3e 67 41 75 bf
       3.3360724 4.062125 0.49475268 -0.9580292
0000d0 84 bf 79 3e bf 2c e1 3f d0 5c 0a bf d7 e3 fb 3d
       0.24389464 1.759178 -0.5404787 0.122993164
0000e0 21 cb d2 3f 49 ab 8c 40 6d 5f f2 3b 70 3d 60 c0
       1.646824 4.395909 0.0073966295 -3.5037498
0000f0 d5 49 00 40 c4 4e 54 40 80 74 20 c0 3d 66 9f c0
       2.0045063 3.3173075 -2.5071106 -4.9812303
000100 0d f6 82 bf 05 09 97 3e 21 d0 af c0 93 3c 03 c1
       -1.0231339 0.2949907 -5.4941564 -8.202289
000110 73 9c b4 3f 21 8e b2 3f c4 92 9f c0 dd 3c 13 c0
       1.4110245 1.3949624 -4.9866657 -2.3005898
000120 77 02 6c 40 fe af 26 40 5f 49 61 be 78 23 2e 40
       3.6876504 2.6044917 -0.22000645 2.7209148
000130 cd 06 03 3d 89 72 27 bf ec f5 40 3f f0 40 15 40
       0.031988908 -0.6540914 0.75375247 2.3320885
000140 a9 e6 89 3f 17 ae ee be 46 5d c6 3f c2 64 11 40
       1.0773517 -0.46617195 1.5497215 2.2717748
000150 b6 34 0c 40 d2 48 0a bf d7 f5 cd be 40 b5 0f 3f
       2.1907172 -0.54017365 -0.40226623 0.5613594
000160 fa dd 31 bf 78 03 75 3e 4e b6 64 be 47 84 49 c0
       -0.69479334 0.23927104 -0.22335169 -3.1486986
000170 c5 31 c1 c0 8e 4c 88 c0 05 bf 13 3f 5a a9 62 bf
       -6.0373254 -4.259345 0.5771335 -0.8853966
000180 12 52 9b c0 5e 67 0e c1 b8 ba b6 c0 20 a6 17 3f
       -4.8537683 -8.900236 -5.710293 0.5923786
000190 a3 5b 16 c0 d6 52 a7 bf d3 d2 da be ff 38 84 3f
       -2.349343 -1.3072155 -0.4273897 1.0329894
0001a0 f7 17 ee 40 17 f8 15 c0 2f 29 e4 bf 53 68 e0 bf
       7.4404254 -2.3432672 -1.7825068 -1.7531837
0001b0 ab 83 99 bf 5e f5 bb 40 b7 fe c1 bf 67 bf 1a c0
       -1.1993307 5.873702 -1.5155858 -2.4179323
0001c0 54 bf a1 bf 22 f6 82 be ab 15 55 40 c8 34 35 c0
       -1.2636514 -0.2557841 3.3294475 -2.8313465
0001d0 3e 13 14 c0 3e 23 2b bf 50 02 a3 3f 7c 1d e7 3f
       -2.3136744 -0.6685065 1.2735081 1.8055873
0001e0 28 86 6c c0 17 0f 18 c0 bc 61 58 bf 3b 03 72 40
       -3.6956882 -2.375921 -0.8452413 3.7814472
0001f0 e5 70 a5 40 f1 67 54 3f ba 1a 70 bf d8 7a b8 c0
       5.170031 0.829711 -0.9379078 -5.7649956
000200 98 3c 10 be 74 91 57 40 15 81 84 3e 34 ef 74 c0
       -0.14085615 3.3682528 0.25879732 -3.8270998
000210 07 37 d8 bf 11 a7 18 41 ef b2 a8 bf 47 60 30 3d
       -1.6891793 9.540788 -1.3179606 0.043060567
000220 0c 6b 30 bf 8e 33 d7 40 36 77 a2 3f 57 24 94 c0
       -0.6891334 6.7250433 1.269263 -4.629436
000230 f2 6d d3 bc fb 53 99 be c0 eb e9 3f 2d 51 48 c0
       -0.025809262 -0.29946885 1.827507 -3.1299546
000240 93 01 6a bf 6a 91 9e be 23 2f 8c bc 9a fd 4c bf
       -0.9140865 -0.30970317 -0.01711232 -0.80074465
000250 91 7e 8a bf 11 9f ab 3e 5a 49 86 bf 57 55 c3 be
       -1.0819875 0.33519796 -1.0491135 -0.38151047
000260 a5 10 83 c0 8b 7d c9 c0 8d 85 8b c0 f2 8b 42 3e
       -4.095782 -6.296575 -4.3600526 0.18998697
000270 01 59 17 40 e3 f6 c8 40 27 de e8 40 bb e0 ac 3f
       2.3648074 6.2801375 7.277118 1.3506082
000280 2b f4 25 3f 49 df 91 3e 0e b4 ae 3f 88 bc 61 40
       0.64825696 0.28490666 1.3648698 3.527132
000290 a9 ab 2d 40 6a 98 f8 3e 94 9a 5b bf b0 b3 83 c0
       2.7136023 0.48553783 -0.8578274 -4.1156845
0002a0 93 cb 57 c0 b6 a9 52 3f fa 2a 55 bf f3 0c 2e bf
       -3.3718002 0.8229021 -0.832687 -0.6798851
0002b0 03 0a 53 bf 9c 63 a1 bf 0d 11 11 bf 82 bd 2e 40
       -0.8243715 -1.2608523 -0.5666664 2.7303166
0002c0 b9 1b 6e c0 ae ba 05 c0 29 86 1d 3f ab ca 9f 3e
       -3.720442 -2.089519 0.6153284 0.3120931
0002d0 84 d6 a5 c0 ed 62 e6 c0 17 61 89 3f a0 52 23 3f
       -5.182436 -7.199576 1.0732754 0.6379795
0002e0 d4 a5 a0 be 5b 1a 49 c0 5a da 25 40 33 31 0c 40
       -0.31376517 -3.1422336 2.5914521 2.190503
0002f0 0d c4 47 bf bd 74 27 3f 0c 27 f3 40 8b c6 6e 40
       -0.78033525 0.65412503 7.5985165 3.730868
000300 e9 ca e8 bf 75 24 5b 3f c0 be 8d 3f f7 cd 86 40
       -1.8186923 0.85602504 1.1073837 4.212642
000310 75 21 a0 bf a8 32 33 c0 6d 72 e4 be 30 4d a2 bf
       -1.251021 -2.7999668 -0.4461855 -1.2679806
000320 d1 65 33 be fb 55 05 3f 31 13 00 be f1 24 49 c0
       -0.17519309 0.5208432 -0.12507321 -3.1428797
000330 e4 91 de c0 82 b5 f3 3d a8 d3 0f c0 df 6f a3 c0
       -6.955309 0.11899854 -2.2472935 -5.107406
000340 e7 45 96 c0 e7 40 38 bf eb de a1 3f 0a d8 1b c0
       -4.696033 -0.71974033 1.2646154 -2.435061
000350 7b 7f 20 c0 58 4f 56 3e a2 e7 fd 3f 4e 2b c6 3e
       -2.5077808 0.20928705 1.9836314 0.38704914
000360 f4 51 31 3e e7 e7 8d 3f f0 37 0d be 70 54 74 be
       0.17316419 1.1086396 -0.1379087 -0.23860335
000370 ef f5 92 3d 48 08 28 3f f7 96 42 3f 63 8a 85 be
       0.07175814 0.65637636 0.76011604 -0.26082143
000380 61 88 b3 be 81 a5 ba be 73 53 91 40 b1 7a 7f c0
       -0.35064986 -0.36454394 4.5414367 -3.9918635
000390 f9 75 80 c0 8a 94 99 bf 9e fe c9 bf c2 f3 ba 40
       -4.014401 -1.1998456 -1.5780828 5.8422556
0003a0 da ae da 3e 33 e9 89 bf 0b 8e 13 bf 25 e5 0a c0
       0.42711526 -1.0774292 -0.57638615 -2.1702359
0003b0 7d bc 87 40 e1 b5 3a 40 b6 28 a2 bf d5 06 2b 3e
       4.241759 2.917351 -1.2668674 0.16701825
0003c0 10 c4 51 c0 46 80 15 40 ff 51 8d 40 0b 9b c9 bf
       -3.2775917 2.3359542 4.4162593 -1.575044
0003d0 c1 32 5c bf 09 17 a1 c0 69 70 d6 be 4e 5a 2f 40
       -0.86014944 -5.034062 -0.41882637 2.7398868
0003e0 89 0c ba 3e 7e 84 e5 3e c6 6d 3d bf c2 24 c9 3f
       0.3633769 0.44827646 -0.73995626 1.5714343
0003f0 d0 75 d3 bd 2d 8f 4d c0 7e 61 69 bf ee 5b e1 bd
       -0.10325205 -3.2118638 -0.91164386 -0.11003862

features.0.bias f4 [16]
000000 2a 70 a0 c0 1e 7b 1d c1 7e 5b ad c0 fa ca 18 c1
       -5.013692 -9.842558 -5.4174185 -9.549555
000010 8a 9e c8 bf 26 b2 58 c0 5f 30 5f c0 5d 6c 86 c0
       -1.5673382 -3.3858733 -3.4873273 -4.200728
000020 12 d2 6e c1 db fc ab c0 74 79 06 c1 64 cc 49 40
       -14.926287 -5.374616 -8.404652 3.1531
000030 dc d5 60 40 35 fb d5 c0 c7 9c ad c0 4f a1 8a c0
       3.513053 -6.686915 -5.425388 -4.332191

features.2.weight f4 [16]
000000 98 78 19 40 09 ac 31 40 a1 0a 5e 40 34 aa 5a 40
       2.3979855 2.7761252 3.4693987 3.4166384
000010 e1 73 5c 40 1f f0 a2 40 46 b8 cb 40 6b bb 5d 40
       3.4445727 5.0918117 6.3662443 3.464564
000020 e3 c2 a6 40 f0 f8 a8 40 fe bc 83 40 76 8f 7d 40
       5.21129 5.280388 4.1168203 3.9618812
000030 e6 94 27 40 55 bc 5b 40 c9 aa 77 40 52 2d 31 40
       2.618463 3.4333699 3.869799 2.7683911

features.2.bias f4 [16]
000000 f6 1f 06 40 8a 9d 85 3f 44 44 a0 3e 8f 4b 62 3f
       2.0957007 1.0438702 0.31302083 0.88396543
000010 64 15 50 3f 0e c5 b5 3f f0 45 f0 3e 8e 14 70 3f
       0.8128264 1.4200761 0.46928358 0.93781364
000020 4c ff 32 3f 83 0c 32 3f 33 49 2e 3f a0 99 b4 3f
       0.699208 0.6955034 0.68080443 1.4109383
000030 42 36 84 be 84 69 9d 3f 0c db b6 3f a0 31 16 bd
       -0.25822645 1.2297826 1.4285598 -0.03666842

features.2.running_mean f4 [16]
000000 5f 18 09 40 d6 06 30 3f a7 64 85 40 54 de 17 41
       2.1421125 0.6876043 4.1685367 9.491779
000010 fe 2f ae 40 50 cb b2 3f 84 33 b3 3f e2 2a db 3f
       5.4433584 1.3968296 1.4000096 1.7122462
000020 b4 86 8b 40 20 9d c0 3f b1 34 3c 3f 10 6b 29 41
       4.3601933 1.5047951 0.735179 10.588638
000030 da a3 ae 40 f7 19 1e 40 d8 11 f7 3f ad 65 c6 3f
       5.4575014 2.4703348 1.930232 1.5499779

features.2.running_var f4 [16]
000000 ab ee cb 41 25 a3 f1 40 1a 04 90 41 75 84 68 42
       25.491537 7.551165 18.002003 58.129353
000010 bd f2 fd 42 ba 17 8d 41 30 d7 9f 41 77 c0 b5 41
       126.9741 17.636585 19.980072 22.718977
000020 da 94 52 41 34 85 bd 41 47 ef 12 41 3c 85 c3 42
       13.161341 23.69004 9.183417 97.76022
000030 cc 8e f2 42 76 af 23 42 7f 55 a6 41 3d 1b 87 41
       121.2789 40.92135 20.791746 16.8883

features.3.weight f4 [32, 16, 5, 5]
000000 26 82 8d c0 9b e2 3e c0 fc 6c cb bf 90 f2 42 bf
       -4.4221373 -2.982581 -1.5892634 -0.7615137
000010 2c 20 9a c0 5f 63 0b c0 9c 9f b1 bf 51 18 5d bf
       -4.816427 -2.1779401 -1.3876834 -0.8636523
000020 66 9c 71 bf 04 9e 8b c0 73 1e 1e 40 40 0d 05 40
       -0.9437927 -4.363039 2.4706085 2.0789337
000030 b2 59 37 bf a6 94 a1 bf 77 63 3e c0 85 c0 4b bf
       -0.7162124 -1.2623489 -2.9748209 -0.79590636
000040 30 03 eb 3e 59 10 6a 3e 1c 7c 67 3a 8c 37 d8 bd
       0.4590087 0.22857799 0.00088304444 -0.1055747
000050 70 fd b3 bf 06 d2 03 c0 42 d7 a8 bd c4 b5 93 3f
       -1.4061718 -2.0596938 -0.08244182 1.1539845
000060 91 28 51 bf 42 30 00 c0 7c 56 1e 40 16 ad 5b bf
       -0.81702524 -2.0029454 2.4740286 -0.85810983
000070 ab c7 72 3f 4a 4b 0d c0 c8 38 c9 be 0c ab 67 3f
       0.9483592 -2.2077203 -0.39301133 0.9049537
000080 d5 61 0f c0 ff ce 11 bd 81 8d 36 3f b7 ff 3d c0
       -2.2403462 -0.035597797 0.7130967 -2.9687326
000090 97 cc 9b bf 38 26 0b c0 3b 7d c2 3f 51 3b 97 3f
       -1.2171811 -2.1742077 1.5194467 1.1814977
0000a0 28 21 3f 3e 46 ce 4a bf 34 60 17 c0 a5 61 84 be
       0.18664992 -0.79221 -2.3652468 -0.25855747
0000b0 bb af b9 3f b0 60 80 40 6e d4 e5 40 ae dd 12 40
       1.4506754 4.0118027 7.1821814 2.2947803
0000c0 49 21 bf 3f bf f1 85 40 fb be 89 3f 44 18 dd 3f
       1.4932033 4.18576 1.0761408 1.727303
0000d0 a7 f2 4a 40 7d a1 8b 40 44 49 8b be c5 df 22 3e
       3.1710603 4.363463 -0.27204335 0.15905674
0000e0 8c 0f 7a 40 2c c8 15 40 9f 98 ed 3f de 7b 0e 3e
       3.907199 2.3403425 1.8562201 0.13914439
0000f0 14 a3 44 3f b4 0e 56 bf 55 ae 26 3e 75 25 cd be
       0.7681134 -0.83616185 0.1627744 -0.4006764
000100 c6 8e 0b bf 3d 41 83 bf 11 e6 4c c0 e5 c6 61 bf
       -0.5451473 -1.0254284 -3.2015421 -0.88194114
000110 7e e4 5b c0 45 4b fe bf 7d 83 e2 3f 85 30 69 c0
       -3.435821 -1.986672 1.7696377 -3.6435864
000120 90 6c ee bf 8f 1c e8 c0 bc 27 87 c0 9d e2 25 c0
       -1.8626881 -7.253486 -4.2236004 -2.5919564
000130 46 13 ba bc 25 83 87 bf 5a fb 08 40 66 37 52 40
       -0.022714268 -1.0586897 2.1403413 3.2846313
000140 fa 16 87 c0 d0 c0 02 c0 34 d8 90 bf 83 44 fb 3f
       -4.2215548 -2.0430183 -1.131598 1.9630283
000150 b0 f8 6f 40 f6 67 7b c0 ad e0 87 c0 63 d3 66 c0
       3.7495537 -3.9282203 -4.2461762 -3.606652
000160 13 cf 90 be a3 3a 29 40 25 1d 16 3e 21 ec bc 3e
       -0.28282985 2.644204 0.14659555 0.36898902
000170 69 d2 3c c0 26 08 85 c0 1d 47 1c bf 77 ad 3a 40
       -2.9503424 -4.1572447 -0.6104601 2.9168375
000180 73 be 2e 40 ae 51 25 c0 84 20 a1 c0 24 3a 63 c0
       2.730374 -2.5831103 -5.035219 -3.5504236
000190 e8 8c 46 bf 0e 06 37 c0 2f 2b 95 c0 9a 25 08 3f
       -0.77558756 -2.8597445 -4.6615214 0.53182375
0001a0 b8 bb c9 3f af c7 ce 3e 1b 1b 3a c0 26 4d 8a c0
       1.5760412 0.40386721 -2.9079044 -4.3219175
0001b0 0c 65 08 bf bc b1 a6 3f 3b 4b ed 3f 16 53 7f bf
       -0.53279185 1.302299 1.8538584 -0.99736154
0001c0 45 af 20 c0 5c 47 50 bf 8a a2 94 bf 2d 01 c1 3f
       -2.5106976 -0.81358886 -1.1612103 1.5078484
0001d0 af 5f e8 be 96 ee 9b bf 45 a6 0a be f6 01 ac bf
       -0.453855 -1.2182186 -0.1353999 -1.3438098
0001e0 c5 1e bf 3f 50 1e 69 3f 74 9f 66 3f 3d 81 18 40
       1.4931265 0.9106188 0.90087056 2.382888
0001f0 cf 69 15 3f 9a 4f 1b 40 1c 94 7a 40 33 2d be 40
       0.58364576 2.4267335 3.9152899 5.9430175
000200 2c b4 3c 40 0f eb e8 be 0f 25 86 3f 67 fb 87 40
       2.9484968 -0.45491835 1.0480059 4.249439
000210 6a 6a 12 40 59 b3 d6 3f b1 95 30 40 69 d4 8f bf
       2.287745 1.6773483 2.7591364 -1.1236697
000220 f5 44 0f 40 6a c7 08 3f ab 56 11 3f 73 82 21 40
       2.2385838 0.5342928 0.5677287 2.523587
000230 de 7f 88 3e 49 83 7f bf ff cb 0c c0 45 49 17 bf
       0.26660055 -0.998097 -2.199951 -0.59096175
000240 63 91 4f 3f fa 4e 9d c0 e0 22 e9 bf 0d fc 49 c0
       0.8108122 -4.9158907 -1.8213768 -3.156009
000250 84 9c fb bf 11 42 c3 be 3f d0 bd 3f 69 e0 89 be
       -1.965714 -0.38136342 1.4829177 -0.26929024
000260 3c f0 d7 3f f4 99 f7 3f 46 54 a0 3b 97 6d 53 40
       1.6870189 1.9343858 0.0048928587 3.3035638
000270 82 b2 15 40 0d 3c 14 bf 48 e9 e1 bf a6 9a b5 3f
       2.3390203 -0.5790413 -1.7649317 1.418782
000280 fd de 4c bf 29 14 5a 40 48 bd 31 40 a4 9d 10 40
       -0.80027753 3.4074805 2.7771778 2.2596216
000290 56 de 87 bf 3d 16 88 bf ca 79 d4 3f 34 14 b9 bd
       -1.0614727 -1.0631787 1.6599667 -0.090370566
0002a0 69 56 93 3f d3 51 ba 3f b1 6a 4b bf b6 a5 17 bf
       1.1510745 1.4556221 -0.79459673 -0.5923723
0002b0 92 1b 04 bf 35 af b0 bf 87 b1 cc 3e c4 e3 8e bf
       -0.5160457 -1.3803469 0.39979193 -1.1163259
0002c0 19 64 1c 3f b1 66 84 3e 8c 9b e9 3e d5 2e f5 3f
       0.61090237 0.25859597 0.45626485 1.9154917
0002d0 04 b9 01 c0 19 d3 cd bf 67 5b 6a bf a6 ff 8d 3d
       -2.0269175 -1.6080047 -0.9154572 0.06933527
0002e0 1a f9 f5 3f 8e b9 94 c0 1c 18 e9 bf fc b4 15 c0
       1.9216645 -4.6476507 -1.8210483 -2.3391714
0002f0 ac d5 24 3f 67 67 ab 3d 9e 80 e2 c0 d9 03 27 c0
       0.6438854 0.08369332 -7.0782003 -2.6096098
000300 33 f1 5e 3e b2 3e 25 3f 20 73 0a bf 2f dd 4d c1
       0.21771698 0.6454879 -0.54081917 -12.8665
000310 39 f2 20 c1 7d 8a 3c c0 e2 9b 46 3f 3b 14 5c bf
       -10.059136 -2.9459527 0.7758161 -0.8596837
000320 e0 a9 9a 3f d6 a7 36 40 62 9d b9 3f 4e d7 0d 40
       1.2083092 2.853994 1.4501154 2.2162662
000330 02 5a 17 c0 35 ec 88 bf 8e 89 29 40 07 38 91 40
       -2.3648686 -1.0697085 2.6490207 4.5380893
000340 5f 9e 98 40 5c 99 90 3f b3 8b 0d c0 1e c4 87 3f
       4.7693324 1.1296802 -2.2116516 1.0606725
000350 fb 1c 15 40 c2 22 e6 3f cb df f1 3f f5 47 51 c0
       2.3298938 1.7979357 1.8896421 -3.270017
000360 c5 6d 1d 3e dc df 40 3f 57 20 93 be 35 6c 56 3f
       0.15373905 0.7534158 -0.2873561 0.8375886
000370 4c ee 28 c1 57 85 dd c0 5b 44 99 bf 53 52 1e be
       -10.558178 -6.922527 -1.1973985 -0.15461092
000380 18 86 e6 3f fa 85 4c bf e2 ce 27 c0 52 1e 99 c0
       1.8009672 -0.7989193 -2.6220021 -4.784951
000390 ed 5b b8 c0 f7 06 b6 c0 13 c7 8a 3e c6 ca 9b bf
       -5.7612214 -5.68835 0.27105007 -1.2171257
0003a0 a6 dc c8 3e 55 0e 02 c0 e7 ea be be 41 db 56 3d
       0.3923084 -2.0321248 -0.3728859 0.05245519
0003b0 62 56 55 be b1 ef 01 40 6a 34 0a 40 5c 3b 04 3e
       -0.20833734 2.0302546 2.159449 0.12913269
0003c0 3a 79 11 40 09 4d 5b 3f 8e 62 51 bf 4a e2 2f 40
       2.273024 0.8566442 -0.8179101 2.7481866
0003d0 9f 17 f5 3f 84 b7 01 41 7c 0b c6 40 65 54 1d 3f
       1.9147834 8.107304 6.188902 0.614569
0003e0 1c b7 16 40 39 30 91 40 1a e1 5a c0 5a bb 22 bf
       2.354926 4.5371366 -3.419989 -0.63567126
0003f0 95 2f f4 bf cc 9c 7d bf e6 0d cf 3e 0a b4 b5 bf
       -1.9077021 -0.9906738 0.4044029 -1.4195569

features.3.bias f4 [32]
000000 a1 c9 ef bf 6a e9 2c 3f bd 84 2e c0 be 3b ed bf
       -1.8733407 0.6754366 -2.7268517 -1.8533857
000010 ec 35 73 40 44 64 3f 3f f3 90 a5 c0 9b 9e be bf
       3.8001661 0.7476237 -5.173944 -1.4892153
000020 47 bd ae 40 d9 b4 d3 3f b1 a4 7b c0 62 d3 1d 40
       5.460605 1.6539565 -3.931927 2.4660268
000030 d1 bd 1b c0 74 17 9c c0 bf d0 2c c0 d2 65 54 bf
       -2.4334605 -4.877863 -2.7002409 -0.82967865
000040 22 c0 ac c0 a7 bd 44 40 33 9d 37 c0 5c 77 0b 41
       -5.3984537 3.0740755 -2.8689697 8.71664
000050 e9 88 7f bf 42 38 88 40 9b 29 e5 40 d0 53 4b 3f
       -0.99818283 4.2568674 7.161329 0.7942476
000060 bb ac 3f 41 97 06 8d 40 26 11 3b c0 42 fc cc bf
       11.979671 4.4070544 -2.9229217 -1.6014483
000070 a2 22 bf 40 de c1 c8 3e 11 cc eb 3f 61 3d 90 3f
       5.9729776 0.3921041 1.8421651 1.1268731

features.5.weight f4 [32]
000000 4c 01 93 40 cc 12 87 40 95 68 90 40 41 26 90 40
       4.5939083 4.2210445 4.5127664 4.5046697
000010 10 38 6a 40 55 eb 6f 40 9a 07 82 40 3d 51 76 40
       3.6596718 3.7487385 4.063428 3.8487084
000020 64 aa 8b 40 b6 d1 55 40 6c aa 8f 40 e9 84 8b 40
       4.3645496 3.3409247 4.4895535 4.3599744
000030 a0 b7 9d 40 9c 43 7d 40 90 49 82 40 79 e9 74 40
       4.928665 3.9572515 4.07148 3.82675
000040 6b 45 45 40 29 b1 81 40 85 48 8f 40 cf 62 71 40
       3.082362 4.052876 4.4776025 3.7716558
000050 3e 9c 8c 40 4d 4c 5f 40 9d 30 91 40 36 44 87 40
       4.3940725 3.489032 4.5371842 4.2270765
000060 7e 0a 8f 40 6b cd 89 40 ac 4b 7b 40 62 96 67 40
       4.470031 4.3063254 3.9264936 3.6185536
000070 c9 72 85 40 c5 b6 8d 40 cc 58 70 40 43 85 6c 40
       4.170262 4.4285607 3.7554197 3.6956336

features.5.bias f4 [32]
000000 8c 58 88 3f 1d a1 2e 3e 69 67 db 3e bd 5e 0b bf
       1.0652022 0.17053647 0.42852333 -0.54441434
000010 8e 26 8f bf 93 9f 11 3f d6 fe 93 be bf 43 4f 3e
       -1.1183641 0.56884116 -0.28905362 0.20240687
000020 f2 01 04 bf db a1 98 bf 62 c1 2d bf 2c 95 cb 3d
       -0.5156547 -1.1924394 -0.67873204 0.09940562
000030 1d 5c 98 3f cc cf d9 be 7b 46 a5 bc cd 64 06 bf
       1.1903111 -0.4254135 -0.02017521 -0.5249756
000040 5a 59 85 bf c2 16 b3 3e 89 bc d6 3e 5a b7 a0 bf
       -1.0417893 0.349783 0.41940716 -1.2555954
000050 8d 44 ed 3e 18 68 1a c0 7f ad 85 be e9 d1 84 3e
       0.46341363 -2.4126034 -0.2610893 0.259414
000060 2e 90 3f 3f e0 8c 7b 3f aa 69 a3 3e e4 4f 74 3e
       0.74829376 0.98261833 0.31916553 0.23858601
000070 e5 33 9a be e8 2a d5 3e 5a 2a 25 bf 76 b9 6b be
       -0.30117717 0.41634297 -0.6451775 -0.23019966

features.5.running_mean f4 [32]
000000 7a dd aa 42 5c 90 44 43 ce 6e b8 42 fd c2 81 42
       85.43257 196.5639 92.216415 64.88084
000010 50 ba f6 42 0e 3d 3c 43 39 57 95 42 5f 03 9e 42
       123.36389 188.2385 74.67036 79.006584
000020 81 79 e1 42 e1 65 f9 42 23 f9 92 42 6c 81 9f 43
       112.73731 124.69898 73.486595 319.0111
000030 06 e3 38 43 af 73 81 42 af 58 d8 42 fc fa 3f 43
       184.88681 64.725945 108.17321 191.98041
000040 cc b8 4d 42 d9 4c 2e 43 14 1d e6 42 d7 e5 97 43
       51.430466 174.30019 115.05679 303.79562
000050 b1 bb 2b 43 dc 89 46 43 0e ea 58 43 32 7e 76 43
       171.73317 198.53851 216.91428 246.49295
000060 6a 79 7a 43 2a c3 55 43 0d df 06 43 54 46 0e 43
       250.47427 213.76236 134.87129 142.27472
000070 d9 eb 35 43 a1 47 13 43 d9 60 81 43 ae b5 2a 43
       181.92128 147.2798 258.75662 170.70969

features.5.running_var f4 [32]
000000 38 4f 49 47 64 38 9d 47 25 7e 2b 47 81 3c cb 46
       51535.22 80496.78 43902.145 26014.252
000010 91 fb 5c 47 f8 24 77 47 7a fb f5 46 db 88 14 47
       56571.566 63268.97 31485.738 38024.855
000020 a0 54 37 47 b7 8a 4c 47 10 5f 04 47 0a 5c 13 48
       46932.625 52362.715 33887.062 150896.16
000030 b2 7f 09 48 1a 4b 06 47 4f bc 85 47 1d 3e 5d 47
       140798.78 34379.1 68472.62 56638.113
000040 11 82 8c 46 fa 91 84 47 0d 6e 67 47 4b e5 cc 47
       17985.033 67875.95 59246.05 104906.586
000050 1e 16 71 47 b8 41 af 47 bc f6 9f 47 07 96 1b 48
       61718.117 89731.44 81901.47 159320.11
000060 60 32 ea 47 fa 10 f9 47 68 4c 9b 47 29 d7 45 47
       119908.75 127521.95 79512.81 50647.16
000070 e5 2e ac 47 18 54 82 47 cd 9c 89 47 b2 95 a0 47
       88157.79 66728.19 70457.6 82219.39

features.8.weight f4 [64, 32, 3, 3]
000000 c0 90 a3 c0 6b 41 03 3f 25 7d 7c be ba a7 bf c0
       -5.1114197 0.51271695 -0.24657114 -5.9892244
000010 fe cb 31 c1 59 60 4d c0 f8 f4 28 c1 9f 8d d2 c0
       -11.112303 -3.2090056 -10.559807 -6.5797877
000020 99 52 30 c0 19 7b c0 3f f4 c4 9f bf 79 a7 98 bf
       -2.7550414 1.5037566 -1.248198 -1.1926109
000030 76 ed a8 3f ae 2a 28 c0 ad d6 08 be 26 f9 80 3e
       1.3197467 -2.627605 -0.13363142 0.25190085
000040 3f f0 f2 bf 50 cb b3 3f 52 0a 64 40 0b 31 02 40
       -1.8979567 1.4046421 3.56313 2.0342433
000050 20 d8 09 40 67 c8 14 bf 64 27 f7 3e f9 10 1e 40
       2.1538162 -0.5811829 0.4827224 2.469786
000060 f5 5c f7 be 48 70 1b 40 bd 4f 3e 3e b2 87 5d 3e
       -0.48313108 2.428728 0.18585105 0.21633795
000070 70 57 97 3f 94 43 61 40 26 17 b8 be 89 a2 a1 3f
       1.1823559 3.5197496 -0.3595516 1.2627727
000080 af e1 07 3f 94 0f e8 be 75 6e 93 3f 1c 88 ec bf
       0.5307874 -0.45324385 1.1518084 -1.8479037
000090 d9 44 7e 3f 6e 1f 2b c0 8c b7 6c c0 8d e4 2d bf
       0.99323803 -2.6737933 -3.6987028 -0.67926866
0000a0 c6 0f f8 c0 3d 0a d2 bf f1 3e 6f c0 fc 9f d9 bf
       -7.7519255 -1.6409374 -3.7382166 -1.7001948
0000b0 bc de 3d 3f e1 ae 02 c0 00 73 d2 c0 7c 2a b2 c0
       0.7416799 -2.0419238 -6.576538 -5.567686
0000c0 37 e3 41 40 d1 98 1a c0 7f c6 55 c0 f9 c5 a1 3f
       3.029493 -2.4155772 -3.3402402 1.2638541
0000d0 19 cb 4e bf 49 8e 08 c0 41 42 b6 bf b3 9a 60 bf
       -0.8077865 -2.1336844 -1.4238969 -0.8773605
0000e0 08 8a f7 bf 99 c5 12 c0 6c 74 57 c0 78 e9 9e c0
       -1.9338999 -2.2933104 -3.3664808 -4.9659996
0000f0 1f 0f 2b c0 c4 cd 1d c0 f6 70 68 c0 de 69 a1 bf
       -2.672798 -2.465684 -3.6318946 -1.2610433
000100 f9 65 30 bf 1e 50 ba bf e6 87 f8 bf 83 2e 01 c0
       -0.689056 -1.45557 -1.9416473 -2.0184639
000110 7b 53 87 be 31 cc dd bf 28 33 c8 3f f7 d5 ea 3e
       -0.26430878 -1.7327939 1.5640612 0.45866367
000120 5d d6 80 c0 3d 99 38 c0 45 4a b8 c0 e4 69 d5 c0
       -4.0261674 -2.884353 -5.759066 -6.669176
000130 7a e0 76 c0 11 a4 a8 bf 75 b0 c6 bf 21 40 ce 3f
       -3.857451 -1.3175069 -1.55226 1.611332
000140 7d 0f 04 40 50 c6 5a 40 a3 04 62 40 68 f8 2b 40
       2.0634453 3.418354 3.531533 2.6870365
000150 23 31 05 40 dd ea 4c 40 f8 0b e6 3f c7 64 80 40
       2.081124 3.201835 1.7972403 4.012302
000160 46 41 58 40 6a 02 36 40 e0 34 38 40 38 16 1a 3e
       3.378984 2.8438973 2.8782272 0.15047538
000170 98 b6 26 c0 b8 c6 c4 bf a4 3b 16 bf 6a 92 b0 bf
       -2.6048946 -1.5373144 -0.58684754 -1.3794682
000180 0f 75 49 be 3b fc e2 be 9d ce 15 c0 66 09 87 c0
       -0.1967356 -0.44333062 -2.3407357 -4.2198973
000190 89 8c 53 3f 7c c8 89 3f d7 2d f7 bf f6 d0 73 bf
       0.82636315 1.0764308 -1.9310864 -0.95240724
0001a0 94 75 32 bf 45 10 47 c0 5e be 0c bf 0d 9f d9 3f
       -0.6971066 -3.110368 -0.5497798 1.7001663
0001b0 36 21 cb be 94 e5 b0 3f 6c 61 3e 3e f8 63 1d c1
       -0.39673775 1.3820062 0.18591851 -9.836906
0001c0 2b c1 0c c0 46 40 4f bf bf 78 3c c1 cf 71 53 c1
       -2.19929 -0.8095745 -11.779479 -13.215285
0001d0 b8 63 5e c0 ab de dd bf 59 52 f5 c0 b8 f9 1e c1
       -3.4748363 -1.7333578 -7.666302 -9.9359665
0001e0 08 0e e9 c0 16 48 fb c0 31 93 e8 c0 39 16 c7 c0
       -7.282963 -7.8525496 -7.2679677 -6.2214627
0001f0 fc 26 a9 c0 82 01 db bf cd 44 9e c0 3d ef 9b c0
       -5.286009 -1.7109835 -4.9458985 -4.872954
000200 04 ed 44 c1 3d 68 89 c0 27 80 71 c0 c2 a7 ae c0
       -12.307865 -4.2939744 -3.7734468 -5.4579782
000210 f7 e1 dd c0 ef ed 5d c0 8e c3 4e 3f c4 af a0 bf
       -6.9338336 -3.4676473 0.8076714 -1.255364
000220 38 24 10 c0 fe e8 7d 3f 17 88 d6 bf b7 60 40 c0
       -2.2522106 0.9918364 -1.6760281 -3.005903
000230 22 f8 95 be 21 2d bb bf b6 93 86 c0 1b 9b c2 bf
       -0.29290873 -1.4623147 -4.205531 -1.5203584
000240 22 9a 8d 3f 95 79 26 bf 72 c8 c6 bf f6 49 b7 bf
       1.1062663 -0.6502927 -1.5529921 -1.4319446
000250 8c 39 bb 3f ce e0 4a bf c1 08 25 c0 43 b0 be 3f
       1.4626937 -0.79249275 -2.5786593 1.4897541
000260 41 f8 26 3f c5 e7 1c 3f cf 97 70 bf 5b 29 c0 c0
       0.65222555 0.6129115 -0.9398164 -6.0050483
000270 cf 92 e2 bf 00 d1 8c c0 54 06 83 c0 08 f0 5c c0
       -1.7701052 -4.4005127 -4.0945225 -3.4521503
000280 ec 83 b0 c0 90 fb 09 c0 9d a6 79 c0 0c 42 36 c0
       -5.5161037 -2.1559792 -3.9007943 -2.8477812
000290 17 42 68 3f 81 a6 37 c0 b6 8f 02 c1 c2 c8 10 c0
       0.90725845 -2.8695376 -8.160086 -2.2622533
0002a0 8d 99 fb c0 da c4 e5 c0 f3 cd 5a c0 cb cf 48 c0
       -7.862494 -7.1802797 -3.4188201 -3.1376827
0002b0 aa e7 50 c0 29 0f 94 c0 68 e3 06 40 65 62 9f 3f
       -3.2641397 -4.6268506 2.1076298 1.2451903
0002c0 e8 26 07 c0 cc 9e c3 3f e5 3b be 3f 5b df a2 3f
       -2.1117496 1.5282836 1.4862028 1.2724413
0002d0 e4 b4 49 3e d6 16 e7 bf c7 69 da c0 8b 30 74 c0
       0.1969791 -1.8053844 -6.8254123 -3.8154628
0002e0 48 1b aa c0 98 ff db c0 13 40 63 c0 aa 39 a7 c0
       -5.31583 -6.8749504 -3.5507858 -5.225789
0002f0 71 cb 72 c0 a2 07 b6 bf bf 2f de 3c 76 35 28 be
       -3.793667 -1.4221079 0.027122376 -0.16426644
000300 de 9f dc bf 41 e8 0a 40 89 85 5c 40 7c 16 08 3e
       -1.7236288 2.1704257 3.4456503 0.13289827
000310 ac e8 b8 3f 4b cd 88 40 f3 6b aa 3e cc a9 e8 3f
       1.4446006 4.27506 0.33285484 1.8176818
000320 eb 7e a3 bf 5a 43 d7 bf 6a d3 87 3f 25 10 1a 3f
       -1.2773107 -1.6817429 1.0611393 0.60180885
000330 8f 57 95 c0 95 76 89 c0 ea 58 60 3e 54 5a 9c bf
       -4.6669383 -4.2957253 0.21908918 -1.2215066
000340 66 ca 2a c0 20 e1 07 40 ca cb eb be 5b 2e 1d c0
       -2.6686034 2.1231155 -0.46053916 -2.4559543
000350 62 93 1f 40 8b d3 00 3f 0d 9e 8d bf ed 1c 28 40
       2.4933705 0.5032279 -1.1063858 2.6267655
000360 15 59 f6 bd 44 eb 3c 40 cc 4a 36 40 5f 6e ca 3f
       -0.1202871 2.9518595 2.8483152 1.5814933
000370 a0 7b 53 3f 8b 83 b1 3e 97 e0 2a bf 20 de 5d be
       0.8261051 0.34670672 -0.66748947 -0.21666765
000380 b6 d6 da be 5d 0d 49 40 6f 95 0f 40 46 11 9e be
       -0.42741936 3.1414406 2.2434957 -0.30872554
000390 00 fc e6 3e a8 06 03 be a4 69 2e 3d 2c a0 72 bf
       0.45114136 -0.12795508 0.042581216 -0.9477565
0003a0 47 2d f2 be ce 57 e2 3f 4f 16 12 40 c0 21 be 3e
       -0.4730017 1.7683046 2.2826116 0.37135124
0003b0 24 bf 30 c0 74 f7 ba 3f de 19 ce 3f fe 7d de bf
       -2.7616663 1.4606767 1.6101644 -1.73822
0003c0 e2 25 1c c0 ed 11 1e 3f 58 fe b8 be be 7f b7 3e
       -2.4398122 0.617461 -0.3613155 0.35839647
0003d0 64 1e 80 40 5c 38 2e 40 27 7f 8f 3f 2e 39 5b 40
       4.00371 2.72219 1.1210679 3.425365
0003e0 2d 06 ac 3e db fa 7e 40 c9 46 54 3e 6c 42 ea 3e
       0.33598462 3.984061 0.20730127 0.457538
0003f0 e5 33 14 40 5d 12 9d 3f 0e bc 37 c0 28 7d 37 bf
       2.3156674 1.2271229 -2.870853 -0.7167535

features.8.bias f4 [64]
000000 b3 0b d9 c0 cd c2 c8 bf 01 95 3a c1 f8 4b 3d bf
       -6.782678 -1.5684448 -11.661378 -0.73944044
000010 4d 95 e4 c0 f5 42 24 c1 51 bd 12 c1 d2 4f 81 c0
       -7.143225 -10.266347 -9.17122 -4.0409937
000020 66 55 5e c1 aa 0a a0 c0 81 f6 4d c0 d7 e7 82 c1
       -13.895849 -5.001302 -3.2181704 -16.363203
000030 71 63 7e bf 0c 29 0c c1 46 d6 51 c1 b2 4b 12 c1
       -0.99370486 -8.760021 -13.114813 -9.14348
000040 89 94 10 c0 b2 57 eb bf 66 b3 72 c1 32 ab 9a bf
       -2.2590659 -1.8386137 -15.168798 -1.2083495
000050 df af 30 bf 9f e7 e3 c0 96 5b 71 c1 ba 85 7a c1
       -0.6901836 -7.122024 -15.08486 -15.657648
000060 d2 dd 1f 40 50 c5 0a c1 40 21 e0 c0 0b c4 75 c1
       2.4979138 -8.673172 -7.004059 -15.360362
000070 aa 52 1a c1 c0 9c 13 c1 b0 0f 14 be 24 d6 65 bf
       -9.645182 -9.225769 -0.1445911 -0.8977988
000080 54 4a ec c0 84 01 84 3f 1a 68 2c c1 9a 68 66 c0
       -7.3840733 1.0312963 -10.775415 -3.6001344
000090 d4 fb 3c c0 bc 48 bf c0 2b 95 0e c1 7f d9 8c c0
       -2.9528704 -5.9776287 -8.911418 -4.40155
0000a0 f9 8f ad bf c5 f8 18 c1 4a 21 d1 c0 23 51 67 40
       -1.3559562 -9.560735 -6.5353136 3.6143272
0000b0 6b ff d5 c0 f1 81 f3 c0 3e a0 ab 3e 67 70 1b c1
       -6.687429 -7.609612 0.33520693 -9.714942
0000c0 b7 a5 71 c1 3c 75 4a c1 d9 a2 1a 3e 44 ba 08 c1
       -15.102958 -12.653622 0.15101184 -8.545475
0000d0 eb 26 8e c0 29 ab 9a c0 c1 34 b2 c0 3e b9 a5 c0
       -4.4422507 -4.8333936 -5.5689397 -5.1788626
0000e0 08 45 f0 c0 6b e2 1b c1 e6 89 21 40 72 8e b3 bf
       -7.5084267 -9.742778 2.5240417 -1.4027846
0000f0 4d a1 10 c1 a6 ed c3 c0 2a 05 59 c1 f2 ac 25 c0
       -9.03938 -6.12276 -13.563761 -2.5886807

features.10.weight f4 [64]
000000 65 b6 95 40 61 41 98 40 47 b3 3b 40 10 a9 8f 40
       4.678515 4.757981 2.9328172 4.4893875
000010 5d 59 45 40 43 79 7c 40 89 dd 1f 40 7a 62 2f 40
       3.0835793 3.9449012 2.4978964 2.7403855
000020 2b 3c 59 40 6c b8 83 40 ae ed 79 40 21 b6 7d 40
       3.3942974 4.1162624 3.9051318 3.9642413
000030 12 d8 aa 40 34 b9 63 40 cf 4a 68 40 2c 3c 9c 40
       5.338876 3.558179 3.629566 4.882345
000040 a6 73 aa 40 4b f9 61 40 b2 bd 5f 40 b3 74 a8 40
       5.3266172 3.5308406 3.495953 5.2642455
000050 ab ec 76 40 c8 29 28 40 1e d8 74 40 cd d4 18 40
       3.858195 2.6275501 3.8256907 2.3879883
000060 4d 54 ac 40 f9 f5 8c 40 b0 ef 68 40 44 c2 78 40
       5.3852906 4.405026 3.6396294 3.886857
000070 82 85 4d 40 00 21 99 40 79 67 65 40 db 59 83 40
       3.2112737 4.7852783 3.5844405 4.1047187
000080 98 30 73 40 1b 1d 4a 40 d5 df 6a 40 94 8d 95 40
       3.799841 3.1580265 3.6699116 4.6735325
000090 a0 15 76 40 43 b6 79 40 44 95 56 40 d0 c3 85 40
       3.84507 3.9017494 3.3528605 4.180153
0000a0 01 65 85 40 9a 0f 8a 40 67 a7 7c 40 85 7a 92 40
       4.1685796 4.3144045 3.9477174 4.577456
0000b0 bf b5 55 40 0a 34 bb 3d 6e cc 9d 40 65 13 61 40
       3.339218 0.09140785 4.931205 3.5168087
0000c0 e2 9a 8e 40 2b eb 27 40 9c ea 88 40 a6 ef 5c 40
       4.4564066 2.6237285 4.278639 3.452127
0000d0 db a3 83 40 fc 5c 85 40 02 ec 67 40 9d d4 61 40
       4.113752 4.1676006 3.6237798 3.528602
0000e0 25 74 47 40 5c 39 2a 40 64 0f a4 40 7c 67 4e 40
       3.116464 2.659751 5.1268787 3.2250662
0000f0 33 7a 00 40 8a 5e 5f 40 f4 21 a0 40 52 6b 50 40
       2.0074584 3.4901452 5.0041447 3.2565503

features.10.bias f4 [64]
000000 94 5d dc 3f 57 0b 02 40 2a d1 08 40 1c 78 2e 40
       1.7216058 2.0319421 2.1377664 2.726081
000010 03 0a dd 3f 3c 2c 26 40 d6 6f af 3f 9a df 14 3f
       1.726868 2.5964499 1.3706005 0.5815369
000020 c4 cb 8f 3f 46 48 e7 3f 08 51 a9 3e 6a 64 03 40
       1.1234059 1.8068931 0.33069634 2.0530038
000030 79 8f 17 40 35 6d a6 3f fb 6d 84 3d 83 ce 21 3f
       2.3681319 1.3002077 0.064662896 0.63205737
000040 1b 9c 92 3f 62 b0 f5 3f ee 2f 34 3f 05 82 0c 40
       1.145389 1.9194453 0.70385635 2.1954358
000050 5f c4 e4 3f 69 5f a2 3f 84 b1 35 40 bc f0 2b 3e
       1.7872428 1.2685367 2.8389597 0.16791052
000060 98 29 fa 3f 6b 18 86 3f 33 ef 7a 3f 87 de 32 3e
       1.9543943 1.0476202 0.9802124 0.174677
000070 b8 aa b8 3e 68 06 b2 3f 96 54 39 3f 22 70 8f 3f
       0.36067748 1.3908205 0.7239469 1.1206095
000080 66 98 08 40 6c 1e dc 3e 77 ec 01 40 e7 ea 9a 3f
       2.1343017 0.4299196 2.0300577 1.2102937
000090 27 aa f2 3f 0b 0d b9 3f 62 49 28 40 a4 c9 a5 3f
       1.8958176 1.4457105 2.629479 1.2952161
0000a0 04 37 b4 3f e9 1c 0e 40 5b e6 82 bd 4f 5c c4 3f
       1.407929 2.2205145 -0.06391593 1.534067
0000b0 50 98 f9 3e f5 c2 c5 bd ba 88 46 40 f4 84 87 3e
       0.48749018 -0.09656326 3.1020951 0.26468623
0000c0 3a 91 a3 3f 81 2e 8c 3f 75 a8 8e 3f 96 92 98 3d
       1.2778695 1.0951692 1.1145159 0.07449834
0000d0 97 5b cd 3f f6 ca 9a 3f 8a 37 8b 3f 43 f5 95 3d
       1.6043576 1.2093189 1.0876324 0.073221706
0000e0 5b 59 db 3e 8b cc 19 3f 63 6c ed 3f e2 7d 30 3f
       0.4284161 0.6007773 1.8548702 0.6894208
0000f0 63 14 2a be b2 b8 ff 3f e5 19 5c 3f 7a 50 09 40
       -0.1660934 1.997824 0.8597701 2.145537

features.10.running_mean f4 [64]
000000 a1 d5 21 43 31 d7 3d 43 29 3e 98 43 97 0c 84 43
       161.83449 189.84059 304.48563 264.09836
000010 9d cd f2 42 b8 9b 6e 43 3f f6 25 43 87 37 4d 43
       121.40159 238.60828 165.9619 205.2169
000020 a6 66 ee 42 84 3f 0a 43 c1 84 fa 42 d1 2e bf 43
       119.200485 138.24811 125.259285 382.36575
000030 94 07 46 43 5f f3 64 43 92 a1 fa 42 4c 6e 03 43
       198.0296 228.95067 125.31557 131.43085
000040 23 e4 6e 43 63 9c a9 43 99 52 63 42 7d a8 33 43
       238.89116 339.22177 56.83066 179.65816
000050 72 e3 c9 43 4e 0a 96 42 d4 2b 81 43 bc 30 37 43
       403.77692 75.02013 258.3424 183.19037
000060 89 e6 a7 43 ca b4 ac 42 6b e8 13 43 3f aa 9b 43
       335.80106 86.3531 147.90788 311.33005
000070 34 87 f8 42 16 35 28 43 d4 92 87 43 d2 6a 94 43
       124.26407 168.20737 271.1471 296.83453
000080 e0 9b 83 43 ab 87 4d 43 02 99 f4 42 ec 12 27 43
       263.21777 205.52995 122.29884 167.07391
000090 68 a2 cc 42 bd fd 5a 43 ef 8e 70 43 24 93 04 43
       102.3172 218.99117 240.55833 132.57477
0000a0 74 11 aa 43 34 65 37 43 ef 23 26 43 56 2b 46 43
       340.13635 183.39532 166.14037 198.16928
0000b0 eb bd 84 43 bd 7b 77 42 49 3d 27 43 79 2d 16 43
       265.48373 61.87084 167.2394 150.17763
0000c0 a3 2f 0f 43 4b 3c 4d 43 31 d8 25 43 13 15 8b 42
       143.18608 205.23552 165.8445 69.54116
0000d0 b2 ad 28 43 3b 64 df 42 c5 4e 35 43 29 21 82 43
       168.6785 111.69576 181.3077 260.25906
0000e0 52 5d 14 43 3c e3 31 43 58 93 6f 43 13 4f 27 43
       148.36453 177.88763 239.57556 167.30888
0000f0 d8 2c f9 42 22 e4 21 43 3b 2b 1e 43 1d ec 71 43
       124.587585 161.89114 158.16887 241.92232

features.10.running_var f4 [64]
000000 0f 7d cf 47 92 0f ca 47 94 2c 66 48 dc 93 0b 48
       106234.12 103455.14 235698.31 142927.44
000010 83 cb 91 47 f8 0c 05 48 78 cf ed 47 1c b8 fd 47
       74647.02 136243.88 121758.94 129904.22
000020 0a 09 93 47 5e 28 9f 47 ab 9e 76 47 42 b6 93 48
       75282.08 81488.734 63134.668 302514.06
000030 c8 40 dc 47 4b e5 18 48 15 61 a1 47 e4 90 8a 47
       112769.56 156565.17 82626.164 70945.78
000040 ad de 1d 48 f8 a6 75 48 40 6a eb 46 9a d8 b7 47
       161658.7 251547.88 30133.125 94129.2
000050 89 40 82 48 a7 7b 25 47 c8 16 1d 48 33 8b d6 47
       266756.28 42363.652 160859.12 109846.4
000060 e2 5e 49 48 dd 05 32 47 28 01 9d 47 ca 9f 4f 48
       206203.53 45573.863 80386.31 212607.16
000070 7f 30 97 47 3e 90 b3 47 a6 59 29 48 10 b8 33 48
       77408.99 91936.484 173414.6 184032.25
000080 fb 50 10 48 73 73 09 48 46 c4 87 47 c2 3d b1 47
       147779.92 140749.8 69512.55 90747.516
000090 3c cd 48 47 c0 3f 14 48 a6 df 3f 48 21 43 88 47
       51405.234 151807.0 196478.6 69766.26
0000a0 ab ec 4a 48 a0 5d be 47 ea d7 e8 47 07 8f e8 47
       207794.67 97467.25 119215.83 119070.055
0000b0 46 e1 11 48 dc e6 c4 46 d1 80 b0 47 3a 05 c8 47
       149381.1 25203.43 90369.63 102410.45
0000c0 4d 68 9d 47 15 b0 09 48 ee 46 a3 47 f7 6b 08 47
       80592.6 140992.33 83597.86 34923.965
0000d0 18 63 f0 47 cf 04 73 47 cf d1 c9 47 72 19 13 48
       123078.19 62212.81 103331.62 150629.78
0000e0 8a dd b8 47 7e 0b d1 47 c5 a7 0c 48 29 f7 cc 47
       94651.08 107030.984 144031.08 104942.32
0000f0 0f 0a 7b 47 74 f7 ef 47 23 e2 aa 47 d0 8c 01 48
       64266.06 122862.91 87492.27 132659.25

features.11.weight f4 [64, 64, 3, 3]
000000 d0 ee ed bf c1 6c c9 be ed f2 15 c0 d5 78 e6 be
       -1.8588505 -0.39340785 -2.342952 -0.45014063
000010 a4 b6 4d bd f9 48 14 c0 3a a6 b6 3f 19 7c 69 be
       -0.050223008 -2.316954 1.4269478 -0.22801246
000020 6d 6e 86 3f 2a a3 34 bf 5d 9a 26 40 1d 90 01 40
       1.0502449 -0.7056147 2.6031716 2.024421
000030 78 a7 37 c0 b0 5d 8f 3d b6 86 15 40 bc f5 40 c0
       -2.8695965 0.07000291 2.336347 -3.0149984
000040 50 14 1e 40 d0 9c d0 40 9e 21 ff 3f 87 ff c7 be
       2.4699898 6.519142 1.9932134 -0.3906214
000050 d4 e9 9b c0 ba eb 27 be 13 b1 1f c0 71 54 5d c0
       -4.8722935 -0.16398516 -2.4951828 -3.458279
000060 87 59 51 bf de 83 4f bf ca 4d 5f c0 84 c3 73 40
       -0.8177723 -0.8106059 -3.4891229 3.8088083
000070 2b 49 77 c0 e9 95 2f 3e 73 09 c9 3f 6f b0 25 c0
       -3.8638408 0.1714703 1.5706009 -2.5888937
000080 06 c7 b1 bf 86 8e 9f 40 03 c1 36 be 18 aa e2 3f
       -1.3888862 4.986148 -0.17847066 1.7708158
000090 44 58 b6 c0 32 6a bc bf 67 d6 97 3e 10 1d 00 c1
       -5.6982746 -1.4719908 0.29655764 -8.007095
0000a0 0b 6c 47 bf c0 ab 4a c0 76 8d 8c bf e5 f6 95 3f
       -0.77899235 -3.1667328 -1.098067 1.1715971
0000b0 c9 b0 1b c0 fe 8b 6a bf 79 fe 9e c0 b8 3e 5e c0
       -2.432665 -0.9161986 -4.9685636 -3.472578
0000c0 5f d0 16 40 2d 9e 16 bf 28 d9 bd 3e 45 1f ab 3f
       2.356468 -0.5883511 0.3707974 1.3368918
0000d0 5a cf 1c 40 de 19 80 40 91 5e f9 bf 96 3b d3 bf
       2.4501557 4.0031576 -1.9481984 -1.6502559
0000e0 5a 3e 15 40 cb b0 f4 3f 22 d9 89 bf da 09 01 c0
       2.3319306 1.9116453 -1.0769389 -2.0162263
0000f0 84 2f 5a be 8d f0 12 c0 db 5f 83 c0 7c 74 8b c0
       -0.21307188 -2.295932 -4.105451 -4.3579693
000100 b1 db 8b bf 6b a1 44 40 f2 63 be c0 b4 24 08 c0
       -1.092642 3.0723522 -5.9497004 -2.1272402
000110 ca e7 ac 3f 27 08 66 c0 88 f4 7a c0 92 a0 c6 3f
       1.3508236 -3.5942476 -3.921175 1.5517752
000120 bc 86 3c c0 f8 71 1c 3d d0 1a 52 40 2e a3 1b c0
       -2.9457235 0.038194627 3.2828865 -2.4318347
000130 30 fa 89 3f 0f 6d fe 3f 59 b0 6c 3f 7e 84 06 40
       1.0779476 1.9877032 0.92456585 2.1018367
000140 bf 3e f3 bf 30 27 66 c0 db 44 23 3f 55 dc 92 40
       -1.9003524 -3.5961418 0.6377694 4.589396
000150 f5 7c 86 3e 98 12 9d 3f 47 e4 17 40 b0 1d ed 3f
       0.2626721 1.2271299 2.373308 1.8524685
000160 01 df bf 3f 4e b3 b5 3f 68 ea 01 41 9c cd 17 40
       1.498993 1.4195344 8.119728 2.3719244
000170 f2 f7 26 bf 0b 6a af 3f 2b 45 f4 bf fe be 02 c0
       -0.65222085 1.3704237 -1.9083608 -2.0429072
000180 5f 0c 3e bf fe 3b a8 3f 1b 76 03 40 e3 fd 70 40
       -0.74237627 1.3143308 2.0540836 3.765496
000190 3c c4 64 40 2a 98 b0 3f 7d 89 03 40 5e 69 85 40
       3.5744772 1.3796437 2.0552666 4.169112
0001a0 ac 25 2e 3f 48 d5 1f 40 c4 ff 4b 40 d3 b2 6c 3f
       0.6802623 2.4973927 3.1874857 0.92460364
0001b0 20 cd 77 3e e5 69 6f 3f bd 27 80 c0 94 b9 43 bf
       0.24199343 0.9352096 -4.004851 -0.76455045
0001c0 11 ef f7 3f 6a c9 11 c0 b9 d1 11 c0 13 d3 0f 3f
       1.9369832 -2.2779183 -2.2784255 0.5618145
0001d0 32 c1 e7 bf 2e cd bb c0 1f 09 8a c0 a6 35 ae c0
       -1.8105834 -5.8687963 -4.3136134 -5.444049
0001e0 89 9f 97 c0 3b fb 64 be 56 af 4a bf b7 21 76 c0
       -4.7382245 -0.22361462 -0.7917379 -3.8458078
0001f0 fc 94 ed bf a6 c0 45 bf 3e 99 25 c1 38 70 a8 c0
       -1.8561091 -0.77247083 -10.349913 -5.2636986
000200 06 62 1d 3f 3f 3e 9f c0 ad 47 9c 3d f8 d1 19 be
       0.61477697 -4.9763484 0.076308586 -0.15021503
000210 5a 35 88 bd e2 67 08 c0 e7 74 32 3e 9b 26 09 3f
       -0.06650801 -2.1313405 0.17427407 0.5357453
000220 15 e7 79 bf b0 a4 84 c0 48 8e d7 3e 03 d2 fc 3e
       -0.9761823 -4.1451035 0.4210074 0.49378976
000230 9e 28 aa bf 84 fa 89 bf 83 9c 35 3f 30 02 14 3f
       -1.3293645 -1.0779576 0.7094194 0.5781584
000240 e9 3c fb bf 80 bf 41 c0 e9 cf a2 c0 d2 40 b3 c0
       -1.9627963 -3.0273132 -5.0878797 -5.6016626
000250 56 87 15 c0 99 52 b0 bf e1 38 01 c1 0b 21 18 c0
       -2.3363853 -1.3775207 -8.076386 -2.3770168
000260 87 23 65 3f 7e c3 01 40 0e 96 ea 3f 1a 7f 72 3f
       0.89507335 2.027557 1.8327043 0.9472519
000270 5b 8b 27 c0 a8 b3 76 c0 b0 04 98 bf c8 2f ba c0
       -2.6178806 -3.8547153 -1.187643 -5.8183327
000280 13 d4 d1 c0 ec 15 2d c0 cf 70 99 c0 13 3d 98 c0
       -6.557138 -2.704463 -4.7950206 -4.7574553
000290 71 96 24 3f 3e 51 66 c0 2e cd 6f 3f df 6a 26 40
       0.64292055 -3.5987086 0.93672454 2.600273
0002a0 fe a6 b2 c0 ce 87 13 bf 78 ed 17 40 b5 d2 9f 40
       -5.582885 -0.57629097 2.373869 4.994471
0002b0 d1 72 b2 40 c7 38 b6 3e 9c d2 09 40 f1 3a a9 3f
       5.5765157 0.35590193 2.1534796 1.3221112
0002c0 11 4e 36 3f 32 08 b2 40 c1 84 12 40 4f fe 63 40
       0.7121287 5.5635004 2.2893527 3.5623968
0002d0 13 75 39 40 54 c7 61 c0 65 11 a1 bf 67 c3 83 40
       2.8977706 -3.527791 -1.2583433 4.117603
0002e0 39 ce 4b 3f 6f 56 ed bf 33 ce e1 3f 4d 86 12 40
       0.79611546 -1.8542002 1.7641052 2.289447
0002f0 00 21 64 40 c2 d5 42 c0 cc 89 73 be 96 1c b0 40
       3.5645142 -3.0442967 -0.23783034 5.5034895
000300 52 24 cf 3d d0 6d 65 3f 6b 06 0e 40 82 75 84 c0
       0.101143494 0.89620686 2.2191417 -4.139344
000310 30 b3 31 c0 c1 f6 7c be 60 46 a6 bf 3e e7 e0 3e
       -2.7765617 -0.24703504 -1.2990227 0.43926424
000320 4f 05 90 bf f5 6e 7f c0 a4 37 99 bf 9c 98 8e c0
       -1.125162 -3.9911473 -1.1970105 -4.456129
000330 0b 9c 11 c0 79 91 4e c0 3f a1 ac c0 67 2f d2 c0
       -2.275149 -3.227629 -5.3946834 -6.5682864
000340 07 dd b2 bf 63 b4 53 c0 f0 e9 94 c0 a9 9c e1 bf
       -1.3973702 -3.307885 -4.653557 -1.7625934
000350 24 39 0c 40 62 f6 0f bf 8d 01 04 3f 97 2f 47 3f
       2.1909876 -0.56235325 0.51564866 0.7780699
000360 31 f3 ac 40 cc 3b 72 40 8a bb 14 c1 95 ec 7d 40
       5.4046865 3.7848997 -9.295786 3.9675648
000370 cf 30 14 40 70 19 cd c0 86 79 72 bf ca 5d 9c c0
       2.315479 -6.409355 -0.9471668 -4.886449
000380 f9 16 d4 c0 20 98 0c 40 38 f8 34 bd b0 c3 ba c0
       -6.6278043 2.196785 -0.044182032 -5.8363876
000390 5e 5a 6c 40 20 97 8e 40 c5 e0 21 c0 b3 ba ad 40
       3.6930156 4.455948 -2.5293438 5.4290404
0003a0 98 9a 7a 40 a2 2e 8c c0 d7 28 b5 c0 e0 3f cc c0
       3.9156857 -4.3806925 -5.6612353 -6.3827972
0003b0 00 ac e9 3f f7 b4 0b c0 36 2f db be e2 fc 8a 40
       1.8255615 -2.1829202 -0.42809457 4.3433695
0003c0 c3 2f a1 c0 86 99 8a bf b8 81 95 40 07 29 11 c0
       -5.0370803 -1.0828102 4.672085 -2.268129
0003d0 fd 4c fc bf fb 00 0f c0 a8 9b b1 c0 9b f9 9c c0
       -1.9710995 -2.2344348 -5.550251 -4.9054694
0003e0 e1 97 5f 3f d4 2b a2 c0 65 52 de c0 85 4f e0 bf
       0.87341124 -5.06785 -6.947558 -1.7524267
0003f0 44 8b 17 40 a6 1e 68 40 43 40 84 40 10 1d 47 3f
       2.367875 3.6268706 4.1328444 0.7777872

features.11.bias f4 [64]
000000 1c a3 36 c0 70 b5 f3 c0 75 6a 20 3d 55 b8 09 c0
       -2.8537054 -7.615898 0.039164025 -2.1518757
000010 a7 00 19 c0 3e 55 9b c0 d8 01 71 c0 d4 62 94 c0
       -2.3906648 -4.8541555 -3.7657375 -4.637064
000020 f8 f6 aa c0 af a1 81 be 94 e9 7c be 13 5f 7b c0
       -5.3426476 -0.25318667 -0.24698478 -3.9276779
000030 97 62 7c c0 40 11 15 c0 a1 c8 42 c0 27 8c 1c c0
       -3.9435174 -2.3291779 -3.0434954 -2.4460542
000040 ed e1 9d c0 2d 9b 30 c0 32 81 93 bf eb cc 17 c0
       -4.933829 -2.7594712 -1.1523802 -2.3718822
000050 b2 11 c4 c0 e9 20 1a c0 a5 a2 df be 60 21 eb bf
       -6.12716 -2.4082587 -0.43678775 -1.836956
000060 d7 7f 0f bf 70 48 c1 bf ec b1 7d c0 ef d7 47 c0
       -0.56054443 -1.5100231 -3.9639845 -3.1225545
000070 f6 9a af 41 e7 b6 59 c0 4f db a9 c0 46 25 f1 be
       21.950665 -3.4017885 -5.308021 -0.4709875
000080 1e 24 eb bf ba 64 8d c0 83 89 fa c0 02 fe ce c0
       -1.8370397 -4.4185457 -7.829286 -6.468507
000090 cf 75 94 bf 8f d1 0b c1 5c 98 a4 c0 02 75 26 c0
       -1.1598452 -8.738662 -5.1435986 -2.6008916
0000a0 7b de 97 c0 00 32 9d c0 2f c2 61 c0 47 b5 ba c0
       -4.7459083 -4.9123535 -3.527477 -5.8346286
0000b0 d1 db 23 bf 59 9d 34 c0 e2 e9 98 c0 e4 0e 7f c0
       -0.6400729 -2.8221037 -4.77855 -3.9852839
0000c0 7f 16 c4 c0 6a 30 61 c0 65 8d 6e c0 da f9 85 c0
       -6.127746 -3.51858 -3.72738 -4.1867495
0000d0 66 ae 34 40 af 5f 0a c0 a0 47 bd c0 92 78 67 c0
       2.8231444 -2.16209 -5.9149933 -3.616734
0000e0 2b 6a fa bf 19 3b 9a c0 61 a3 84 c0 e1 10 25 c0
       -1.956365 -4.819714 -4.1449437 -2.5791552
0000f0 c2 5b 70 c0 72 be 51 c0 46 cd aa c0 99 fd a6 c0
       -3.7556005 -3.2772489 -5.337558 -5.2184567

features.13.weight f4 [64]
000000 33 dc cf 3d 8e 79 1a 3e 85 d9 ab 3d 41 f7 bc 3d
       0.101494215 0.15085432 0.08391098 0.092268474
000010 80 87 27 3e 20 03 ba 3d f2 05 af 3d b9 55 04 3e
       0.16360283 0.09082627 0.08546056 0.12923326
000020 d6 35 11 3e 7f 54 0d 3e ec bf b1 3d fd 1a d5 3d
       0.14180693 0.13801764 0.08679184 0.10405538
000030 96 8b d0 3d 7e d9 c9 3d a4 95 12 3e ff 64 99 3d
       0.10182874 0.098559365 0.14314896 0.074899666
000040 70 07 8a bd 52 e3 9b 3d dc 49 ca 3d 98 7e 38 3e
       -0.067397 0.07611717 0.09877369 0.18017042
000050 dc 3c 6c bc 48 32 9b 3d 29 70 b8 3d 49 39 88 3d
       -0.014418807 0.0757795 0.09005768 0.06651551
000060 f4 82 d1 3d 88 14 91 3d eb 0a ec 3d b2 86 8f 3d
       0.102300555 0.07083994 0.1152552 0.07008113
000070 d0 6b fe 3d 06 80 16 3e d2 b4 ab bd c8 eb a1 3d
       0.12422907 0.14697275 -0.08384098 0.079063
000080 46 c9 d2 3d 1a 14 84 3d ed 04 99 3d 43 64 c8 3d
       0.10292296 0.064491466 0.07471643 0.097847484
000090 91 ad 25 3e e3 fb e8 3d 94 db 02 3e e7 cb d1 3d
       0.16179492 0.113761686 0.12779075 0.102439694
0000a0 6d 21 a8 3d 17 29 92 3d 3b 38 15 3e cf 78 ce 3d
       0.082095005 0.071367435 0.14572231 0.10081636
0000b0 82 67 03 3e d5 c9 2e 3e 7d e6 a7 3d 83 c7 9c 3d
       0.12832454 0.1706918 0.08198259 0.07655241
0000c0 32 84 fb 3c 15 26 b2 3d db 54 f9 3d 3b f3 dc 3d
       0.030702684 0.0869867 0.12174388 0.1078858
0000d0 f0 b5 05 3e e0 5f 17 3e 3f 78 82 bd 32 45 14 3e
       0.13057685 0.14782667 -0.06370591 0.14479521
0000e0 af a2 63 3d d3 65 05 3e 1b 9b 03 3e 1f 78 c2 3d
       0.05557507 0.13027124 0.12852137 0.094955675
0000f0 c5 4e cd 3d 91 1e 1e 3e 8b 31 db 3d 32 b3 f6 3d
       0.1002479 0.15441348 0.10702809 0.120458975

features.13.bias f4 [64]
000000 63 db 81 bd b6 5b c2 bc a0 c5 3b bd a7 74 0b 3c
       -0.06340673 -0.023725372 -0.045842767 0.008511699
000010 37 a4 0d bc d4 cd 20 bb ae b0 10 bd 1f 92 32 3c
       -0.008645109 -0.0024536746 -0.035324745 0.010899096
000020 cf 4b b8 3b 39 17 8b bd fc 80 02 bd bf b9 64 3b
       0.0056242715 -0.06791539 -0.03186129 0.0034900752
000030 3a dd 9a bc 78 55 ec bb 19 bd 67 bc 98 09 70 3d
       -0.018904317 -0.007212337 -0.0141442055 0.0586029
000040 6b 46 3e 3c 75 cf 20 bd c2 e4 9e 3b 14 be 8b bd
       0.011613469 -0.039260346 0.0048490474 -0.06823364
000050 76 d5 d3 3d ca 7f 61 bc ef 99 3e bd 53 4d 02 3c
       0.10343449 -0.013763377 -0.04653352 0.007953006
000060 15 5e 40 bd 52 43 3a bc f5 f3 47 bd 88 a6 bc bc
       -0.046964724 -0.0113685895 -0.04881664 -0.023028627
000070 56 9f 0f bd 26 e0 49 bd d0 d9 0b bd b0 5c 75 3c
       -0.035064064 -0.04928603 -0.03414327 0.014975712
000080 82 5d ac bc a4 e1 fc 3c 4c a5 da b9 31 82 0f ba
       -0.021040682 0.030869313 -0.00041703356 -0.0005474417
000090 22 b6 c1 ba 16 74 23 3c a1 fa 28 bd b9 59 54 3c
       -0.0014779011 0.0099764075 -0.041254643 0.012960845
0000a0 c2 b0 36 bd 66 eb 6e bd 33 80 ad bb df c5 12 3b
       -0.044602163 -0.058329962 -0.0052948236 0.0022395772
0000b0 3a cc be bc a2 02 89 3a 07 09 36 3c 2d 29 ee bc
       -0.023290742 0.0010453055 0.011110551 -0.029072369
0000c0 0c c8 d7 bc 24 ec f8 bc 7c e0 29 3d 0e 01 38 bd
       -0.026340507 -0.030386038 0.04147385 -0.04492288
0000d0 35 f0 38 bd 80 01 d9 bc 2a 51 24 3d 36 0f 11 3d
       -0.045150954 -0.026489973 0.040116467 0.035414897
0000e0 f2 9d 15 3d 5f 08 21 3d 98 77 89 bd 8d dc 4f bd
       0.03652758 0.039314624 -0.06712264 -0.050747443
0000f0 30 ce 96 bc c2 f6 e4 3a b8 97 e8 bc 32 16 c8 bc
       -0.018408865 0.0017468559 -0.028392658 -0.024424646

features.13.running_mean f4 [64]
000000 1f 56 d4 42 d7 5f c5 42 28 a4 e2 42 4f a4 51 42
       106.168205 98.68719 113.32062 52.410458
000010 0a df 60 42 5b 52 76 42 87 da 9c 42 7d 77 c0 42
       56.21781 61.580425 78.42681 96.233376
000020 0a f5 cf 42 58 6f 8e 42 c0 61 b9 42 0f 73 b2 42
       103.97859 71.21747 92.69092 89.224724
000030 1a c2 b5 42 9f 59 6c 42 2e f7 2b 43 50 f4 a8 42
       90.879105 59.08752 171.96555 84.47717
000040 de 1d 28 3b c4 7b dc 42 2d 15 d8 42 30 d2 31 43
       0.0025652568 110.24173 108.04136 177.82104
000050 d5 bb 08 39 9c a5 c0 42 08 2b 9f 42 97 6d e5 42
       0.00013039944 96.323456 79.584045 114.71404
000060 50 3d 9c 42 e7 0c cb 41 da f7 6d 42 92 fe 57 42
       78.11975 25.3813 59.492043 53.998604
000070 cf b5 0f 44 1b 72 ed 42 86 05 3c 3f 1e 38 81 42
       574.84076 118.72286 0.7344593 64.609604
000080 1d 70 f0 42 05 8c 29 42 d6 7a 29 42 41 4e 5b 42
       120.21897 42.386738 42.369957 54.82642
000090 fc ad 56 42 8d 3b 7b 42 5a 26 3d 42 aa c8 b2 42
       53.669907 62.808155 47.287453 89.39192
0000a0 9a 0b 94 42 3c f3 0f 42 96 48 97 42 83 ee 02 42
       74.02266 35.987534 75.64177 32.73292
0000b0 f3 fa 16 42 20 48 7b 42 64 f8 24 42 73 4a 8a 42
       37.745068 62.820435 41.24257 69.14541
0000c0 69 3c 11 42 13 fb 84 42 bc c8 50 42 bb c1 86 42
       36.308994 66.49038 52.19603 67.37838
0000d0 93 80 96 42 0c ae 9d 42 04 00 00 00 d0 54 b1 42
       75.25112 78.839935 6e-45 88.66565
0000e0 6f fb 30 42 6a f4 ad 42 f2 e0 65 42 86 ea 4a 42
       44.24554 86.97737 57.469673 50.729027
0000f0 c2 f8 39 42 0e 37 95 42 fb f9 d0 42 66 8b c0 42
       46.492928 74.60753 104.48824 96.27226

features.13.running_var f4 [64]
000000 bc c9 5c 47 0e 37 82 47 07 32 7e 47 38 fe b1 46
       56521.734 66670.11 65074.027 22783.11
000010 97 ab d5 46 6d 98 e3 46 b6 27 29 47 6f 95 3a 47
       27349.795 29132.213 43303.71 47765.434
000020 3d 59 4f 47 be 56 05 47 06 e6 32 47 d7 ed 35 47
       53081.24 34134.742 45798.023 46573.84
000030 ce cd 40 47 42 b8 ff 46 c7 6f e2 47 55 d0 1f 47
       49357.805 32732.129 115935.555 40912.332
000040 8a a1 5e 3e 83 36 58 47 a6 df 49 47 ce 76 a4 47
       0.2174131 55350.51 51679.65 84205.61
000050 bf 56 75 3b d8 d7 48 47 d3 f3 1f 47 6a 75 5f 47
       0.0037435738 51415.844 40947.824 57205.414
000060 03 d7 25 47 50 0f 2b 46 d0 37 0a 47 41 3b bb 46
       42455.01 10947.828 35383.812 23965.627
000070 bf 8d f6 47 45 f2 6e 47 2a 67 14 43 cf cd dd 46
       126235.49 61170.27 148.40298 28390.904
000080 42 a6 73 47 6c f9 a6 46 bf 61 ac 46 b2 2b 04 47
       62374.258 21372.71 22064.873 33835.695
000090 a6 ce b5 46 52 41 17 47 20 91 a7 46 a3 49 42 47
       23271.324 38721.32 21448.562 49737.637
0000a0 c5 72 27 47 ef 1b a2 46 01 07 1c 47 32 d1 66 46
       42866.77 20749.967 39943.004 14772.299
0000b0 21 2c 79 46 06 72 08 47 ad 30 a5 46 ce 0e 09 47
       15947.032 34930.023 21144.338 35086.805
0000c0 dd 2d 98 46 93 bf 03 47 7b 33 ed 46 48 c3 08 47
       19478.932 33727.574 30361.74 35011.28
0000d0 2c b1 ed 46 f6 ff 03 47 04 00 00 00 c8 11 42 47
       30424.586 33791.96 6e-45 49681.78
0000e0 df cf ac 46 25 59 1c 47 61 62 d3 46 86 ac b0 46
       22119.936 40025.145 27057.19 22614.262
0000f0 6e 55 a9 46 ee 6a 30 47 8e f7 6a 47 2c 26 2b 47
       21674.715 45162.93 60151.555 43814.17
