models/DeeperNetClassifier_on_KMNIST.pth (torch_old, 323470 bytes, 26 tensors)

features.0.weight f4 [16, 1, 5, 5]
0	0x3e422f6f	0.18963407
1	0xbe11b779	-0.14230146
2	0x3f51f1c6	0.8200954
3	0x4016a413	2.3537643
4	0x403665d6	2.8499656
5	0xbf90bbff	-1.1307372
6	0xbff3fe7e	-1.906204
7	0xbf19f675	-0.6014169
8	0x3fc60f85	1.5473486
9	0x4042cf08	3.0438862
10	0xc00c9c73	-2.197049
11	0xc027a1b7	-2.6192453
12	0xbf8bd40d	-1.0924088
13	0x3f32ead6	0.6988958
14	0x3fcf3216	1.618716
15	0xbfab6cf1	-1.3392621
16	0xbffccd5d	-1.9750172
17	0xbf0e94da	-0.5569588
18	0xbd050f5b	-0.032485347
19	0x3ee40bb8	0.4454019
20	0xbf4bc21b	-0.79593056
21	0xc002f216	-2.0460258
22	0xbf8e0b4e	-1.10972
23	0xbf2de1eb	-0.6792285
24	0x3eb3970d	0.3507618
25	0xbf8f1ed4	-1.1181283
26	0xbf2f6542	-0.6851388
27	0x3edf90b2	0.4366508
28	0x3f46a60f	0.77597135
29	0x3f88ac65	1.0677611
30	0x3d9cf047	0.07663017
31	0x3f950bd2	1.1644232
32	0x3fe050e9	1.7524692
33	0x3f6a542e	0.915347
34	0x3e9de631	0.30839685
35	0x3cacf3d3	0.021112358
36	0x3f9784fa	1.1837456
37	0x3fa904ea	1.3204625
38	0x3efac704	0.48979962
39	0x3f12cfce	0.57348335
40	0xbf4d746a	-0.8025576
41	0xbfda5335	-1.7056643
42	0xc019aff0	-2.4013634
43	0xbf461761	-0.77379423
44	0x3f9424f0	1.1573772
45	0xbfd217a4	-1.6413465
46	0xc08df5fc	-4.4362774
47	0xc08f9b56	-4.487712
48	0xbf550531	-0.83211046
49	0x3fd10c3b	1.6331857
50	0x401064e5	2.256158
51	0xbfca4231	-1.580145
52	0xc0080762	-2.1254506
53	0xbf1a1ee5	-0.6020339
54	0xbd61947c	-0.055073246
55	0x3d6f7d6b	0.058469217
56	0xc02a2c4d	-2.658954
57	0xbf8820ec	-1.0635047
58	0x3ec46c15	0.3836371
59	0xbf250966	-0.64467466
60	0xc0467a74	-3.101224
61	0xbfdf0d6a	-1.7425969
62	0x3fe170af	1.7612513
63	0x3fd3b792	1.6540396
64	0xbfa55b31	-1.2918454
65	0xc02b1d6a	-2.6736703
66	0x3ed6a6bc	0.41924083
67	0x400a9fe5	2.1660092
68	0x3f5d8187	0.8652577
69	0xbf99c999	-1.2014648
70	0xbfcad731	-1.5846921
71	0x3f5da971	0.8658667
72	0x3fb44be3	1.4085659
73	0x3f07cf50	0.5305071
74	0xbe256a31	-0.1615379
75	0xbedbab99	-0.42904356
76	0x3f6228c5	0.8834346
77	0x3f4c4996	0.79799783
78	0x3e663c01	0.22483827
79	0xbf9fb0c6	-1.2475822
80	0xbe7619cb	-0.24033277
81	0x3df170c7	0.11789089
82	0x3de7ee6c	0.11324772
83	0x3fd8caa3	1.693684
84	0x3fe1c518	1.7638273
85	0xbd40e7a6	-0.047095917
86	0xbf0be143	-0.546406
87	0x3e19dfeb	0.15026824
88	0x3fcf2779	1.6183921
89	0x3ff0ba4b	1.8806852
90	0x3f4bec95	0.7965787
91	0x3ee9662f	0.45585772
92	0x3ec888e0	0.39166927
93	0x3cbf0f39	0.023322688
94	0xbf5f9799	-0.87340695
95	0x3fe336a3	1.7751049
96	0x3fe3ca62	1.7796137
97	0x3f4e4092	0.80567276
98	0xbf40c675	-0.7530282
99	0xbfbe9ef0	-1.4892254
100	0xbf0c9017	-0.54907364
101	0xbf7e8a6f	-0.9942998
102	0xbe9f2c0f	-0.31088302
103	0xbf3a5c7d	-0.72797376
104	0x3f5f9d39	0.8734928
105	0x3f77e45b	0.9683282
106	0x400e25b5	2.2210515
107	0x404af3b5	3.1711247
108	0x3fb0b8a9	1.3806354
109	0x3f2c618f	0.6733636
110	0x3fcb7f32	1.5898192
111	0x40340917	2.8130548
112	0x4005d329	2.0910132
113	0x3f16a2ad	0.58841974
114	0x3cabd5a1	0.02097589
115	0x3da3c453	0.0799643
116	0xbf5b3f8a	-0.8564383
117	0xc0092bbb	-2.143294
118	0xbf904181	-1.126999
119	0x3abf21fd	0.0014582273
120	0xbf5fb310	-0.873826
121	0xc04c0707	-3.187929
122	0xc058460e	-3.3792758
123	0xbe6e4f64	-0.23272473
124	0x3e992aa1	0.29915336
125	0x3f69f5e2	0.9139081
126	0x3f01b88e	0.50672233
127	0x3f3cd865	0.7376769
128	0x3f8993d4	1.0748239
129	0xbf40154a	-0.75032485
130	0xbfb00c28	-1.375371
131	0xc00a0e17	-2.15711
132	0xbf7cb7ce	-0.98717964
133	0x3f0c6ab0	0.5485029
134	0xbf00622a	-0.50149786
135	0xc012deb2	-2.2948422
136	0xc023db37	-2.5602548
137	0xbf7f54ed	-0.9973896
138	0x3e86cae8	0.2632668
139	0xbcb677c4	-0.022273906
140	0x400cedd5	2.202016
141	0x3f7e87a1	0.99425703
142	0x3f3f6876	0.7476877
143	0x3ed45404	0.4147035
144	0xbd407a08	-0.046991378
145	0x409d66c9	4.918797
146	0x3fe9d327	1.8267564
147	0x3f2a7277	0.6658091
148	0x3fbd14d8	1.4771986
149	0x3fa31654	1.2741189
150	0x3f7fa43e	0.9985999
151	0x3f310a1d	0.69156057
152	0x3f8aa108	1.0830393
153	0x3fc6c006	1.5527351
154	0x3fc48c0e	1.5355241
155	0x3eee0481	0.4648781
156	0x3e192a92	0.14957646
157	0x3fa4faab	1.2888998
158	0x3fdb82b0	1.7149258
159	0x3f9dd381	1.2330171
160	0x3fa0392e	1.251745
161	0x3fa58af2	1.2933028
162	0x3f960b99	1.1722289
163	0x3ea3d47a	0.31998044
164	0xbed177cb	-0.40911707
165	0x3f57fb5d	0.84367925
166	0x3fa32b75	1.2747637
167	0x3e977ffb	0.2958983
168	0xbfc3ba15	-1.5291163
169	0xbfcf7573	-1.6207718
170	0x3e333055	0.17498906
171	0x3ebd8971	0.37018922
172	0xbf1fc7e5	-0.6241439
173	0xc00a7eae	-2.163982
174	0xbfbe9803	-1.489014
175	0xc01364b2	-2.303021
176	0xc0137675	-2.304105
177	0xbf23cd16	-0.6398481
178	0x3f97f60a	1.187196
179	0x3fa3b995	1.279101
180	0xbeece42d	-0.46267834
181	0x3e839bd5	0.25704828
182	0x4013e679	2.310942
183	0x3fe88e3b	1.8168405
184	0x3e516215	0.20447572
185	0x3f49d0f9	0.7883449
186	0x3ff4e182	1.913132
187	0x4036dd66	2.857263
188	0x3f1bac23	0.60809535
189	0xbf13450f	-0.5752725
190	0x3e8c7c97	0.27438805
191	0x3fa2024f	1.2656955
192	0xbe644622	-0.22292379
193	0xbffcee38	-1.9760199
194	0xbf69133c	-0.91044974
195	0xbf1699f7	-0.5882868
196	0xbf881aea	-1.0633214
197	0xc052c953	-3.2935379
198	0xc0271b4f	-2.6110418
199	0x3e30dc43	0.17271523
200	0xbe6666b7	-0.2250012
201	0x3fd6fd3f	1.6796035
202	0xbf3cb0d0	-0.73707294
203	0xc05256c7	-3.2865465
204	0xbe9f29f6	-0.310867
205	0xbf271ead	-0.6528118
206	0x4027212b	2.6113994
207	0x400e0d7d	2.2195733
208	0xc005a3a4	-2.0881128
209	0xbf69ceac	-0.9133098
210	0xc00346dc	-2.0512
211	0x3f766728	0.96251154
212	0x4080e79c	4.0282726
213	0x3db36449	0.08759362
214	0xbeab93fe	-0.33511347
215	0xc00e9833	-2.2280395
216	0xbf5cb70e	-0.8621682
217	0x4011f8fc	2.2808218
218	0x3ee18d07	0.44052908
219	0xbe02b240	-0.1276331
220	0xbf81a652	-1.0128882
221	0xbfeba4cd	-1.8409668
222	0x3e545190	0.20734239
223	0xbd947818	-0.072494686
224	0xbdb5c8da	-0.088762
225	0xbfc23242	-1.5171587
226	0xc02a8b72	-2.664761
227	0xbf8dcdad	-1.1078392
228	0x3f3b886a	0.73255026
229	0x3f85dd21	1.0458108
230	0xc0413ac9	-3.019213
231	0xc01a19c8	-2.4078236
232	0xbf6b03e1	-0.91802794
233	0x3e924046	0.28564662
234	0xbf844716	-1.0334194
235	0xbfca7c4b	-1.5819181
236	0xbd837b4b	-0.06420001
237	0x3f35dea4	0.7104285
238	0xbe545690	-0.20736146
239	0xbfe110b0	-1.7583218
240	0x3f7e7c15	0.99408084
241	0x4011f3a6	2.2804961
242	0x3f75ef10	0.96067905
243	0xbe1f3f0f	-0.15551399
244	0xbf91d3d8	-1.1392775
245	0x400dd4da	2.2161164
246	0x402983aa	2.6486611
247	0x3fd4f1cd	1.6636292
248	0x3f867bba	1.0506508
249	0x400b5d0c	2.1775541
250	0xbf9bf50f	-1.2184161
251	0xbf07960a	-0.52963316
252	0x40188867	2.3833253
253	0x3f8a5c66	1.0809448
254	0xbf6bec94	-0.92157865
255	0xbfe295b5	-1.7701937

features.0.bias f4 [16]
0	0xc005a734	-2.0883303
1	0xc04c2c73	-3.190213
2	0xc034e097	-2.8262079
3	0xc0cae860	-6.340866
4	0xbf95382b	-1.1657766
5	0xc02b90aa	-2.6807046
6	0xc082afef	-4.0839763
7	0xbee018fb	-0.4376906
8	0xc019ca3d	-2.4029686
9	0x40093f6f	2.1444967
10	0x3d6593e2	0.056049235
11	0xc06482e5	-3.5704892
12	0xc08f7616	-4.483165
13	0xc03a0580	-2.9065857
14	0xc066dd67	-3.6072633
15	0xbff8efee	-1.9448221

features.2.weight f4 [16]
0	0x40032c53	2.0495803
1	0x3fea23ef	1.8292216
2	0x3f4e401a	0.8056656
3	0x3f3c7960	0.73622704
4	0x401f65eb	2.4905956
5	0x400572a7	2.0851228
6	0x3e9376a4	0.28801453
7	0x3f890ec5	1.0707632
8	0x409711b2	4.72091
9	0x400941c9	2.1446402
10	0x4025321b	2.5811832
11	0x3feeedc4	1.866631
12	0x3fc70615	1.5548731
13	0x4042c30b	3.0431545
14	0x403c66f2	2.9437833
15	0x400bbc4c	2.1833677

features.2.bias f4 [16]
0	0x3e99ea23	0.30061445
1	0xbcbd637b	-0.023118725
2	0x3ea19c8f	0.31564757
3	0x3f5f925e	0.87332714
4	0x3f819895	1.0124689
5	0x3f92c316	1.1465786
6	0x3e8dfceb	0.27732024
7	0xbdfaea9f	-0.12251782
8	0x3f2e10ed	0.67994577
9	0x3f0cb310	0.5496073
10	0x3fac4c37	1.3460759
11	0x3f5324b4	0.8247788
12	0x3f5b6e41	0.8571511
13	0xbe4401bc	-0.19141287
14	0x3eb3f204	0.3514558
15	0x3ed51102	0.41614538

features.2.running_mean f4 [16]
0	0x406d4aa1	3.70768
1	0x4059fd45	3.4060833
2	0x406d9bad	3.7126267
3	0x3e1354db	0.14387839
4	0x3fb2e48b	1.3975996
5	0x3f390928	0.72279596
6	0x3f540743	0.8282358
7	0x40136545	2.303056
8	0x3f39ee44	0.7262919
9	0x4083b93e	4.1163626
10	0x3fdfa94f	1.7473544
11	0x3f1da9b0	0.6158705
12	0x3f4c1a2d	0.7972744
13	0x40844da2	4.1344767
14	0x40ddad37	6.9273944
15	0x404e435b	3.222861

features.2.running_var f4 [16]
0	0x41c9a41d	25.205133
1	0x4147cd23	12.487582
2	0x410843fe	8.5166
3	0x3f0007d8	0.5001197
4	0x414b2da4	12.698643
5	0x409bb753	4.8661284
6	0x40d56d7f	6.669616
7	0x4144caf6	12.299551
8	0x40a180eb	5.046987
9	0x41c8cc2c	25.099693
10	0x4181b89f	16.215147
11	0x404c52fc	3.192565
12	0x40b76f7b	5.7323585
13	0x4196c512	18.846226
14	0x41c800b5	25.000345
15	0x41591064	13.566502

features.3.weight f4 [32, 16, 5, 5]
0	0x3f9deee1	1.2338525
1	0x3fc1be73	1.5136245
2	0x4011d786	2.2787795
3	0x3fafcfbc	1.373527
4	0xc02507c6	-2.5785995
5	0xbf07b620	-0.53012276
6	0xbe6ca642	-0.23110297
7	0x3fa96896	1.3235042
8	0x3f6b6e36	0.91965044
9	0xbfc8ae8b	-1.5678266
10	0xc021fc9e	-2.5310435
11	0xc00855f4	-2.1302462
12	0xbf0c6767	-0.5484528
13	0xbf0ec465	-0.55768424
14	0xbfc449c0	-1.5335007
15	0xc0723a33	-3.7848022
16	0xc045b1b8	-3.088972
17	0xbfe1c245	-1.7637411
18	0xc01f76f0	-2.4916344
19	0xc019b83c	-2.4018698
20	0xc08a6679	-4.325009
21	0xc08ef1d8	-4.467022
22	0xc069e122	-3.654366
23	0xc03709cf	-2.8599737
24	0xc02d75ce	-2.7103152
25	0xc02ea42b	-2.72877
26	0xbf8fac71	-1.12245
27	0x3de73534	0.112894446
28	0x3ee52c3a	0.44760305
29	0xbdf95f43	-0.12176373
30	0xc09ada61	-4.8391576
31	0xc002c24e	-2.0431094
32	0xbdd7740d	-0.10520182
33	0xbf0e744a	-0.55646193
34	0x3f28886c	0.65833163
35	0xc0b9e3e6	-5.8090696
36	0xbfe0deb4	-1.7567964
37	0xbd9f95cd	-0.07792244
38	0xbc2e7813	-0.010648745
39	0x3f7acb6e	0.9796666
40	0xbffdbdc9	-1.9823543
41	0xbf6fc35a	-0.9365746
42	0xbf707240	-0.9392433
43	0xbec77286	-0.38954562
44	0x3ef0c504	0.4702531
45	0xc045202d	-3.0800889
46	0xc02bcc72	-2.6843534
47	0xc002a6b1	-2.041424
48	0xbd237b8e	-0.039912753
49	0x3f31ecca	0.69501936
50	0xc02174c7	-2.5227525
51	0xbf0b59ab	-0.544337
52	0xbdf950b3	-0.12173595
53	0xbf2c4330	-0.6729002
54	0xbe37bf07	-0.17943965
55	0xbfe1571c	-1.7604709
56	0xbfc34dbb	-1.5258096
57	0xbeed015a	-0.46290094
58	0xbeb928b1	-0.36163858
59	0x3e1ddb1a	0.15415612
60	0xc049c7aa	-3.1528115
61	0xc004c17f	-2.07431
62	0xbd8d9754	-0.06913629
63	0x3f053707	0.5203709
64	0x3f824bcb	1.017938
65	0xc083b8c8	-4.1163063
66	0xbffa207d	-1.9541165
67	0xbe029d3c	-0.12755293
68	0x3e005d78	0.12535655
69	0x3f7878c0	0.9705925
70	0xc065c235	-3.5899785
71	0xbfcfb38d	-1.622667
72	0xbf325189	-0.6965566
73	0xbe1e14d6	-0.15437636
74	0x3f5bf4e4	0.8592055
75	0xbf20374e	-0.6258439
76	0xbfea1206	-1.828675
77	0xc02a6d7d	-2.6629326
78	0xc030624c	-2.7559996
79	0xc006682e	-2.1001086
80	0x3f714e28	0.9425988
81	0x3d95fe4a	0.073238924
82	0xbff3fa4c	-1.906076
83	0xbfc83668	-1.5641603
84	0xbfce4cbd	-1.6117169
85	0x3f8c5b3b	1.0965341
86	0x3dad396e	0.084582195
87	0xbfb01608	-1.3756723
88	0xbfa28503	-1.2696842
89	0xbfae0ad3	-1.3597053
90	0x3ef35cdc	0.47531784
91	0xbe7c724a	-0.24652973
92	0x3cedd11a	0.029030371
93	0xbf1aebc3	-0.60515994
94	0xc0190c5d	-2.3913796
95	0x3f8cbcae	1.099508
96	0xbde138e1	-0.10997177
97	0x3f337c44	0.7011149
98	0xbeba04a0	-0.36331654
99	0xc0578990	-3.3677711
100	0x3f68595c	0.9076135
101	0x3fb0690b	1.3782057
102	0x3f0481fc	0.5176084
103	0xbf4a67d0	-0.79064655
104	0x3dbb0eaf	0.0913366
105	0xbd96bfca	-0.073607996
106	0xbf07af0f	-0.53001493
107	0xbf49782d	-0.78699
108	0xbf169e4d	-0.588353
109	0x3e6978b6	0.22799954
110	0x3e9e467d	0.30913153
111	0x3ef02d94	0.46909773
112	0xbddbb7c8	-0.10728413
113	0xbf3c7840	-0.73620987
114	0xbe49eba8	-0.19718802
115	0x3fe6b325	1.802342
116	0x3f232067	0.6372132
117	0xbf4dc439	-0.80377537
118	0xbf507b04	-0.81437707
119	0xbe39b16f	-0.18134092
120	0x3f6725f8	0.9029231
121	0xbdf7c5c9	-0.120982714
122	0xbf4e907a	-0.80689204
123	0xbe851cc1	-0.259985
124	0x3f082114	0.53175473
125	0x409a8db2	4.829797
126	0x3fd75d66	1.6825378
127	0xc03b9756	-2.9311118
128	0xc06a079b	-3.6567142
129	0xbff4fdde	-1.9139974
130	0x40c86c36	6.2632093
131	0x4044e3a9	3.0763953
132	0xbfba76ff	-1.4567565
133	0xc01046ae	-2.254314
134	0xc002f51f	-2.046211
135	0x4042d467	3.044214
136	0x3f8a5f24	1.0810285
137	0xbf292575	-0.6607278
138	0xbfb75271	-1.4322034
139	0xc0122d83	-2.2840278
140	0x40633a03	3.5504158
141	0x3ffbfd1b	1.9686617
142	0x3f1f25e8	0.62167215
143	0xbeca370f	-0.3949513
144	0xc00d4092	-2.207066
145	0x406157d6	3.520986
146	0x4026b907	2.6050432
147	0x403ee0d5	2.9824727
148	0x3fe4d0db	1.7876238
149	0xbf661a9f	-0.8988437
150	0x3db524ad	0.08844886
151	0xbf6861b4	-0.90774083
152	0xbf75fe6b	-0.96091336
153	0xbf4936a5	-0.78599006
154	0xbebf24cb	-0.37332758
155	0x3eeef424	0.4667064
156	0xbf3f522d	-0.74734765
157	0xbf4c0938	-0.79701567
158	0xbecd37d2	-0.4008165
159	0xbe3db210	-0.18524957
160	0x3f203171	0.6257544
161	0xbec51520	-0.3849268
162	0xbf163b25	-0.58684
163	0xbead6c9f	-0.33871934
164	0x3cf8a98d	0.030354286
165	0x3f194d5a	0.59883654
166	0xbf2c27b5	-0.6724809
167	0xbf5b1a47	-0.8558697
168	0xbed7fcdd	-0.42185107
169	0xbe8bdf1e	-0.27318662
170	0x3f14c4be	0.58112705
171	0xbe8355b9	-0.2565134
172	0xbeebc77f	-0.4605064
173	0xbf3f7b22	-0.7479726
174	0xbfaa3bf7	-1.329955
175	0xbfbeed0e	-1.4916093
176	0xbfd586ff	-1.6681823
177	0xbf90f0fb	-1.1323541
178	0x3ea5707d	0.32312384
179	0x3fa1caba	1.2639992
180	0xbffd9d38	-1.9813604
181	0xbf9449b0	-1.1584988
182	0x3df413d7	0.11917847
183	0x3faebd7b	1.3651575
184	0x4000ccf6	2.0125098
185	0xbe82efec	-0.2557367
186	0x3f4cb5a9	0.7996469
187	0x3f4208fd	0.75794965
188	0x3f715112	0.9426433
189	0x3fe84267	1.8145264
190	0x3ed57242	0.41688734
191	0x3efed14d	0.4976906
192	0x3e8fac88	0.28061318
193	0x3f1d83c0	0.6152916
194	0x3face8c8	1.3508539
195	0xbf81c018	-1.0136747
196	0xbf11ed84	-0.57003045
197	0x3e3c9428	0.18415892
198	0x3f82fe70	1.0233898
199	0x3f5ebe00	0.87008667
200	0x3f87ed42	1.061928
201	0x401588b3	2.3364685
202	0x4037f7bd	2.8744957
203	0x3f87f648	1.0622034
204	0x3f66fb6a	0.9022738
205	0x3f54001f	0.82812685
206	0x3fc93b8b	1.5721296
207	0x3fe9119c	1.8208499
208	0x3f8d088c	1.1018233
209	0xbf28c898	-0.6593108
210	0xbe6ab082	-0.22918895
211	0x3e346ac2	0.1761885
212	0x3eddcef7	0.43321964
213	0x3f819c73	1.012587
214	0xbd4f6d8e	-0.05064159
215	0xbed47f03	-0.41503152
216	0xbefa9b46	-0.4894659
217	0xbfb93a07	-1.4470834
218	0xbf021792	-0.50817215
219	0x3daed5cd	0.08536873
220	0xbff903ac	-1.9454246
221	0xbfb53107	-1.4155587
222	0xbf2c2635	-0.672458
223	0xbf2a6a70	-0.6656866
224	0x3e83d2b4	0.2574669
225	0x3f019c3e	0.5062903
226	0xbeb0221c	-0.34401023
227	0xbc3df826	-0.011594808
228	0xbf28fd37	-0.66011375
229	0xbf83f5e3	-1.0309414
230	0x3ff7ea69	1.9368411
231	0x3f79d05c	0.97583556
232	0x3d2369d7	0.03989586
233	0xbf58c30e	-0.8467263
234	0xbf5db356	-0.8660177
235	0x3faa9959	1.3328048
236	0x3f06ed33	0.5270569
237	0x3de24ec1	0.11050177
238	0xbda2abf5	-0.079429545
239	0x3e3ab998	0.18234861
240	0x3f83c666	1.0294921
241	0x3f1dd583	0.6165392
242	0x3f1733e2	0.5906354
243	0x3f17ea98	0.59342337
244	0x3f063f22	0.52440083
245	0x3f79ba49	0.97549874
246	0x3faf220e	1.3682268
247	0x3fc8fe38	1.5702581
248	0x3f4cf752	0.8006488
249	0x3e222f4f	0.1583836
250	0x3fc6f11a	1.5542328
251	0x4009ef67	2.155237
252	0x3fde4c3d	1.7367016
253	0x3f54cb50	0.8312273
254	0x3fa0ec08	1.2572031
255	0x3f1348c5	0.5753291

features.3.bias f4 [32]
0	0xbf93385d	-1.1501576
1	0xbe99474d	-0.2993721
2	0xbdfaef71	-0.12252701
3	0xbffb87bc	-1.9650798
4	0xbf80f5c5	-1.0075003
5	0x3bd5f387	0.006529275
6	0xc00144c6	-2.0198226
7	0xbf4278e8	-0.7596574
8	0xc0180fdb	-2.3759677
9	0x3e67bb25	0.22629984
10	0xc0569080	-3.3525696
11	0xbed6b1ce	-0.4193253
12	0xbfa6c209	-1.3027965
13	0x3e6ac103	0.2292519
14	0xbf6a3024	-0.91479707
15	0xc0062544	-2.0960245
16	0xbb470cfd	-0.0030372732
17	0xbf703746	-0.9383434
18	0xc04484ac	-3.0705976
19	0xbf892caa	-1.0716755
20	0x3e6a3770	0.2287271
21	0xbfa24637	-1.2677678
22	0xbfc1028a	-1.50789
23	0xbfaac5bc	-1.3341594
24	0xc000c012	-2.011723
25	0xbf8a2e74	-1.0795426
26	0xbfd5ffcd	-1.6718689
27	0x3f52529d	0.8215731
28	0xbfd0ec32	-1.6322081
29	0xbf870b8d	-1.05504
30	0xc00a2e25	-2.1590664
31	0xbfa78df3	-1.3090194

features.5.weight f4 [32]
0	0x4019d9e3	2.4039237
1	0x3ff7dbe2	1.9363978
2	0x4042f417	3.046148
3	0x4055b707	3.339296
4	0x4039814b	2.8985164
5	0x40409dc1	3.0096285
6	0x40115f08	2.2714252
7	0x4010dd19	2.2634947
8	0x40300f6e	2.7509418
9	0x400c51aa	2.1924844
10	0x3fbbd203	1.4673465
11	0x400f596b	2.2398326
12	0x401ce084	2.4512033
13	0x40181bc5	2.376695
14	0x4035e1a3	2.8418968
15	0x3ff55c75	1.9168841
16	0x40335d3e	2.802566
17	0x400474f2	2.0696378
18	0x40272185	2.6114209
19	0x4020cb62	2.5124135
20	0x400789cc	2.1177855
21	0x401b30f4	2.4248629
22	0x4007beca	2.1210198
23	0x4006ab32	2.104199
24	0x404c1488	3.1887531
25	0x4009984e	2.149921
26	0x401ffe0f	2.4998815
27	0x3fff1367	1.9927796
28	0x4021d0fa	2.52838
29	0x404ad325	3.1691372
30	0x40258d9f	2.5867689
31	0x40094e21	2.1453936

features.5.bias f4 [32]
0	0xbdd3a2c8	-0.103337824
1	0xbe61f27f	-0.22065161
2	0xbea2a9e5	-0.31770244
3	0xbe98bbbb	-0.29830727
4	0x3c080a2d	0.008303207
5	0x3f00d4b6	0.5032457
6	0x3e42fc03	0.19041447
7	0xbedb3a8d	-0.42818108
8	0xbc789f15	-0.015174647
9	0xbd9df845	-0.07713369
10	0xbf1b3225	-0.6062339
11	0x3e16c08a	0.14721885
12	0x3f0e592f	0.55604833
13	0x3ea17082	0.3153115
14	0xbeb72d29	-0.35776642
15	0xbe0b206a	-0.13586584
16	0x3ea132b3	0.31483993
17	0x3e01a93f	0.12662219
18	0xbdd5051d	-0.10401366
19	0x3f00145a	0.50031054
20	0xbc5d8a7c	-0.013521787
21	0x3e9a6c99	0.30160978
22	0x3e6e95fa	0.23299399
23	0x3d463607	0.04839137
24	0x3ea18f91	0.31554845
25	0xbe84029c	-0.2578324
26	0x3f882249	1.0635463
27	0xbde0571b	-0.10954114
28	0x3d93d160	0.072176695
29	0x3ebbc72a	0.36675388
30	0xbd86d3e0	-0.06583381
31	0x3da9d60d	0.0829278

features.5.running_mean f4 [32]
0	0x42986af4	76.20889
1	0x41cb35d6	25.401287
2	0x429d8e5f	78.77807
3	0x427f5c07	63.83987
4	0x42a2ac56	81.33659
5	0x4236a482	45.660652
6	0x41fda4fd	31.70556
7	0x4259cab9	54.44797
8	0x427d555c	63.33336
9	0x41c27112	24.30521
10	0x40e526b1	7.160973
11	0x42528ed9	52.6395
12	0x422a2ace	42.5418
13	0x42a35b23	81.678
14	0x42297c02	42.3711
15	0x4260edc8	56.23221
16	0x42a9de45	84.93412
17	0x41b3675b	22.425467
18	0x41d0a924	26.082588
19	0x42351b54	45.276688
20	0x42a302d6	81.50554
21	0x421dc5d9	39.44321
22	0x42ae5e60	87.184326
23	0x419944e9	19.158648
24	0x424cd8f6	51.211876
25	0x423e9333	47.64375
26	0x41ea2c46	29.271618
27	0x4219f4b0	38.488953
28	0x42489ea0	50.154907
29	0x42a1e597	80.94842
30	0x41be0d5a	23.75652
31	0x41b46c7f	22.552977

features.5.running_var f4 [32]
0	0x463f5c26	12247.037
1	0x4587147d	4322.561
2	0x461466ad	9497.669
3	0x46466720	12697.781
4	0x46bba43d	24018.12
5	0x46355d32	11607.299
6	0x45c0e177	6172.183
7	0x46331d05	11463.255
8	0x4651e74d	13433.825
9	0x4552f5f1	3375.3713
10	0x448a2ebf	1105.4608
11	0x46177953	9694.331
12	0x45f6c4e0	7896.6094
13	0x465ce29f	14136.655
14	0x460461dd	8472.466
15	0x466fdd98	15351.398
16	0x46bde870	24308.219
17	0x458ddbdc	4539.4824
18	0x45bce7ac	6044.959
19	0x4632145c	11397.09
20	0x46a9545a	21674.176
21	0x4642170e	12421.764
22	0x46a141ce	20640.902
23	0x4545b535	3163.3254
24	0x464e4ba1	13202.907
25	0x45e7d5a8	7418.707
26	0x45bdd3f1	6074.4927
27	0x45e32865	7269.0493
28	0x4665de08	14711.508
29	0x46d08314	26689.54
30	0x45763d3c	3939.8271
31	0x4586fb96	4319.448

features.8.weight f4 [64, 32, 3, 3]
0	0xbc9a7c2c	-0.018858038
1	0xbf76599c	-0.96230483
2	0xbfa81c69	-1.313367
3	0x3e8d1807	0.27557394
4	0xbe4cea8f	-0.20011352
5	0xbf233ed7	-0.6376776
6	0xbf67df02	-0.9057466
7	0x3e566e2c	0.20940465
8	0xbcc1afb5	-0.023643354
9	0xc00e9152	-2.2276196
10	0xc062c71b	-3.5434024
11	0xc00ebcab	-2.2302654
12	0x40340b40	2.8131866
13	0xbeaf94d7	-0.34293243
14	0xbff304b2	-1.8985808
15	0x4017268e	2.3617282
16	0x3f7ea329	0.9946771
17	0xbfb05f9a	-1.3779175
18	0xbfbcbe71	-1.4745618
19	0x3ef0163e	0.4689197
20	0x3f78c910	0.971818
21	0xbf97e6ef	-1.186735
22	0x3e58da0b	0.21176927
23	0xbe35d1a9	-0.1775576
24	0xbf87cdca	-1.0609677
25	0x3e79e2ba	0.24402896
26	0x3f932a0e	1.1497209
27	0xc079a6c2	-3.900803
28	0xc098a485	-4.770083
29	0xc0882b51	-4.2552876
30	0xbc9fddbb	-0.019514909
31	0xbf1d0cb0	-0.61347485
32	0xbf29a365	-0.66264945
33	0x3ef83c71	0.48483613
34	0x400d6a02	2.2095952
35	0x3fa11420	1.2584267
36	0xbff383aa	-1.9024556
37	0xc070fe12	-3.7655072
38	0xc07fa608	-3.9945087
39	0xc0a9f166	-5.3107176
40	0xc08f87ac	-4.4853115
41	0xc0656e2c	-3.5848494
42	0xc0a4ae14	-5.14625
43	0xbfeaeefb	-1.8354181
44	0xbf575f46	-0.8412975
45	0x3e951ad5	0.29122034
46	0x3e93c019	0.28857496
47	0xbe3cda12	-0.18442562
48	0xbebfb17d	-0.374401
49	0xbea6a26c	-0.32545793
50	0x3f5225e7	0.82089084
51	0x3d4ec68d	0.05048232
52	0x3f8217a4	1.0163465
53	0xbf481553	-0.7815754
54	0xbf797100	-0.9743805
55	0xc07434c6	-3.815721
56	0xc0aa5c8e	-5.323798
57	0xbf85f299	-1.046466
58	0xbfcf7c25	-1.6209761
59	0xc030e169	-2.763758
60	0xbfbfb427	-1.4976853
61	0xbe291540	-0.16512012
62	0x401075a7	2.257181
63	0x3dbff495	0.09372822
64	0x3f37385c	0.7157037
65	0x40226527	2.5374238
66	0xbf4a93af	-0.791316
67	0xbefb733b	-0.4911135
68	0x3ec48720	0.38384342
69	0x3ed8b740	0.4232731
70	0x3d99e231	0.07513846
71	0x3f6c4385	0.92290527
72	0xc048a199	-3.1348631
73	0xc0448982	-3.0708928
74	0xc0926b19	-4.5755734
75	0x3f2e688d	0.6812828
76	0xbc3a7dbe	-0.011382518
77	0x3bf4eb8d	0.007474369
78	0x3f9c45d4	1.220881
79	0x3ff84797	1.9396847
80	0x3f7925df	0.9732341
81	0x403ad5a0	2.9192886
82	0x3f8a7a39	1.0818549
83	0x3eadda53	0.3395563
84	0x3f2a34ab	0.66486615
85	0xbe8a0453	-0.26956424
86	0x3eb637f3	0.3558956
87	0x3e65d1da	0.22443333
88	0x3f0f312d	0.5593441
89	0x3db5df29	0.08880455
90	0x3f9966de	1.1984518
91	0x3edb8d34	0.42881167
92	0x400a59a6	2.1617217
93	0xbef38356	-0.4756114
94	0xbe0b91af	-0.13629793
95	0x3ec5d063	0.3863555
96	0x3f8d8a33	1.10578
97	0xbd9b2d0d	-0.07576952
98	0x3e6edf9f	0.23327492
99	0xc07dbcca	-3.9646478
100	0xbed258e8	-0.41083455
101	0x3f07fdd2	0.53121674
102	0xc0985223	-4.7600265
103	0x3e6f93b3	0.23396187
104	0xbed344dc	-0.41263473
105	0xc029b102	-2.6514287
106	0x3f4c3610	0.7976999
107	0xbf02c9b8	-0.5108905
108	0xc0949924	-4.643694
109	0xc01e88cc	-2.4770994
110	0xbe89e25e	-0.26930517
111	0xbfa7e07f	-1.3115386
112	0x3e99cc8d	0.30038872
113	0x3f893a7b	1.0720972
114	0xc04591fc	-3.0870352
115	0xbe695a8a	-0.22788444
116	0x3ff15dc4	1.885674
117	0x401c3799	2.4408934
118	0x3d2f0dab	0.042737644
119	0xbfb97f42	-1.4491961
120	0x3f7572f4	0.9587853
121	0x3e9e0da7	0.3086979
122	0xbfa15be0	-1.2606163
123	0x3e7c33c3	0.2462912
124	0x3ed94a13	0.42439327
125	0xbf564c9d	-0.8371065
126	0x3f765070	0.9621649
127	0x3fda6151	1.7060949
128	0x3f4ec1d9	0.8076454
129	0xbd7907a3	-0.0607983
130	0x3ee3d944	0.44501698
131	0xbf02bd0c	-0.5106971
132	0x3f871c86	1.055558
133	0x3eb527c3	0.35381898
134	0xc009fc63	-2.1560295
135	0xbfbd7095	-1.4799982
136	0x3d5b2fd0	0.053512394
137	0xbf039091	-0.51392466
138	0xbf983936	-1.1892459
139	0x3e3e3cbc	0.18577856
140	0xbf9e4992	-1.2366202
141	0xbed86a48	-0.42268586
142	0x3e4e8ffd	0.20172115
143	0xbec2dc77	-0.38058826
144	0xc0195cf0	-2.3962975
145	0xbfb07854	-1.3786721
146	0xc025e116	-2.5918632
147	0xc07a31d0	-3.9092903
148	0xc0575d69	-3.3650763
149	0xbfac15e6	-1.3444183
150	0xc0384f4e	-2.8798404
151	0xc025bef3	-2.5897796
152	0xc03438cd	-2.8159668
153	0xbee62e9e	-0.4495744
154	0x3ea8b929	0.32953766
155	0x3bc11ed7	0.005893569
156	0xbf9a502d	-1.2055718
157	0xbf0a3769	-0.539908
158	0xbe6ea7a6	-0.2330614
159	0xbfa8f6f6	-1.3200366
160	0xbe9c2c78	-0.30502677
161	0xbfada985	-1.3567358
162	0xc088d8e7	-4.2764773
163	0xc02656db	-2.5990512
164	0xc0615db6	-3.5213447
165	0xc03bf946	-2.9370894
166	0xbff670b8	-1.9253149
167	0xc078d94f	-3.8882635
168	0xc00fad23	-2.2449424
169	0xc014bf05	-2.324159
170	0xbf864b71	-1.0491773
171	0xbfc23f2f	-1.5175532
172	0xbe82b56f	-0.25529048
173	0xc0573c19	-3.363043
174	0xbf73fd82	-0.953087
175	0xbe4492a0	-0.19196558
176	0x3dcb24ff	0.09919166
177	0xbf2e1057	-0.6799368
178	0xbd800f55	-0.06252924
179	0x3fd1bcd2	1.6385748
180	0xbded2738	-0.11579746
181	0x3f3559f5	0.7084039
182	0xbe03d82b	-0.1287543
183	0x3e38b88b	0.18039148
184	0x3f237bfd	0.63861066
185	0xbf837b08	-1.0271921
186	0x3fa51b2a	1.2898915
187	0x3f7d0c5b	0.9884698
188	0x3f41ce20	0.75705147
189	0xc0933966	-4.6007566
190	0xbfd795bb	-1.6842569
191	0xc00ad80c	-2.1694365
192	0xc0a89a3d	-5.268828
193	0xbf9310f0	-1.1489544
194	0xbe2ae0d9	-0.16687335
195	0xc0294dd1	-2.6453745
196	0xbff67962	-1.9255793
197	0x3f392de0	0.72335625
198	0x3fb51eea	1.4150059
199	0x3f9b3749	1.2126247
200	0xbedb7aeb	-0.42867216
201	0x3f25cb89	0.64763695
202	0x3f0fff53	0.5624897
203	0xbf453863	-0.77039164
204	0x3f816ef4	1.0111985
205	0xbaa06224	-0.001223628
206	0x3e18c774	0.14919835
207	0xbf242cfb	-0.64131135
208	0xbf741da5	-0.95357734
209	0xc0c3afc7	-6.115207
210	0xbfa6276d	-1.2980782
211	0xbec57946	-0.38569087
212	0xc0063e1b	-2.0975406
213	0xbfaf8c28	-1.3714647
214	0xbfb47194	-1.4097161
215	0xbd630eee	-0.05543416
216	0xc00523c6	-2.0803084
217	0xc07037de	-3.7534099
218	0xbfa243db	-1.2676958
219	0xbff84472	-1.9395888
220	0xc086c05e	-4.2109823
221	0xc0144f45	-2.3173382
222	0xc01eefbc	-2.4833822
223	0xbff83a78	-1.9392843
224	0xc05a853f	-3.4143827
225	0x3f569cf4	0.8383324
226	0x3e8d0d46	0.2754919
227	0x3ecc33d1	0.39883283
228	0x3e71c7fe	0.23611447
229	0x3e40c950	0.18826795
230	0x3f785b01	0.9701386
231	0x3fb87501	1.4410707
232	0xbd88e641	-0.066845424
233	0x3b33c3cf	0.0027429943
234	0x4001835c	2.0236425
235	0xbf9e9ce5	-1.239163
236	0xbee494b0	-0.4464469
237	0x3f69236a	0.9106966
238	0x3cdd3110	0.027000934
239	0xbfb56dd6	-1.4174144
240	0x3f2f160b	0.6839301
241	0x3f90e76c	1.1320624
242	0xc00ab590	-2.1673317
243	0x400a516d	2.1612198
244	0x3eba0488	0.36331582
245	0x3f34a162	0.7055875
246	0x3f7918e4	0.97303605
247	0x3f97b172	1.1851027
248	0x3eb23f1b	0.3481377
249	0x3eb0feec	0.3456949
250	0x3e05d3c8	0.1306907
251	0x3e796994	0.24356681
252	0xc0019eb8	-2.0253124
253	0xc06e4ffc	-3.7236319
254	0xc0058c29	-2.0866797
255	0xc018e675	-2.389066

features.8.bias f4 [64]
0	0xbf8f36cb	-1.1188596
1	0xc0868d20	-4.204727
2	0xbf8d5126	-1.104039
3	0xc01cb80d	-2.4487336
4	0xc005f96d	-2.0933487
5	0xc0774f1f	-3.8642042
6	0x3ef21b0b	0.47286257
7	0xbfec9e70	-1.8485851
8	0xbeef88ff	-0.46784207
9	0xbf23c101	-0.63966376
10	0xc0264e7e	-2.5985408
11	0xc090a891	-4.520577
12	0xbff39c05	-1.9031988
13	0xc01a560a	-2.4115014
14	0xc04ea86b	-3.2290294
15	0xc00e345f	-2.2219465
16	0xbe05b331	-0.13056637
17	0xbf160d08	-0.58613634
18	0xbff7a2c4	-1.9346547
19	0xc040889c	-3.008338
20	0xc0836eb4	-4.1072636
21	0xc02f1727	-2.735788
22	0xc0066734	-2.100049
23	0xc0594722	-3.3949666
24	0xc084402e	-4.1328344
25	0xc051b6fe	-3.276794
26	0xc07007f7	-3.7504861
27	0xbff7ff71	-1.937483
28	0xbee335e3	-0.4437705
29	0xc05df927	-3.468332
30	0xc0283fc1	-2.6288912
31	0xc017fb42	-2.3747106
32	0xc02fd492	-2.7473493
33	0xbf841826	-1.031987
34	0xbff7399e	-1.9314458
35	0xc0119393	-2.2746322
36	0xc09186b0	-4.5476913
37	0xc00f3ae4	-2.2379694
38	0xc055f4ca	-3.3430657
39	0xc00b4ad6	-2.1764426
40	0xc06e670a	-3.725039
41	0xc084cce5	-4.1500115
42	0xc084931d	-4.142958
43	0xc002003b	-2.031264
44	0xc0e90d6e	-7.2828894
45	0xc04b772f	-3.1791494
46	0xc002ecc2	-2.0457006
47	0xc05be5f3	-3.43591
48	0xc0b57cf1	-5.6715016
49	0xbde4923a	-0.11160703
50	0xc00e6518	-2.2249203
51	0xbf763044	-0.961674
52	0xc07c4216	-3.9415336
53	0xc00656d9	-2.0990508
54	0xc004b696	-2.0736442
55	0xc0831fbc	-4.097624
56	0xc020193d	-2.5015404
57	0xbf8678ad	-1.0505577
58	0xc04dc485	-3.2151196
59	0xc09ec6f7	-4.9617877
60	0xbfc4417f	-1.5332488
61	0xc017dc32	-2.3728147
62	0xc05c910d	-3.4463532
63	0xc0b1990b	-5.549932

features.10.weight f4 [64]
0	0x405f34cb	3.4875972
1	0x3f868524	1.0509381
2	0x407e2449	3.9709647
3	0x3e9d0da3	0.30674466
4	0x4000a692	2.0101666
5	0x3fe8a975	1.8176714
6	0x4033c501	2.8088992
7	0x3fd1627f	1.6358184
8	0xbdb9a24f	-0.09064161
9	0x40302842	2.7524571
10	0x3fd0f8d7	1.632594
11	0x404432d4	3.0656023
12	0x400cc629	2.1995947
13	0x3fa06e73	1.2533706
14	0x402db322	2.7140584
15	0x3fa349ec	1.2756934
16	0x3f85eda6	1.046315
17	0x400f6afd	2.240905
18	0x402ea15c	2.7285986
19	0x3fcfaf84	1.6225438
20	0xbdff637e	-0.124701485
21	0x3f3e9915	0.74452335
22	0x3faaa775	1.3332354
23	0x40241c0a	2.5642114
24	0x3ff46bcc	1.9095397
25	0x3f85a70d	1.0441605
26	0x4059f1d1	3.4053843
27	0x3fd130d1	1.6343023
28	0x408615d0	4.1901627
29	0x40538a27	3.3053071
30	0x403ec5bf	2.9808195
31	0x401f7dfc	2.4920645
32	0x3fe4bee3	1.7870754
33	0x401777d9	2.36669
34	0x3fe54234	1.7910829
35	0x40069018	2.1025448
36	0x3fb40d7d	1.4066616
37	0x3f8251c5	1.0181204
38	0x40161883	2.345246
39	0x3da39424	0.0798724
40	0x3ffcdc9e	1.9754827
41	0x4049e0f9	3.1543562
42	0x4028e457	2.6389368
43	0x40342c4b	2.8152034
44	0x3f94fc53	1.1639503
45	0x404a1ce6	3.1580138
46	0x3fc5e27d	1.5459744
47	0x40615734	3.5209475
48	0x4040888f	3.0083349
49	0x400f5b5b	2.239951
50	0x3feb1163	1.8364681
51	0x4022c5de	2.5433269
52	0x40187cff	2.3826292
53	0x3fffc79b	1.998279
54	0x40195e93	2.3963974
55	0x3fc29156	1.5200603
56	0x3f92886c	1.1447883
57	0x400a4b4f	2.1608465
58	0x40148dd2	2.321156
59	0x402ce532	2.701489
60	0x404d453a	3.2073503
61	0x40413668	3.0189457
62	0x401179ab	2.273051
63	0x3f4236fb	0.75865144

features.10.bias f4 [64]
0	0x3fee4971	1.8616163
1	0xbe0356dd	-0.12826104
2	0x3ff06401	1.8780519
3	0xbeade814	-0.33966124
4	0x3f0ca580	0.5494003
5	0x3fa733c4	1.3062673
6	0x3f9b5887	1.2136391
7	0x3f1bede3	0.6090986
8	0xbe464ee9	-0.1936604
9	0x3fa0bacd	1.2557007
10	0xbd9712e6	-0.073766515
11	0x3fb878e6	1.4411895
12	0x3eaf105a	0.34192163
13	0x3f09c778	0.5381999
14	0x3f16e13d	0.58937436
15	0xbee0217a	-0.4377554
16	0x3dd92fef	0.10604846
17	0x3f202699	0.62558895
18	0x3e9cc1cc	0.30616605
19	0x3f26d465	0.6516784
20	0x3dae27bf	0.08503675
21	0x3ec06e94	0.37584364
22	0x3ea3c792	0.31988198
23	0x3f910ca1	1.1331979
24	0x3f8ae05d	1.084972
25	0x3a042dff	0.00050422543
26	0x3ea8c73c	0.32964504
27	0x3de80fdc	0.1133115
28	0x40012b54	2.0182695
29	0x3f7a6c3f	0.9782142
30	0x3f90c990	1.1311512
31	0x3fb2655e	1.3937185
32	0x3f1a37dd	0.6024149
33	0x3f01e6e6	0.5074295
34	0x3ec8dbb6	0.39230126
35	0x3fb9f873	1.4528946
36	0x3f15310c	0.58277965
37	0x3e52bba0	0.20579386
38	0xbf18180c	-0.5941169
39	0x3e8e24c6	0.2776243
40	0x3f05d4e9	0.52278
41	0x3f302813	0.6881115
42	0x3f4caaf8	0.7994838
43	0x3f3e1fe0	0.7426739
44	0x3f1f7f04	0.62303185
45	0x3f92721c	1.1441073
46	0x3e4e8b7c	0.20170397
47	0x3fcf4650	1.6193333
48	0x3fcffa5b	1.6248277
49	0x3f544282	0.8291398
50	0x3f8e878d	1.1135117
51	0x3f2f8509	0.6856237
52	0x3f02c565	0.5108245
53	0x3fa949ea	1.3225682
54	0x3e6beb3b	0.23038952
55	0xbe95cc75	-0.2925755
56	0x3df67cac	0.12035498
57	0x3f3ff0da	0.74976885
58	0x3f821f50	1.0165806
59	0x3ec093e5	0.37612835
60	0x3fa3d8ef	1.2800578
61	0x3f8e9e14	1.1141992
62	0x3f697a53	0.91202277
63	0x3d855b64	0.06511572

features.10.running_mean f4 [64]
0	0x4246c179	49.68894
1	0x41f11a0f	30.137724
2	0x428160ba	64.68892
3	0x429b2ffd	77.59373
4	0x42884fe3	68.15603
5	0x422b4ed2	42.826973
6	0x425fa6fd	55.913074
7	0x42b9d422	92.91432
8	0x4276b3d6	61.67562
9	0x42e3c9f1	113.89442
10	0x41e9dddf	29.233335
11	0x423164db	44.34849
12	0x428c8823	70.26589
13	0x42e3c3d7	113.8825
14	0x4268daed	58.213795
15	0x4263550c	56.833054
16	0x4260ae54	56.170242
17	0x42a73f14	83.6232
18	0x4244be42	49.1858
19	0x427e83f7	63.628872
20	0x42039511	32.895573
21	0x430e245d	142.14204
22	0x424f1a39	51.775608
23	0x41d127b4	26.144386
24	0x42994cfb	76.65035
25	0x426472b4	57.112015
26	0x4258d747	54.21023
27	0x423bda95	46.96346
28	0x425f2bf2	55.792915
29	0x4292cd28	73.400696
30	0x4268f7a7	58.241848
31	0x423dc68f	47.443905
32	0x4248ae9b	50.170513
33	0x42a10a2a	80.51985
34	0x428f5160	71.658936
35	0x4287bbef	67.86706
36	0x42550f5a	53.26499
37	0x426dcd1c	59.450302
38	0x422d8ce5	43.387592
39	0x43055c8e	133.36154
40	0x427b85f9	62.880833
41	0x41fa7c71	31.310762
42	0x42805f14	64.1857
43	0x428b57b3	69.67129
44	0x42636921	56.852665
45	0x423d8716	47.38192
46	0x42c743aa	99.63216
47	0x42234364	40.81581
48	0x42387b75	46.120564
49	0x42a36119	81.689644
50	0x427a4bee	62.57415
51	0x42a1013f	80.50243
52	0x4220e55a	40.223976
53	0x42019f5c	32.405624
54	0x4207651b	33.848736
55	0x423899a6	46.150047
56	0x421f958a	39.896034
57	0x42559376	53.394005
58	0x429e897e	79.26854
59	0x420d672d	35.350758
60	0x42619f09	56.405308
61	0x428df4ae	70.97789
62	0x42b67fee	91.24986
63	0x43050ad1	133.04225

features.10.running_var f4 [64]
0	0x45ec2226	7556.2686
1	0x459e08e2	5057.1104
2	0x463cc0b0	12080.172
3	0x468a88e5	17732.447
4	0x46462c17	12683.022
5	0x460163b7	8280.929
6	0x460f266e	9161.607
7	0x46aee174	22384.727
8	0x4624793c	10526.309
9	0x46a65c25	21294.072
10	0x4579830e	3992.191
11	0x45f6c760	7896.922
12	0x46434161	12496.345
13	0x46ba9cc6	23886.387
14	0x4623b29c	10476.652
15	0x4625c8d6	10610.209
16	0x4629f297	10876.647
17	0x46aafd23	21886.568
18	0x46157bf8	9566.992
19	0x462eeb2a	11194.791
20	0x457dfffd	4063.9993
21	0x4709ea72	35306.445
22	0x460d69ec	9050.48
23	0x45703c33	3843.7625
24	0x467f7e33	16351.55
25	0x462c727d	11036.622
26	0x461ae6c5	9913.692
27	0x460428b0	8458.172
28	0x4616f07c	9660.121
29	0x4654de6f	13623.608
30	0x4637e55e	11769.342
31	0x462a3a31	10894.548
32	0x46020689	8321.634
33	0x468cb460	18010.188
34	0x465a87ec	13985.98
35	0x46521300	13444.75
36	0x46156f7b	9563.87
37	0x4632dddd	11447.466
38	0x45fa39ef	8007.2417
39	0x46da912b	27976.584
40	0x464b346f	13005.108
41	0x4598201c	4868.0137
42	0x468baffc	17879.992
43	0x46569824	13734.035
44	0x463175f6	11357.49
45	0x45f1f237	7742.277
46	0x46db4064	28064.195
47	0x45c9f9f8	6463.246
48	0x45f82e6c	7941.8027
49	0x466e126e	15236.607
50	0x462358e5	10454.224
51	0x4682b1f7	16728.982
52	0x45b6f1bf	5854.2183
53	0x45b9b12c	5942.1465
54	0x4591139a	4642.45
55	0x45dd9528	7090.6445
56	0x45cb19de	6499.2334
57	0x45fd7cf1	8111.6177
58	0x46808894	16452.29
59	0x45aa5b4c	5451.412
60	0x461ee884	10170.129
61	0x4654e54e	13625.326
62	0x469fc866	20452.2
63	0x46c81485	25610.26

features.11.weight f4 [64, 64, 3, 3]
0	0xc080f4bc	-4.029875
1	0xbfed4df0	-1.853941
2	0xbf1eb271	-0.6199103
3	0xc00f87eb	-2.2426708
4	0xbfc5a3ca	-1.544061
5	0x3f60e2fd	0.87846357
6	0x3ed0f685	0.4081308
7	0x401255d6	2.286489
8	0x3f54f00e	0.83178794
9	0x4005c3ba	2.0900712
10	0x3ef9f0d2	0.48816544
11	0xbe3af5b5	-0.18257792
12	0x40282742	2.627396
13	0x3f624140	0.88380814
14	0x3e3661f4	0.17810804
15	0x3de8947f	0.113564484
16	0x3f4b9ee3	0.79539317
17	0x3d17b5d0	0.037038624
18	0xbfc7b5ea	-1.5602391
19	0x3f8bcda0	1.0922127
20	0x3f1a456e	0.6026219
21	0x3e13f478	0.14448726
22	0x3fe39dd5	1.7782542
23	0xbf88bcce	-1.0682619
24	0x3ffda95a	1.9817307
25	0x3f859361	1.0435601
26	0xbf24ac22	-0.64325154
27	0xbed25758	-0.41082263
28	0xbf39a15a	-0.7251183
29	0xc02edd08	-2.7322407
30	0xbfbed0ae	-1.4907434
31	0xbf55e81e	-0.8355731
32	0xc00cebef	-2.2019002
33	0xbfd3801b	-1.652347
34	0x3fa3f353	1.2808632
35	0x3faa5f5e	1.3310354
36	0xbfd51818	-1.6647978
37	0xc07700e8	-3.8594303
38	0xbfe2d7bd	-1.7722088
39	0x3f3c8c87	0.7365193
40	0xbfe18b41	-1.7620622
41	0x3edb3492	0.42813545
42	0x3f9183de	1.1368368
43	0xbf9caa0b	-1.2239393
44	0x3f08a161	0.53371245
45	0x3ea5c02a	0.32373172
46	0xbfb9caf2	-1.4515059
47	0xc0299649	-2.6497977
48	0xbf9c6a1a	-1.221988
49	0xbfb16f48	-1.3862085
50	0xbfa84154	-1.3144937
51	0xbfe53916	-1.7908046
52	0xbeb4e854	-0.35333502
53	0x3e388381	0.18018915
54	0xc0937175	-4.6075997
55	0xbc130eda	-0.008975709
56	0x3fc85a03	1.5652469
57	0xbffb8c9a	-1.9652283
58	0x3f9b060a	1.2111218
59	0x3feae270	1.8350353
60	0xbf959a07	-1.168763
61	0xbe89b025	-0.268922
62	0xbf9b65bc	-1.2140422
63	0x3f07377e	0.5281905
64	0x3fb0db93	1.3817009
65	0x3e26e926	0.16299877
66	0x3e76151b	0.24031489
67	0xbec8b814	-0.3920294
68	0x3e23ac90	0.15983796
69	0xbfd7b713	-1.6852745
70	0xbf932bee	-1.1497781
71	0xbff9d37c	-1.9517665
72	0x3ff154fc	1.885406
73	0xbf475e95	-0.77878696
74	0xc07bb13e	-3.932693
75	0xbe0b7e0c	-0.13622302
76	0xbf43e75e	-0.76524913
77	0xc0038cc1	-2.055466
78	0x3f8b9a6b	1.09065
79	0x3f0188b7	0.50599235
80	0x3fa8ddde	1.3192708
81	0xc06652c4	-3.5988016
82	0xc0657adf	-3.5856245
83	0xbfe5839c	-1.7930789
84	0xbfb000ca	-1.3750241
85	0xbfe41121	-1.7817727
86	0xbff8a751	-1.9426061
87	0xbf6570fe	-0.8962554
88	0xbf98ae58	-1.1928205
89	0xbdd19ce9	-0.10235006
90	0xbef1211b	-0.4709557
91	0xbe16c945	-0.14725216
92	0xbfeb35be	-1.8375776
93	0xbd30a92a	-0.043130077
94	0xc01dffaa	-2.4687295
95	0x3bcc0a84	0.0062268395
96	0xbf578f89	-0.8420339
97	0xbd5eefb5	-0.05442782
98	0x3e79cd1a	0.24394646
99	0x3f8335ee	1.0250833
100	0x3e244c36	0.16044697
101	0xc004b527	-2.0735567
102	0x3fd9b39d	1.7007939
103	0x3dea81df	0.11450552
104	0xc06ec266	-3.7306151
105	0xbf6575cd	-0.89632875
106	0xc005ff62	-2.0937123
107	0xc056d69b	-3.3568485
108	0x3f367436	0.71271074
109	0x3f282cb6	0.65693223
110	0xbec00447	-0.37503263
111	0x3e0632ca	0.13105312
112	0xbf5f886f	-0.87317556
113	0xbfbb872e	-1.4650629
114	0xc0712e78	-3.7684612
115	0xc0209cd2	-2.5095716
116	0xc0484969	-3.1294806
117	0x3ebd2649	0.36943272
118	0x3c5ca5de	0.01346728
119	0xbec25123	-0.37952527
120	0x3f999121	1.1997415
121	0x3f8c555a	1.0963547
122	0x3f437dde	0.76363933
123	0x3f73d69c	0.9524934
124	0x3f5d3a76	0.8641733
125	0x40037c20	2.054451
126	0x3f3fd75a	0.74937975
127	0xbe02e9ab	-0.1278445
128	0xbf2d19b6	-0.67617357
129	0xbfa7b6af	-1.3102626
130	0xbfa9f5cd	-1.3278137
131	0x3b99f1ea	0.004698028
132	0xbf3ba809	-0.73303276
133	0x3ef31b7b	0.47481903
134	0x3fc17793	1.5114616
135	0x3e836d29	0.2566922
136	0xbda2c3cd	-0.07947502
137	0x3f1ecc19	0.6203018
138	0x3da546a9	0.08070118
139	0xbf9a08a9	-1.2033893
140	0xbed77677	-0.4208257
141	0xc009f86a	-2.155787
142	0xbfed5c64	-1.854382
143	0xbfc23d53	-1.5174965
144	0xbf5d8d6d	-0.86543924
145	0xbf5ac13d	-0.8545111
146	0x3e89c396	0.26907033
147	0xbf27c761	-0.65538603
148	0xbf7a7cd1	-0.97846705
149	0x3fe3e63e	1.7804639
150	0x3e4eb5c5	0.20186527
151	0xbf194f98	-0.59887075
152	0x3f53a874	0.82678914
153	0x3da0ec8e	0.07857619
154	0xbe1386e0	-0.1440692
155	0xbf23887d	-0.6388014
156	0xbfcaa5a3	-1.5831798
157	0x3ed946ca	0.4243682
158	0x40215521	2.5208209
159	0xbf7f6794	-0.9976742
160	0x3f8f56ba	1.1198342
161	0x4069b4b0	3.6516533
162	0xbfaf04c1	-1.3673326
163	0xbfd34d61	-1.6507989
164	0xc06364c5	-3.5530255
165	0x3f29bdd5	0.66305286
166	0xbe56d1f4	-0.20978528
167	0xbff815db	-1.938167
168	0xbf634452	-0.88776124
169	0x3fee2aa4	1.8606763
170	0xbf329f07	-0.69773906
171	0xbf402304	-0.7505343
172	0xc00ee2a0	-2.232582
173	0xbf288c85	-0.65839416
174	0xc02c2346	-2.689653
175	0xc02dd582	-2.7161565
176	0xbce6d103	-0.028175836
177	0xc081f9f4	-4.061762
178	0xbfe739ca	-1.8064511
179	0x3fe347e4	1.7756314
180	0x3f5b0434	0.8555329
181	0x3fa5a5a9	1.294118
182	0x3f31ad56	0.69405115
183	0x3ebd4840	0.36969185
184	0xbf31050f	-0.69148344
185	0xbec7f2f2	-0.3905254
186	0xbf7e84f2	-0.9942161
187	0x3aae1c98	0.0013283668
188	0xbf1b26e3	-0.6060621
189	0xbe865f7b	-0.2624472
190	0x3d20ee8a	0.03928999
191	0xbfb8749b	-1.4410585
192	0xbeca91cf	-0.39564368
193	0xbed77aff	-0.42086026
194	0x3ecd2c90	0.4007306
195	0xbf2ad2bf	-0.66727823
196	0x3f0718f3	0.52772444
197	0x3f6efc63	0.9335386
198	0xbd60cf21	-0.054885034
199	0xbf938c5e	-1.1527212
200	0xc04c00c2	-3.1875463
201	0xc0016865	-2.0219967
202	0xbf7dfec9	-0.99216896
203	0x3f9e865e	1.2384756
204	0xbfd0afc8	-1.6303644
205	0xbf15a74a	-0.5845839
206	0x3fb77ba3	1.4334606
207	0xbd9089c7	-0.07057529
208	0x3fa3abc3	1.2786793
209	0xc03bdb00	-2.9352417
210	0x3d42740a	0.047473945
211	0x3febddb8	1.8427038
212	0xc060ca16	-3.5123343
213	0x3d7f86bf	0.062384363
214	0xbf9da88a	-1.2317059
215	0xc0c6dba8	-6.2143135
216	0xc014b1e6	-2.323358
217	0xbee75809	-0.45184353
218	0x3f5558bb	0.83338517
219	0x3f0dbdf5	0.55367976
220	0x3f3c45eb	0.73544186
221	0x3f9e01d6	1.234431
222	0xbfd9d13a	-1.7016976
223	0xbec19fca	-0.37817222
224	0xbfaee0ce	-1.3662355
225	0xbd9ffe48	-0.07812172
226	0xbfd72bee	-1.6810281
227	0xbfa20440	-1.2657547
228	0xc065f600	-3.5931396
229	0xc0851462	-4.158738
230	0xc008fc51	-2.1404002
231	0xc06e7e1a	-3.7264466
232	0xc068d2c2	-3.6378636
233	0xbf9d5159	-1.229045
234	0x3e3aee34	0.1825493
235	0x3fa80f0c	1.3129592
236	0xbf002a0e	-0.5006417
237	0x3db0097a	0.085955575
238	0x3f8b85ef	1.0900248
239	0xbeaf9550	-0.34293604
240	0xbfe60b30	-1.7972164
241	0xbfcde9c9	-1.608697
242	0xc0418302	-3.023621
243	0xbf141722	-0.578478
244	0xc058c10c	-3.3867826
245	0xbfa53801	-1.2907716
246	0x3eb625bd	0.35575667
247	0xc02e7546	-2.7259078
248	0xbf686af7	-0.90788215
249	0x3f7665b1	0.9624892
250	0x3dec3505	0.1153355
251	0x3e1ad2f2	0.15119532
252	0xbfb9c6eb	-1.451383
253	0x3f5b8396	0.8574766
254	0xbf0e7366	-0.55644834
255	0x3f59607c	0.8491285

features.11.bias f4 [64]
0	0xbf85d7e8	-1.0456514
1	0xbfe5db84	-1.7957616
2	0xc018fea5	-2.3905423
3	0xbfd680d6	-1.6758068
4	0xbfc8a25d	-1.5674549
5	0xc04007c7	-3.0004747
6	0xc0043b49	-2.0661185
7	0xbfad29b5	-1.3528353
8	0xbfdbc052	-1.7168067
9	0xc00a2647	-2.1585863
10	0xc05c2bc9	-3.4401724
11	0xc01fe293	-2.498204
12	0xbfa40508	-1.2814035
13	0xc01ace1d	-2.4188302
14	0xbfd0898a	-1.6291974
15	0xbfa439df	-1.2830161
16	0xbf394844	-0.72375894
17	0xc049d8c2	-3.1538548
18	0xc0037c7c	-2.054473
19	0xc05ec742	-3.4809117
20	0xbe0fd6dc	-0.14046806
21	0xc0604ec8	-3.5048084
22	0xbfc65a9e	-1.5496404
23	0xc04bfd1a	-3.187323
24	0xc0579036	-3.368177
25	0xc01f16f1	-2.4857752
26	0xbf475d8d	-0.7787712
27	0xc0542225	-3.314584
28	0xbed8ea64	-0.42366326
29	0xc0089877	-2.1343057
30	0xc06457d8	-3.5678616
31	0xbfc946fb	-1.5724787
32	0xbfea6ef6	-1.8315113
33	0xbfad1ae5	-1.3523833
34	0xbf40897f	-0.752098
35	0xc0548518	-3.3206234
36	0xbfbf2632	-1.4933531
37	0xbf53a77b	-0.8267743
38	0xc026b222	-2.6046224
39	0xbfa855b4	-1.3151155
40	0xbfc39fdd	-1.5283161
41	0xbfcbcf17	-1.5922574
42	0xbf6c1e85	-0.9223407
43	0xc00fa39d	-2.2443612
44	0xbf3a9a72	-0.72891915
45	0xbf9bd4be	-1.2174299
46	0xc00ab87f	-2.1675107
47	0x3f77bdbb	0.9677388
48	0x3f029a58	0.5101676
49	0xc02a9d07	-2.6658342
50	0xc00faafa	-2.2448106
51	0xbf9dfb8c	-1.2342391
52	0xbf3a2c6b	-0.72724026
53	0xbdcf184d	-0.10112057
54	0x3f22665c	0.6343744
55	0xc007b545	-2.1204388
56	0xc040533d	-3.0050805
57	0xc0481a28	-3.1265965
58	0xbfd79c1a	-1.6844513
59	0xbf7261da	-0.9468056
60	0xbf8e01fd	-1.1094357
61	0xc03a6701	-2.9125369
62	0xbfc030d6	-1.5014904
63	0xc046d125	-3.1065152

features.13.weight f4 [64]
0	0x3e102ae7	0.14078866
1	0x3e77292c	0.241368
2	0xbe14dafd	-0.14536662
3	0x3e7e13de	0.24812266
4	0xbda6e570	-0.081492305
5	0x3e93ae87	0.2884409
6	0xbed838bd	-0.42230788
7	0x3e32bf2f	0.17455743
8	0xbe29a23c	-0.16565794
9	0xbe77e7af	-0.24209474
10	0xbe761e78	-0.2403506
11	0x3e8554d0	0.2604127
12	0xbe3a53e2	-0.18196061
13	0xbe875fbd	-0.2644023
14	0x3e233513	0.15938215
15	0x3dfe04fb	0.12403294
16	0x3dde0730	0.10841215
17	0xbe271576	-0.1631678
18	0x3e20aae1	0.15690185
19	0x3dcee45d	0.101021506
20	0x3e707dae	0.23485443
21	0xbca3c169	-0.019989686
22	0x3e8c132c	0.27358377
23	0x3e091ba1	0.13389446
24	0xbd36c25b	-0.044618946
25	0xbe80da76	-0.25166672
26	0x3e02b940	0.1276598
27	0x3e422c7e	0.18962285
28	0x3e845d80	0.25852585
29	0xbd868ff9	-0.06570429
30	0xbdd445cf	-0.103648774
31	0x3df78f05	0.12087826
32	0xbe3c94c5	-0.18416126
33	0x3e078f0b	0.1323816
34	0x3e690529	0.22755875
35	0x3d1962ac	0.037447616
36	0x3eb870e9	0.36023644
37	0x3e323c6d	0.17405863
38	0x3e07e244	0.13269907
39	0x3e5254e6	0.20540199
40	0x3e30e065	0.172731
41	0x3e527792	0.20553425
42	0x3e3b057b	0.1826381
43	0x3e7e309b	0.24823229
44	0x3dd268bd	0.102738835
45	0xbebb2de7	-0.36558458
46	0xbda2af1e	-0.07943557
47	0x3e87b84e	0.265078
48	0x3e9eec94	0.3103987
49	0xbe01ce07	-0.1267625
50	0xbe5cd966	-0.21567306
51	0x3e68960d	0.2271349
52	0x3e2472be	0.16059396
53	0x3e2bab7c	0.16764635
54	0x3e417be6	0.1889492
55	0xbe5112c1	-0.2041731
56	0x3e7d4ac3	0.2473555
57	0xbd3ab337	-0.04558107
58	0x3e314e74	0.17315084
59	0x3ea53da3	0.32273588
60	0x3e5f8cfe	0.21831128
61	0xbe932bd5	-0.2874438
62	0x3e687b5d	0.2270331
63	0x3d9b214d	0.07574711

features.13.bias f4 [64]
0	0xbd7df81d	-0.062004197
1	0xbc66013f	-0.014038383
2	0xbcde6fad	-0.02715286
3	0xbd88b4d7	-0.066751175
4	0xbd945ee6	-0.07244663
5	0x3d387dc7	0.045041826
6	0xbdefa14a	-0.11700685
7	0xbc3e29b4	-0.0116066225
8	0x3c3eb4ef	0.011639818
9	0xbda69040	-0.08132982
10	0xbbefdcaf	-0.0073200087
11	0xbd270a08	-0.04078105
12	0xbbf2ad4c	-0.0074059125
13	0xbcaf7fc8	-0.021423236
14	0xbd90717d	-0.07052896
15	0xbaf3059d	-0.0018541102
16	0xbd9c934b	-0.076452814
17	0xbd4dc175	-0.050233323
18	0xbcf8901b	-0.030342152
19	0xbca3ca46	-0.019993912
20	0xbc133576	-0.008984914
21	0xbae26be9	-0.0017274591
22	0x3caac794	0.02084712
23	0xbd92eb27	-0.07173758
24	0xbc3e7ae6	-0.011625981
25	0xbda35bc0	-0.07976484
26	0xbd1f8c13	-0.038951945
27	0xbd3e6e5e	-0.046491973
28	0xbda2f7da	-0.0795743
29	0xbd23d9b3	-0.040002536
30	0xbaf6fb18	-0.0018843142
31	0x3c5803a6	0.013184464
32	0xbc11b833	-0.008894014
33	0xbd9ed14a	-0.077547625
34	0xbcecd03f	-0.028907893
35	0x3c223fa4	0.009902868
36	0xbd6a409d	-0.057190526
37	0xbc977fc5	-0.018493542
38	0xbb406cd4	-0.0029361742
39	0xbdbb0ef9	-0.09133715
40	0xbb8bc8fe	-0.0042659035
41	0xbbab1d4d	-0.005221999
42	0xbda6a0fc	-0.08136174
43	0xbd271016	-0.040786825
44	0xbd4326bd	-0.047644366
45	0xbdaa76ed	-0.083234645
46	0x3bafe992	0.00536842
47	0xbcd6b0a8	-0.026207283
48	0xbcf5075e	-0.02991074
49	0x3c01ce63	0.007922742
50	0xbcdc3f27	-0.026885582
51	0xbde3d5be	-0.111247525
52	0xbd853840	-0.065048695
53	0xbd44550d	-0.047932673
54	0xbdd4a304	-0.10382655
55	0xbcf6c334	-0.030122377
56	0x3c9b314e	0.018944409
57	0x3c5b120e	0.013371004
58	0x3c3ec471	0.011643515
59	0xbbce2d77	-0.006292041
60	0xbcc0129e	-0.023446377
61	0x3c8e9d53	0.017409002
62	0xbd766794	-0.060157374
63	0xbd26d2c9	-0.040728364

features.13.running_mean f4 [64]
0	0x41598c12	13.596697
1	0x41a44f51	20.538729
2	0x4101d975	8.11559
3	0x42745b03	61.08888
4	0x4202513c	32.57933
5	0x41dca2b9	27.579454
6	0x416330d8	14.199425
7	0x41a3b52c	20.463463
8	0x3ee181ca	0.44044334
9	0x4110da0b	9.053233
10	0x3c6bad69	0.014384606
11	0x41df2e59	27.89763
12	0x41807d52	16.061192
13	0x36f0c2be	7.1752283e-06
14	0x41e26a16	28.3018
15	0x41a79843	20.949347
16	0x418f2ab4	17.895851
17	0x411bb147	9.730781
18	0x41aead48	21.83461
19	0x41fe592a	31.793537
20	0x419729f9	18.895494
21	0x418bc6dd	17.472101
22	0x418b06ff	17.378416
23	0x420ea6df	35.66296
24	0x3fc0d2eb	1.5064367
25	0x416436ce	14.26338
26	0x414d554c	12.833324
27	0x4207d21c	33.955185
28	0x4100e93c	8.056942
29	0x418a371f	17.276915
30	0x3da848f3	0.08217039
31	0x41b10cf3	22.131323
32	0x4219c462	38.44178
33	0x41d07046	26.054821
34	0x41de5e56	27.796062
35	0x422ffc85	43.9966
36	0x41baf23c	23.368279
37	0x40f32b1f	7.599014
38	0x42430c74	48.76216
39	0x4113f638	9.247612
40	0x420133fc	32.300766
41	0x41807dbf	16.0614
42	0x424c53e2	51.081917
43	0x41b128c7	22.14491
44	0x41d41099	26.508104
45	0x41282ca7	10.510901
46	0x4022a702	2.5414433
47	0x420b63d8	34.847504
48	0x4204b989	33.181187
49	0x3e3dc781	0.18533136
50	0x419577a5	18.68342
51	0x418153ec	16.165977
52	0x4222d6a9	40.70963
53	0x41d6c460	26.845886
54	0x41df845f	27.939634
55	0x417566fb	15.337642
56	0x419b64f0	19.424286
57	0x390d9e3f	0.00013505759
58	0x417997bf	15.599547
59	0x410f67e2	8.962862
60	0x419b6f75	19.429422
61	0x3f748e1d	0.9552935
62	0x418b05f3	17.377905
63	0x40a7f056	5.248088

features.13.running_var f4 [64]
0	0x450d2688	2258.4082
1	0x457645db	3940.366
2	0x44b67119	1459.5343
3	0x465a6ef7	13979.741
4	0x45d344d5	6760.604
5	0x45a5a981	5301.188
6	0x451678d9	2407.553
7	0x45803216	4102.2607
8	0x4201c3d4	32.44124
9	0x449eaef3	1269.4672
10	0x3f577882	0.84168255
11	0x45b0a962	5653.173
12	0x45366b3d	2918.7024
13	0x37e6df34	2.7522074e-05
14	0x45a650bb	5322.0913
15	0x457bb7a2	4027.477
16	0x452829ef	2690.6208
17	0x44b5b345	1453.6022
18	0x4572962b	3881.3855
19	0x45dcb6e3	7062.861
20	0x45482676	3202.4038
21	0x45267d74	2663.8408
22	0x4554bde1	3403.8674
23	0x45dab1be	6998.218
24	0x430a37db	138.21819
25	0x4511ca7e	2332.6558
26	0x44dc0be0	1760.3711
27	0x45dfafec	7157.99
28	0x44a2f0c6	1303.5242
29	0x452e89b4	2792.6064
30	0x407bf84e	3.9370303
31	0x456e95e4	3817.3682
32	0x4603d740	8437.8125
33	0x457bc6e5	4028.431
34	0x45aa47c8	5448.9727
35	0x461b4f4b	9939.823
36	0x456adaa5	3757.6653
37	0x447b7db9	1005.9644
38	0x463f1b00	12230.75
39	0x44bf9e5b	1532.9486
40	0x45bf937e	6130.4365
41	0x4521e1bc	2590.1084
42	0x4616b2e0	9644.719
43	0x455d969b	3545.4128
44	0x458a8e7f	4433.812
45	0x449bd683	1246.7035
46	0x438441d9	264.51443
47	0x45a5d444	5306.533
48	0x45bc932a	6034.3955
49	0x40fe0bc7	7.9389377
50	0x4549d6b4	3229.419
51	0x45496639	3222.389
52	0x45cf0918	6625.1367
53	0x458a6602	4428.751
54	0x458c9535	4498.651
55	0x452653b9	2661.2327
56	0x45983491	4870.571
57	0x3a4cf35b	0.0007818245
58	0x452bf843	2751.5164
59	0x44a1fae8	1295.8408
60	0x456fdcc3	3837.7976
61	0x42c1e32f	96.94372
62	0x4548936b	3209.2136
63	0x445afa7d	875.9139
