models/DeeperNetClassifier_on_cifar10.pth (torch_old, 326670 bytes, 26 tensors)

features.0.weight f4 [16, 3, 5, 5]
000000 70 2a 81 3e 33 d2 a0 3d 27 39 bd 3e b8 51 c6 3f
       0.2522769 0.07852592 0.36957666 1.5493689
000010 34 6c e5 3f 63 01 81 3e e1 fc 5c be 3d 8a ae be
       1.7923646 0.2519637 -0.2158084 -0.34089842
000020 0a b3 1a 3f 91 06 44 3f 24 f7 7b bf 70 19 ba bf
       0.6042944 0.7657252 -0.9842398 -1.4539013
000030 07 06 97 bf 7b 7e 33 bf f1 21 da be 1f d2 31 bf
       -1.1798714 -0.7011487 -0.4260402 -0.69461244
000040 40 2a e2 be 17 48 10 3e 02 35 fd 3e b0 d5 8f 3c
       -0.4417286 0.1409 0.49454504 0.017557949
000050 1e 4a a4 3e e3 78 5b 3f 91 13 9f 3f af ce 8a 3f
       0.32087797 0.85731333 1.2427846 1.0844325
000060 5d da 46 3d ad 71 98 bf 15 f5 c4 bf 35 4c b0 bf
       0.04854809 -1.1909691 -1.5387293 -1.3773257
000070 ce fa 82 be f3 f4 3d 3e 27 62 7e bf a8 9e c1 bf
       -0.25581974 0.18550472 -0.9936852 -1.5126543
000080 c3 7a e7 bf 16 d8 82 bf 98 d1 55 bf be 7c 05 c0
       -1.8084339 -1.0222194 -0.8352294 -2.0857387
000090 ec a3 13 c0 12 6d 22 c0 6a 34 03 c0 86 c5 16 c0
       -2.30688 -2.5379071 -2.050074 -2.3558059
0000a0 09 98 fd bf a2 ba c3 bf 18 e8 9d bf a0 72 91 bf
       -1.9812022 -1.5291331 -1.2336454 -1.1363106
0000b0 58 92 01 c0 da 0b c3 bf 97 ae 78 bf da 63 0b bf
       -2.024557 -1.5237992 -0.971414 -0.54449236
0000c0 e7 26 33 bf e8 3e 05 c0 25 e5 83 be d3 38 c5 be
       -0.69981235 -2.0819645 -0.2576076 -0.38519916
0000d0 03 f9 a0 bd 40 52 7b 3f 0b cd 9e 3f b4 fa 50 3f
       -0.07859995 0.9817238 1.2406324 0.8163254
0000e0 e9 29 bc 3e 93 85 cf 3e b6 25 88 3f 67 90 81 3f
       0.36750725 0.40531597 1.0636508 1.0122193
0000f0 a3 33 f2 3e 17 ea 97 3e b9 a3 f0 3e 84 b3 44 3f
       0.4730502 0.29670784 0.4699991 0.7683642
000100 d2 5c de 3e b5 20 91 3f 16 a6 f0 3f 5c 37 18 40
       0.4343019 1.1338106 1.8800685 2.3783789
000110 65 2c 1a 40 1f 57 8a 3f 25 35 0b 40 4f 39 39 40
       2.4089596 1.0807837 2.1751187 2.8941228
000120 d4 5b 5f 40 15 58 3b 40 93 ae 94 3f d5 1e 4c 3e
       3.4899797 2.927251 1.1615776 0.19933636
000130 86 18 e2 3d d8 7d 89 3d 70 fc 2d 3f 1c c4 64 3f
       0.11039834 0.06713456 0.67963314 0.8936174
000140 e1 4c 4d bf f9 0c ec bf 04 d2 1a c0 dd 43 9b bf
       -0.8019543 -1.8441459 -2.4190683 -1.2130085
000150 9e 8f f6 be 16 36 7e bf be c8 0a c0 3f 09 19 c0
       -0.48156446 -0.9930128 -2.1685023 -2.3911893
000160 05 8f f9 bf 10 e4 a6 bf fd de a8 3f bc 4d b2 3f
       -1.9496771 -1.3038349 1.3193051 1.3929973
000170 94 0d 97 3f fe ea 53 3f b7 51 71 3e 61 46 ff 3f
       1.1801019 0.82780445 0.23566328 1.9943353
000180 11 22 2a 40 cf 86 02 40 5e bd ca 3f f5 17 bd 3f
       2.6583292 2.039478 1.583904 1.4772936
000190 a0 b8 2f 3e e4 9c 47 3e 0d 73 c4 3e e6 dd 8c 3f
       0.17160273 0.19493443 0.38369027 1.1005218
0001a0 e3 5b b4 3f 03 44 5b bf 2a f4 f1 bf c2 79 14 c0
       1.4090542 -0.8565065 -1.8902638 -2.3199315
0001b0 f3 14 bd bf 33 d5 f4 be 87 6b 71 bf 79 e3 0e c0
       -1.4772018 -0.47818908 -0.943047 -2.2326338
0001c0 3c f1 2d c0 49 8b 16 c0 d7 77 f4 bf 7d 73 82 3f
       -2.7178488 -2.3522513 -1.9099072 1.0191494
0001d0 d9 03 a2 3f 00 e9 80 3f a3 89 b5 3e 69 1d 56 be
       1.2657424 1.0071106 0.3545657 -0.20909657
0001e0 15 b3 84 3f b8 6f f1 3f aa c9 b2 3f 40 8c 61 3f
       1.0367151 1.8862219 1.3967793 0.8810463
0001f0 e7 0a 35 3f e3 c6 ee 3e 86 73 b6 bd 3e c8 f5 bc
       0.7071976 0.46636114 -0.08908753 -0.03000271
000200 89 36 11 3f c4 a3 a8 3f d2 f1 fb be a1 fe e0 bf
       0.5672384 1.3174977 -0.49207932 -1.7577707
000210 2a c7 1f c0 78 84 cf bf 22 20 17 bf fe 2b 44 bf
       -2.496531 -1.6212301 -0.59033406 -0.76629627
000220 76 68 05 c0 c4 34 29 c0 2b 6b 13 c0 c9 89 a5 bf
       -2.0845008 -2.6438456 -2.303416 -1.2932674
000230 e3 d0 62 3f 0c 3e a1 3f 62 cb 92 3f 70 59 3d 3f
       0.88599986 1.259706 1.1468318 0.73964596
000240 ce ec 32 3f 40 73 9c 3f fb 48 01 40 0e a4 02 40
       0.69892585 1.2222672 2.0200794 2.041263
000250 91 74 ed 3f 25 0f e7 3f 3a b0 b5 3e f9 fb 93 be
       1.8551198 1.8051497 0.35486013 -0.28903177
000260 b9 47 75 bf c8 2f 4a be f4 27 82 3f aa eb 11 40
       -0.95812565 -0.1974479 1.0168443 2.2800088
000270 8d ca b9 3f 7d 94 22 bf 16 e7 ee bf b2 3c 7c bf
       1.4514939 -0.63507825 -1.8664272 -0.98530114
000280 e9 0b 2d 40 9d e6 11 40 74 39 9f 3e 2f 48 db bf
       2.703852 2.2797005 0.3109852 -1.7131404
000290 1c 45 06 c0 42 79 1f 3f 6f 5e bf 3f f9 89 81 3f
       -2.097968 0.622944 1.4950694 1.0120231
0002a0 73 46 1d bf bd be d5 bf a2 f6 63 bf d1 a2 52 3e
       -0.6143562 -1.6698834 -0.89048207 0.20569922
0002b0 56 15 69 3f b6 a4 c6 3e 90 d9 d8 be 54 14 b6 3e
       0.9104818 0.3879754 -0.42353487 0.35562384
0002c0 0a 6c 00 bf 62 30 c0 bf 81 23 87 bf 0a e5 10 3f
       -0.50164855 -1.5014765 -1.055771 0.56599486
0002d0 a4 4a 1f 40 9b e2 9d 3f 15 1e 9e bf d9 c3 48 c0
       2.4889307 1.233478 -1.235293 -3.1369536
0002e0 64 a2 e3 bf ed 44 50 40 fe f0 f5 3f 1e fb c2 be
       -1.7783933 3.254207 1.921417 -0.38082212
0002f0 d9 4c 4c c0 c3 87 3b c0 e3 ba de 3f 31 f4 9f 3f
       -3.1921904 -2.9301612 1.7400783 1.2496396
000300 6c 36 11 3e 87 36 dd bf 61 a7 0f c0 ff 95 9f 3e
       0.14180917 -1.7282265 -2.244591 0.31169125
000310 c5 72 2d 3f c7 b0 b7 3e 27 86 53 be 02 cd f1 be
       0.6775325 0.35877058 -0.20656644 -0.4722672
000320 ed cf fc 3e c2 9f 76 3e 10 09 36 bf d6 db 23 bf
       0.49377385 0.2408438 -0.7110758 -0.6400732
000330 9b 75 1d 3e 8d cc 1f 40 62 5d ed 3f b0 e2 ce be
       0.15376894 2.4968598 1.8544123 -0.40407324
000340 24 aa 05 c0 6c b1 f0 bf f7 ee 2d 40 9e 3a 15 40
       -2.0885096 -1.8804145 2.7177103 2.3317027
000350 e4 a1 03 3f 8d d8 fe bf 27 99 37 c0 b8 cf c2 3f
       0.514189 -1.9909836 -2.8687227 1.5219641
000360 01 fb da 3f 76 01 5b 3f 99 c9 6b bf d2 fe 03 c0
       1.710785 0.85549104 -0.9210449 -2.062428
000370 5a 50 c2 3e 42 b1 5b 3f 80 af 75 3f 91 9c 51 3e
       0.37951928 0.8581735 0.95970917 0.20469882
000380 bb e9 c6 be 15 b7 91 bf 68 0a bc be 68 2e 10 3f
       -0.38850197 -1.1383997 -0.3672669 0.5632081
000390 71 8f 97 3f 59 24 cd 3f c3 63 31 c0 c6 f6 99 bf
       1.184065 1.6026717 -2.771714 -1.2028434
0003a0 22 a9 2e 3f d9 59 04 40 3d b1 2e 40 ed 15 38 c0
       0.68226826 2.0679839 2.7295678 -2.8763382
0003b0 96 95 56 bf 94 3a 34 3f 5a 21 aa 3f e7 45 fe 3f
       -0.83822 0.70401883 1.3291428 1.9865083
0003c0 a9 9a da bf 2c 11 0d be 52 64 df 3e a7 2e 14 3e
       -1.7078449 -0.13776082 0.43631226 0.14470921
0003d0 a9 a2 9c 3d 72 53 41 be 0f f0 18 3f 3e 64 aa 3e
       0.076482125 -0.18879488 0.597413 0.33279604
0003e0 4f ad 40 bf dc 03 81 bf c3 d6 d7 bf 28 66 a7 bf
       -0.7526445 -1.0079303 -1.6862415 -1.3078051
0003f0 fc 57 40 bf 22 a8 4e 3f d1 92 07 40 c3 0d 63 c0
       -0.75134254 0.807253 2.118336 -3.547715

features.0.bias f4 [16]
000000 2a 51 3e bf b7 b4 73 bf a0 13 7e bf 8e ef 21 bf
       -0.74342597 -0.95197624 -0.99248695 -0.63256156
000010 b4 17 23 c0 eb 27 91 c0 d3 40 24 c0 4f 4f a0 40
       -2.5483217 -4.536123 -2.5664566 5.009681
000020 70 51 89 40 29 61 ea bf 07 d1 58 40 a5 35 e5 c0
       4.291191 -1.8310901 3.387758 -7.1627984
000030 b0 86 0b 40 6e dc 36 bf 3e 91 52 c0 55 ed e2 bf
       2.1800957 -0.714301 -3.2901149 -1.7728678

features.2.weight f4 [16]
000000 a0 56 00 3f f0 3f cb 3f 5e ef 0f 40 9b 4a eb 3f
       0.5013218 1.5878887 2.2489848 1.8382143
000010 ad 43 de 3f 54 04 cf 3f cc b7 ed 3f ee 23 9a 3f
       1.7364403 1.6173196 1.8571715 1.2042215
000020 db 77 ae 40 4c 8e 0f 3f 83 a3 07 41 b8 be 51 3d
       5.452131 0.560765 8.47742 0.051207274
000030 d3 53 bc 3f a4 c7 ad 3f 9b 98 a1 3f 62 80 64 3f
       1.4713081 1.357655 1.2624696 0.89258397

features.2.bias f4 [16]
000000 5e 7e 8b 3e 26 cb 98 3f a0 e4 0b 3f db 3d c9 3e
       0.27244848 1.1936996 0.5464573 0.39305004
000010 34 fb 81 3f cf c7 b1 be 93 0e 5f 3f 62 b2 ff 3e
       1.0154786 -0.34722754 0.87131613 0.49940783
000020 9b b9 68 3d 2c f6 19 3f f2 6d 54 3f b8 85 18 bf
       0.056817632 0.60141253 0.82980263 -0.5957904
000030 18 a4 0c 3f 44 49 0c 3f 5c ab 1b 3f 8f 61 6c 3e
       0.5493789 0.54799294 0.6080835 0.2308409

features.2.running_mean f4 [16]
000000 6a cf be 3f ee c9 32 40 0f 0b 40 40 9e 7f 56 40
       1.4907048 2.7935748 3.000675 3.3515391
000010 a4 75 b9 3f fe 00 1a 40 af fb 2e 40 7b 4f a2 40
       1.4489026 2.4063106 2.7341115 5.072202
000020 d7 fd 87 40 6d d4 9f 40 d5 eb 60 40 c3 f6 a0 3e
       4.2497363 4.994681 3.514394 0.31438264
000030 dc c0 6d 40 f7 17 32 40 c8 f3 49 40 0d 1b b1 40
       3.7148962 2.7827127 3.1555042 5.534552

features.2.running_var f4 [16]
000000 b1 02 25 41 80 a4 ff 41 31 87 29 42 12 bb 32 42
       10.313157 31.955322 42.382023 44.682686
000010 04 eb 5c 41 11 f2 86 41 de 2a 14 42 13 00 2f 42
       13.807377 16.868196 37.041862 43.750072
000020 f4 c7 b7 40 ff 7a 7b 42 b4 1b 9c 40 c3 8d 18 40
       5.7431583 62.870113 4.8783817 2.3836524
000030 70 79 b3 41 23 c6 b2 41 68 4a 3f 42 d4 ca cd 42
       22.434296 22.346746 47.822662 102.89615

features.3.weight f4 [32, 16, 5, 5]
000000 a3 7b a7 bf ba 69 8e bf d4 86 35 bf 5b 22 90 bf
       -1.3084606 -1.1126015 -0.70908856 -1.1260484
000010 fd 68 8f bf eb 9f 03 bf 55 fd 11 3f 85 84 99 3f
       -1.1203915 -0.5141589 0.5702718 1.1993567
000020 fd 2a 4e 3f c9 28 b3 3e fe 75 5e bf 30 aa de be
       0.80534345 0.34992054 -0.8689879 -0.43489218
000030 fb 17 a2 3e 24 c1 48 3f a7 41 d7 3e f1 7d dd bf
       0.3165892 0.7841971 0.42042276 -1.7304059
000040 ae 66 66 bf e5 cb fe be fc 82 86 bd c3 99 1a bf
       -0.90000427 -0.49764934 -0.06567952 -0.6039087
000050 39 d3 45 3f 8b 18 98 3f 8d e9 90 3f 67 5a cd 3f
       0.77275425 1.188249 1.1321274 1.6043214
000060 aa 61 76 3f 9e c0 1a bf 34 31 95 bf ee 38 ba bf
       0.96242774 -0.6045016 -1.1655641 -1.4548624
000070 6b fd bf bf a5 28 bd bf 8d fa 0f bf f1 b1 2e bf
       -1.4999212 -1.4778029 -0.56241685 -0.6824027
000080 e0 5c eb 3e 87 f0 fa 3e 21 01 81 be 7e 0a 65 3f
       0.45969296 0.49011633 -0.25196174 0.89469135
000090 61 21 15 bf 02 6b cb bf f3 f3 c5 bf 9a 56 6a bf
       -0.5825406 -1.5892031 -1.5465072 -0.91538393
0000a0 85 0a ee 3f 9e 7e 24 3f 53 8a 7a bf f4 3f ed bf
       1.859696 0.642557 -0.97867316 -1.8535142
0000b0 32 9c 28 c0 7b 57 8c 3f f3 e0 a9 3e cf 1d 02 bd
       -2.6345334 1.0964197 0.33179435 -0.03176671
0000c0 8d 45 4b be 95 e4 39 bd 30 8f 09 3f 55 1f 49 bf
       -0.1985075 -0.04538401 0.5373411 -0.78563434
0000d0 71 e8 03 c0 e2 d2 17 bf 6a 59 ff 3d 36 8f 17 bf
       -2.061062 -0.59306157 0.12468226 -0.592029
0000e0 9d 8a 09 c0 3c 48 59 c0 9e 08 fc bf 1a 07 bb ba
       -2.1490853 -3.3950338 -1.969013 -0.0014269084
0000f0 c7 02 87 bf 6e 06 46 c0 69 a0 59 c0 6f f2 00 c0
       -1.0547723 -3.0941424 -3.4004157 -2.014797
000100 92 de 30 be cf 84 d3 3e 5a 00 bf bf a0 b5 f1 bf
       -0.17272404 0.41312262 -1.4921982 -1.8883553
000110 92 ae 7a be 80 c5 13 3f 11 ff ee 3f 8d f3 c3 3e
       -0.24480656 0.57723236 1.867159 0.38271752
000120 70 45 b7 be 4f 95 6f 3e 54 58 90 3f f4 ab 19 3f
       -0.35795164 0.233968 1.1276956 0.60028005
000130 40 89 90 3f 34 4f 44 3f a2 96 04 3f ea d0 a6 3f
       1.1291885 0.76683354 0.5179235 1.3032506
000140 53 07 7c 3f e7 89 25 3f f0 40 a4 be ab 33 f9 be
       0.98448676 0.6466355 -0.32080793 -0.48672232
000150 be 27 a4 3f e2 5a 0f be c6 a1 c6 be 14 3e af bf
       1.2824628 -0.13999513 -0.38795298 -1.369082
000160 88 ee d4 bf 6a 2d c8 3e 37 20 1c bc a5 3f bd bd
       -1.6635294 0.39097148 -0.009529165 -0.09240655
000170 f9 3a 9b bf 57 3b 0b c0 11 cc f8 be 7a 33 13 3f
       -1.2127372 -2.1754968 -0.4859319 0.5750042
000180 38 26 2f be 88 aa fe bf 8b 7c 0c c0 4e 14 4b bf
       -0.17104423 -1.9895792 -2.1951015 -0.7932786
000190 eb e9 23 c0 74 7f e8 bf ea 80 b0 bf 03 6f 05 bf
       -2.5611522 -1.8163896 -1.3789341 -0.52122515
0001a0 9c 0e 13 bf be a1 a4 bf 45 3b f8 bf 6f e9 f3 bf
       -0.5744417 -1.286186 -1.9393088 -1.9055613
0001b0 6c dd 8a bf f7 1f 0c bf 79 c0 bb bf e8 a3 a8 bf
       -1.0848823 -0.54736274 -1.4668113 -1.317502
0001c0 9b 56 17 be 47 e8 21 3f 21 0f 9b 3f b9 db 2f bf
       -0.14779131 0.6324505 1.2113992 -0.68694645
0001d0 ec 3e fe be 03 8e ea 3e a4 ef 3f 3d c9 31 9d bf
       -0.4965738 0.4581147 0.0468594 -1.2280818
0001e0 81 8d 97 3f 4d 2c e6 3e 3d f2 33 bf 27 99 1e c0
       1.1840059 0.44955674 -0.702915 -2.4780977
0001f0 12 2d 14 c0 20 72 90 bf a8 65 cf bf 17 8c 16 bf
       -2.3152509 -1.1284828 -1.6202898 -0.5880751
000200 80 88 e5 be 76 80 43 bf 67 bd f5 be 37 0d 5f bf
       -0.44830704 -0.7636789 -0.47996065 -0.8712954
000210 26 0e b1 bf a8 f1 a1 bf 14 dd f9 bf ce 60 48 bf
       -1.3832443 -1.2651873 -1.9520593 -0.7827271
000220 2e 4a 99 bf 7e 66 be bf 51 ed d6 bf d0 cc ee bf
       -1.1975763 -1.4875028 -1.6791173 -1.8656254
000230 c1 e4 f7 3e 69 46 8c 3e 81 6b 89 3e 72 cb 01 bf
       0.48416713 0.2739747 0.2683983 -0.5070106
000240 2b a3 3d bf a9 ef 38 40 03 89 58 40 19 90 5f 40
       -0.740771 2.8896277 3.3833625 3.49317
000250 1f 8f 1f 40 7f 3c 10 40 43 a8 50 3e 91 d4 f6 be
       2.4931104 2.2536924 0.20376687 -0.4820905
000260 50 41 2b bf 18 46 04 bf e7 a9 68 bc 98 eb 8c bf
       -0.66896534 -0.51669455 -0.014200664 -1.1009398
000270 1f 56 b7 be ea 50 59 bd f0 62 b2 be d0 4b 48 be
       -0.35807893 -0.05305568 -0.34841108 -0.1956017
000280 8f e3 89 bf f5 9f fb bf 85 ed af bf d8 8f 1d bf
       -1.077257 -1.965819 -1.374436 -0.61547613
000290 b5 3e 68 3f d9 39 14 40 4d 64 d4 3f 6f ee 88 3f
       0.90720683 2.3160307 1.6593109 1.0697764
0002a0 f4 d7 dd 3f ed 59 1d 40 7a 48 c2 3f 6d b4 e7 3f
       1.7331529 2.4586136 1.5178368 1.8101937
0002b0 09 43 0c 40 6d 0b 10 40 87 ad df 3f 51 6a b0 bf
       2.1915915 2.2506974 1.7474831 -1.3782445
0002c0 9e 1e cd be db 32 82 be 77 4c 07 bf 97 c0 96 bf
       -0.40062422 -0.25429425 -0.5285105 -1.1777524
0002d0 4c 51 64 bf 8d a0 97 3e 26 2f 3e 3f f9 02 e1 3e
       -0.8918655 0.29614678 0.7429069 0.4394758
0002e0 71 c3 62 be c8 ec 86 bf 8b 45 09 be 11 e4 e0 3e
       -0.22144867 -1.054101 -0.13405435 0.43924
0002f0 8c ea f6 3e 80 90 af bd 76 f6 b6 bf 28 e9 5e bf
       0.4822582 -0.08572483 -1.4293964 -0.8707452
000300 07 75 ac be b5 e7 33 3e 26 da cb bd 0b 5f 3c bf
       -0.33683035 0.17568858 -0.09953718 -0.73582524
000310 74 62 47 be b3 75 e3 3e 98 7f 31 3f 1c 61 a9 3e
       -0.1947115 0.44425735 0.6933532 0.330819
000320 19 73 9c 3f d9 56 81 3f 52 30 ad 3f b1 5e 17 3f
       1.2222625 1.0104629 1.3530371 0.5912886
000330 d7 2e 8e 3f 14 7f 97 bf 8c 6f 02 c0 bb 27 b9 3e
       1.1108044 -1.1835656 -2.0380583 0.36163124
000340 fc b3 16 3f 70 ce 5a 3d 50 3d 6a 3f 6a 13 16 c0
       0.58868384 0.05341953 0.91499805 -2.344935
000350 1a 9e 18 c0 64 16 f5 be 2d a9 29 be bd 3e 65 3d
       -2.3846498 -0.47868645 -0.16568442 0.055968035
000360 3c 7a 27 3f 59 79 f7 be 6c 35 37 3f eb 96 9c be
       0.6542089 -0.48334768 0.7156589 -0.3058389
000370 70 be ba bf b5 b1 97 be 12 de 0d 3f 40 33 95 be
       -1.4589367 -0.29627767 0.5541698 -0.29140663
000380 da eb c7 3e f2 3b d6 be c9 ca a5 be 10 9d 07 be
       0.39047128 -0.4184261 -0.32381275 -0.13243508
000390 e0 70 5e 3e a9 7e d7 3e 14 6a 1d c0 1a d4 21 c0
       0.21722746 0.42088822 -2.4595995 -2.5285707
0003a0 36 fc 25 c0 d7 36 fe bf ca 13 82 bf 7f 7c 3c c0
       -2.5935187 -1.9860486 -1.0162289 -2.9450986
0003b0 0f c5 2c c0 fa 9b 2d c0 41 3b 1c c0 0f b5 11 c0
       -2.6995275 -2.712645 -2.4411166 -2.276676
0003c0 d0 0c bc bf 4d b5 b6 bf b2 28 b4 bf 5a 2d bc bf
       -1.469141 -1.4274079 -1.4074919 -1.470134
0003d0 fe f1 a9 bf 3a 0f 7f 3f 9a 60 7b 3f 58 49 79 3f
       -1.3276975 0.9963261 0.9819428 0.9737754
0003e0 b2 dd 1b 3f 9c 9b bf 3e c4 06 76 3f e4 06 4d 3f
       0.60885155 0.37423408 0.96104074 0.8008864
0003f0 a8 4b 87 3f e7 0e b0 3f d6 03 a9 3f 37 aa 27 be
       1.0569963 1.3754548 1.3204296 -0.16373526

features.3.bias f4 [32]
000000 3f e8 3a bf b4 d9 2c c0 ba 6b d8 bf 51 95 65 c0
       -0.7301063 -2.7007875 -1.6907876 -3.5872386
000010 86 31 69 c0 7b bf 60 c0 01 ae 21 c0 29 52 a0 bf
       -3.6436477 -3.511687 -2.5262454 -1.2525073
000020 9e 92 63 3f b5 35 cb bf fc 25 c1 bf 2a 6a 41 40
       0.88895595 -1.5875765 -1.5089717 3.0221047
000030 3d 1d 0a c0 62 0c 21 c0 c7 65 1a c0 b6 4f b6 3f
       -2.1580346 -2.5163808 -2.412462 1.4243076
000040 cf 70 28 c0 46 21 83 c0 61 83 68 3e 3b 4d 28 c0
       -2.6318853 -4.0978117 0.22706367 -2.6297138
000050 c7 b2 a2 bf fa 7c 14 40 7d 14 2a bf 8d 4e 01 c0
       -1.2710809 2.320128 -0.6643751 -2.0204194
000060 33 0c 1a c0 7f 5d 20 bd 66 fc 69 c0 9a d1 9b c0
       -2.4069946 -0.039151665 -3.6560302 -4.869336
000070 6e a5 95 bf 6f d9 0e c0 58 fa 49 c0 7e 24 07 3f
       -1.169111 -2.232021 -3.1559048 0.5279006

features.5.weight f4 [32]
000000 cb 7d 07 40 3d 68 32 40 62 18 ce 3f f0 ac 24 40
       2.1170528 2.7876122 1.6101191 2.5730553
000010 19 a8 ff 3f 78 22 07 40 f8 d8 33 40 8f 66 16 40
       1.9973174 2.1114788 2.8101177 2.3500097
000020 d2 66 e3 3f 3b 70 fc 3f cd 12 0f 40 7b 0c e4 3f
       1.7765753 1.972175 2.2355225 1.7816309
000030 c8 f5 0f 40 f0 56 02 40 a6 bf 19 40 a7 d4 e4 3f
       2.2493763 2.0365562 2.4023223 1.7877396
000040 9a a3 2c 40 61 4e 14 40 28 22 05 40 71 58 16 40
       2.6974854 2.3172839 2.0802097 2.349148
000050 f5 db 25 40 29 30 02 40 b0 71 0f 40 59 50 10 40
       2.59155 2.0341895 2.241314 2.254904
000060 d6 c4 29 40 1f 6e ff 3f d2 85 04 40 d5 26 fa 3f
       2.652639 1.9955481 2.0706677 1.95431
000070 ae 4f f7 3f d4 3f 13 40 a1 ef ec 3f cd 42 23 40
       1.9321191 2.3007708 1.8510629 2.5509522

features.5.bias f4 [32]
000000 db 7f 48 3e 67 ba d0 3e f2 09 34 be f0 4d b3 3e
       0.19580023 0.40767214 -0.17581919 0.350204
000010 9c df 51 be ea 56 35 be 76 b6 30 bd 81 04 15 bd
       -0.20495456 -0.17708936 -0.04314276 -0.03638125
000020 2a c6 83 be 67 0a 65 3e 4c 1d c6 bd cd d8 4e bf
       -0.25737125 0.2236725 -0.09673557 -0.8079956
000030 63 b6 38 be ea 20 68 3e b3 fb 8f 3e df 40 86 bf
       -0.18038325 0.22668806 0.2812172 -1.0488547
000040 7a ec b4 bb 94 95 29 be 5a 3a 2c bf 29 86 a3 be
       -0.0055213543 -0.16560966 -0.6727654 -0.31938294
000050 9b ad 90 be 7e 52 1a bf 15 17 82 be 49 41 18 be
       -0.2825745 -0.60282123 -0.25408235 -0.14868654
000060 5c 96 28 be c6 c2 b6 3e 00 f8 38 3e bb 69 37 be
       -0.16463608 0.35695475 0.18063354 -0.17911427
000070 5c 6c 0b bf 2b 13 67 bf 40 7f 4d 3c f5 96 6c bf
       -0.5446222 -0.90263623 0.012542546 -0.9241784

features.5.running_mean f4 [32]
000000 43 12 cd 41 7d 1f 8b 42 ab 57 aa 41 8c ed 6d 41
       25.633917 69.5615 21.292807 14.870495
000010 13 d7 d3 41 3e e5 8f 41 62 4d fc 41 5f bb ce 41
       26.480017 17.986935 31.537785 25.84149
000020 f4 87 8e 41 89 26 8a 41 77 7d 03 42 bb 6d ad 41
       17.816383 17.268816 32.872524 21.67858
000030 c0 72 d8 42 97 53 9f 41 b7 95 b6 41 43 ae 3b 42
       108.22412 19.915815 22.823103 46.920177
000040 a6 39 fa 41 0a c0 43 42 9a 99 0d 42 6a ac f5 41
       31.278149 48.93754 35.4 30.709187
000050 e7 67 0e 42 af 19 4a 42 7f af d6 41 42 1f b2 41
       35.601467 50.52508 26.835691 22.265263
000060 a1 33 91 41 1e 47 c4 42 cc 45 c4 41 4c 44 5f 41
       18.15021 98.1389 24.53408 13.954174
000070 fc 70 df 41 5f 4d 1f 42 2c d2 03 42 c9 35 b3 41
       27.930168 39.825558 32.955246 22.401262

features.5.running_var f4 [32]
000000 67 90 5e 45 ff b4 7e 46 9d 93 0e 45 dd a1 2d 45
       3561.0251 16301.249 2281.2258 2778.1165
000010 87 6a 98 45 0d be 2d 45 85 58 a0 45 de eb a7 45
       4877.316 2779.8782 5131.065 5373.4834
000020 ec c9 03 45 9a a3 4d 45 a7 4f f4 45 74 17 11 45
       2108.62 3290.225 7817.9565 2321.4658
000030 e7 c5 7c 46 fb 48 2e 45 c3 6f 68 45 9d 91 b2 45
       16177.476 2788.5613 3718.985 5714.2017
000040 95 56 e5 45 d0 82 1a 46 32 fb 9e 45 80 b3 e1 45
       7338.8228 9888.703 5087.3994 7222.4375
000050 7c 83 fa 45 7a ad 91 45 18 48 97 45 b2 19 16 45
       8016.4355 4661.6846 4841.0117 2401.606
000060 88 17 5a 45 61 39 84 46 34 91 88 45 88 20 0e 45
       3489.4707 16924.69 4370.1504 2274.0332
000070 bd fb 6e 45 80 6c bd 45 d0 29 a4 45 92 e9 44 45
       3823.7336 6061.5625 5253.2266 3150.5981

features.8.weight f4 [64, 32, 3, 3]
000000 77 ba 07 c0 57 4f 14 c0 c6 6f 04 c0 b1 04 0e c0
       -2.120756 -2.3173425 -2.069322 -2.2190363
000010 86 3c 1f bf 44 8f 26 bf d4 00 1c c0 16 28 a7 bd
       -0.62201726 -0.65062356 -2.4375505 -0.08161943
000020 5e 7e 6d bf 1b 4b 41 c0 04 c0 3f c0 21 20 8a c0
       -0.92770946 -3.020209 -2.9960947 -4.316422
000030 59 db 57 bf a8 27 d3 be 8f 55 1a c0 44 6f d6 bf
       -0.8431907 -0.41241193 -2.411472 -1.6752706
000040 85 67 a8 bf d8 1a 21 c0 d8 75 01 bf 58 f8 f3 3d
       -1.3156592 -2.5172634 -0.5057044 0.11912602
000050 3e c7 84 be d5 6d 1e bf 0e b6 02 40 fb 98 22 3f
       -0.2593326 -0.6188634 2.0423617 0.6351468
000060 9f 43 42 3e 7c 56 ea 3f 00 e2 1b 40 2b b2 94 3f
       0.18971108 1.8307643 2.435669 1.1616873
000070 41 44 22 3f bc ad 12 40 b7 7c a9 bd fd 7c c0 3d
       0.633854 2.291854 -0.082757406 0.093988396
000080 d3 03 e7 3e 5c 8c 88 3f 77 a9 e2 3e 52 5e e8 bf
       0.45120105 1.0667834 0.44269916 -1.8153784
000090 ab 77 13 bf 67 30 33 40 92 40 72 3f 24 fa 58 3f
       -0.57604474 2.7998292 0.94629776 0.84756684
0000a0 2f fb 0f 40 94 38 8c 3f dc 32 34 3e f8 d3 b1 3f
       2.249706 1.0954766 0.17597526 1.3892813
0000b0 a9 4a f3 3f df 47 fb bf 4e 9e d5 bf 8c ec ad be
       1.900716 -1.9631308 -1.6688936 -0.33969533
0000c0 95 e4 98 bf c8 9a 94 bf 50 ff 2b c0 c2 34 fc bf
       -1.1944758 -1.1609735 -2.687458 -1.97036
0000d0 7d f6 1d bf 44 2f 4b c0 8d 02 19 c0 30 e9 1a c0
       -0.61704236 -3.1747599 -2.3907807 -2.4204826
0000e0 00 ce ca bf 50 93 f8 bf 3c c0 ed 3e 79 3e f8 bf
       -1.5844116 -1.9419956 0.46435726 -1.9394065
0000f0 78 36 84 c0 82 99 8f c0 f4 3b 53 c0 a8 be 05 c0
       -4.131649 -4.4874887 -3.3005342 -2.0897617
000100 ae 6d 6a 3f ef 63 05 bf 5a a6 de bf 26 ac f5 bf
       0.9157361 -0.5210561 -1.7394516 -1.919316
000110 fd 59 0e c0 77 ed 33 c0 0c 7b c3 bf f2 d0 d5 bf
       -2.2242424 -2.8113687 -1.5271926 -1.670439
000120 05 c6 20 3d 34 28 f7 3f db 86 57 40 83 5d c3 bd
       0.039251346 1.9309144 3.367606 -0.0953932
000130 11 71 56 40 e3 05 cc 3f 1d 81 5d 3f 90 74 ee 3f
       3.350651 1.5939296 0.86525136 1.8629322
000140 59 24 78 bf e1 63 ae bf 0d a9 7d 3f b3 3f fe 3f
       -0.9693046 -1.3624231 0.99086076 1.986319
000150 bc 8f 13 3f 18 10 0c 40 94 fe 79 3f d7 be dc 3f
       0.57641196 2.1884823 0.9765408 1.724574
000160 50 8c d4 3f f8 5e eb 3e cf 20 1e c0 54 eb 36 bd
       1.660532 0.45970893 -2.4707525 -0.04465802
000170 89 c6 3c 40 9a a6 51 bf 2e 0b 3b 3e 06 5d 82 3e
       2.9496176 -0.8189484 0.18265983 0.25461596
000180 53 33 62 bf b8 bd aa 3f 49 da 64 3f e1 90 9f 3f
       -0.88359565 1.3339148 0.89395577 1.2466089
000190 33 6c 1d bf 72 38 e8 bf aa 03 5b 3f 10 f9 f5 3e
       -0.61493224 -1.8142226 0.85552466 0.48041582
0001a0 b1 23 32 3f 5f 3d 04 40 46 87 2f 3f 54 87 83 be
       0.6958571 2.0662458 0.68565786 -0.25689185
0001b0 12 59 2a 3f e5 fa a4 bf 8f 4b 3e 3f b7 16 24 3f
       0.6654216 -1.2889067 0.74334043 0.6409716
0001c0 94 70 34 bf a6 09 f8 3d ed f1 23 3e 83 23 24 3f
       -0.7048428 0.12111215 0.16010256 0.64116687
0001d0 0e a7 26 3e 5b a8 71 bc 9e 0a 1b bf c8 cf 08 bf
       0.16274664 -0.014749612 -0.60563076 -0.5344205
0001e0 f9 86 a2 bf 05 2d 8e 3e 6a de 3a be ab 9d c5 bf
       -1.269744 0.27768722 -0.18248907 -1.5438741
0001f0 5d 24 d3 bd 06 68 a3 bf 04 1e 23 3f c7 a6 46 3f
       -0.1030967 -1.276612 0.63717675 0.7759823
000200 d5 b7 0d bf db 05 4b 3f 9d 9c 99 3e 7c 28 0e 3f
       -0.5535863 0.7930581 0.300023 0.55530524
000210 0c ab 1e 3f 4a e8 10 bf 1b 83 13 bf 5a 65 33 c0
       0.61979747 -0.56604445 -0.57621926 -2.803061
000220 96 0a 12 c0 f6 d7 73 c0 cd 9f 15 c0 01 ba 30 c0
       -2.281896 -3.8100562 -2.3378785 -2.7613528
000230 e2 64 13 c0 a6 41 53 c0 17 5a 3c 3e 5f 6c 13 3f
       -2.3030324 -3.3008819 0.18393742 0.57587236
000240 b8 4a ec bf ca 2a 95 bf 50 99 06 40 e7 b2 ac bf
       -1.8460302 -1.1653683 2.1031075 -1.3492097
000250 97 c0 bf bf e4 a3 1d 40 55 a5 08 c0 1b 9f cb bf
       -1.4980649 2.463128 -2.135091 -1.590793
000260 01 1e ad bd 9e 35 cb bf 40 a6 af bf e0 d3 76 bf
       -0.084529884 -1.5875738 -1.372261 -0.96417046
000270 aa b9 05 c0 1a 70 e2 3e 4a f2 b4 3f d3 4d 2d be
       -2.089457 0.44226152 1.4136441 -0.16924219
000280 16 f3 8a 3f 56 94 7c 3f 99 dd b0 3f af 88 70 3f
       1.0855434 0.9866384 1.3817626 0.9395856
000290 49 43 2d 3f 23 dd 9c 3f 16 26 2f bf 8e e1 12 3f
       0.67680794 1.2254986 -0.6841749 0.5737542
0002a0 fa f9 d9 3f e0 5b f1 3e 8c 0e 41 3f 59 a2 13 c0
       1.7029412 0.47140408 0.7541282 -2.306784
0002b0 64 0d d4 bf c1 bc 28 3f 5a 67 8d c0 ed 72 9e bf
       -1.6566586 0.65913016 -4.418866 -1.2378823
0002c0 2a 90 8a bf 4f c4 88 c0 25 cd e9 bf 38 7e b6 bf
       -1.0825245 -4.2739635 -1.826573 -1.4257269
0002d0 5b 6c b8 bf c2 3e 09 c0 63 1a 26 bf da 83 42 c0
       -1.4408067 -2.1444554 -0.6488401 -3.0392976
0002e0 b1 64 f5 bf 65 b4 ba 3d 84 58 4b be 68 2f 33 bf
       -1.9171354 0.09116439 -0.19857985 -0.6999421
0002f0 18 e0 5e bf fb 8f 88 bf b6 69 c0 bf 18 a5 c1 be
       -0.8706069 -1.0668939 -1.503226 -0.3782127
000300 00 41 bc bf 3f 28 da be 87 78 a3 be f1 dc 04 c0
       -1.4707336 -0.4260883 -0.31927893 -2.0759852
000310 91 ff f4 bf b5 34 b3 bf 19 38 27 be 55 4e a8 3f
       -1.9140493 -1.400046 -0.16329993 1.3148905
000320 13 cf 1b bf 0d b5 5d 3e e0 39 0a 3f 78 32 7e bf
       -0.60862845 0.21651097 0.5399456 -0.9929576
000330 bf 4e 32 c0 bb e3 97 bf 4f b6 1a bf d5 77 25 3f
       -2.7860563 -1.1866373 -0.6043443 0.64635974
000340 73 20 c5 3e 05 c8 26 3f 62 37 2f 3f 07 80 89 3f
       0.3850132 0.65148956 0.6844388 1.0742196
000350 4f 04 20 3e 1c a9 13 c0 cf 60 41 bd f3 4a 10 40
       0.15626644 -2.3071966 -0.047211464 2.2545745
000360 ba 9b 6e bf ba cb c7 be 21 04 02 bf af eb 61 c0
       -0.9320637 -0.3902262 -0.5078755 -3.53001
000370 45 6b 12 c0 d2 b2 3a c0 b1 1c ab bf fe d3 f6 bf
       -2.2877972 -2.9171643 -1.3368131 -1.9283445
000380 b6 ea 5d c0 d7 e3 f7 3f 96 c3 1b bd b0 c7 c0 bf
       -3.4674506 1.9366406 -0.038028322 -1.506094
000390 16 16 a4 3f cf b2 d6 be 11 d3 ec 3e b2 5c f1 3e
       1.281924 -0.41933295 0.4625478 0.47141033
0003a0 86 35 f5 3e aa 1e bf 3f be 51 15 bf 02 1f 69 bf
       0.47892398 1.4931233 -0.58327854 -0.9106294
0003b0 7a 04 1f c0 8b d2 06 c0 a2 e4 8f 3f 72 d3 9f bf
       -2.4846482 -2.1066005 1.1241648 -1.2486403
0003c0 01 87 2e c0 f2 05 48 c0 56 9d 10 c0 66 c8 b8 bf
       -2.72699 -3.1253629 -2.259603 -1.4436157
0003d0 c0 fb a2 3d 79 2e 97 bf e1 00 ba be 2a 42 77 bf
       0.07958174 -1.1811057 -0.36328796 -0.96585333
0003e0 7d b6 4d 3f 82 7c e7 bf 9e d5 5c bf 3a 0b e4 3f
       0.8035658 -1.8084872 -0.86263454 1.7815926
0003f0 eb 1c b3 3e d4 07 c4 bd d9 80 b5 3f a7 a3 29 bf
       0.34983 -0.095718056 1.4179946 -0.6626534

features.8.bias f4 [64]
000000 96 f5 ea c0 b2 da 25 c0 d5 58 82 3e 59 a0 9e c0
       -7.3424788 -2.591473 0.25458398 -4.9570737
000010 c7 b0 cb bf dd be 77 c0 12 48 3e c0 40 2b 3e c1
       -1.5913323 -3.8710244 -2.9731488 -11.885559
000020 7b d9 92 c0 2b 32 84 c0 3c 3b 8e 3d d2 7d 68 bf
       -4.589048 -4.131124 0.06944892 -0.90816987
000030 4a 6e bd c0 bb 03 c7 be 5b 6d 23 bf c9 9e 97 c0
       -5.919713 -0.38870034 -0.6383874 -4.738133
000040 12 9c c6 c0 76 47 8d 3d ea fc d3 3e 34 bd f9 3f
       -6.2065516 0.06898396 0.41403896 1.9510865
000050 d9 a5 26 c0 a9 87 85 bf 88 e0 a7 c0 ad 60 0b c1
       -2.6038725 -1.0432025 -5.2461586 -8.7111025
000060 74 45 a7 c0 92 19 f4 c0 84 fe 54 bc 01 a6 39 3b
       -5.227228 -7.6281214 -0.013000134 0.0028327706
000070 59 22 bd c0 2f d1 8e c0 bf 80 8a c0 35 09 9d c0
       -5.910443 -4.463035 -4.328216 -4.907374
000080 19 43 82 bf 43 ae 12 40 67 3b a4 be cc f1 96 3e
       -1.0176727 2.291886 -0.3207657 0.2948135
000090 f2 e4 28 c0 4f 09 e1 c0 47 58 78 bf f4 aa 57 c0
       -2.6389737 -7.0323863 -0.970097 -3.3698092
0000a0 63 ed 8b c0 38 43 d0 40 14 9c fd c0 5b 01 b8 be
       -4.372728 6.5082054 -7.9253025 -0.35938534
0000b0 b0 dd 81 40 ed 2a 2f 40 60 f3 1c c1 92 3d a5 bf
       4.0583115 2.736995 -9.809418 -1.2909415
0000c0 57 ef 27 c0 23 0a dc c0 b4 e3 2f c0 49 80 c6 c0
       -2.6239831 -6.8762374 -2.748273 -6.20316
0000d0 ee e8 17 c0 c8 aa 22 c0 d3 ff e0 bf aa d8 8b bf
       -2.373592 -2.5416737 -1.7578071 -1.0925496
0000e0 c3 39 df 3f 5a 3f 03 c0 21 d9 94 3f e5 7d 7e 3f
       1.7439502 -2.0507417 1.1628762 0.9941085
0000f0 49 01 05 c1 1b 20 ff c0 cf 81 83 c0 4e d0 74 c0
       -8.312814 -7.972669 -4.109596 -3.825214

features.10.weight f4 [64]
000000 05 2c fa 3f d8 eb e9 3f 89 83 05 40 b7 95 1d 40
       1.9544684 1.8275099 2.0861533 2.4622629
000010 50 42 f3 3f 24 cc d8 3f 09 5c f8 3f cf cf 46 40
       1.9004612 1.6937299 1.9403087 3.1064336
000020 32 40 1a 40 f3 03 30 40 46 b6 03 40 e2 3a df 3f
       2.4101682 2.750241 2.058 1.7439845
000030 5a 1f 2f 40 34 24 f7 3f 6b 4e e5 3f 2d e7 d9 3f
       2.7362885 1.9307923 1.7914556 1.7023674
000040 81 40 1b 40 7b 22 f1 3f f9 a5 19 40 04 a0 35 40
       2.425812 1.8838648 2.4007552 2.8378916
000050 53 da 2f 40 02 ae 3b 40 f9 3b 16 40 48 a8 e1 3f
       2.7477005 2.9324956 2.3474104 1.762948
000060 80 36 1b 40 56 9e 27 40 d5 94 05 40 d9 f9 0c 40
       2.4252014 2.619039 2.087209 2.2027495
000070 34 b7 d9 3f 71 74 03 40 5f 2f 01 40 57 b3 db 3f
       1.7009034 2.053982 2.0185163 1.7164105
000080 09 a1 0f 40 1c 4c ac 3f a5 5f 10 40 a9 39 06 40
       2.2442038 1.3460727 2.2558377 2.0972693
000090 c6 10 ea 3f fa af bf 3f 99 2b 08 40 b5 b1 dd 3f
       1.8286369 1.4975579 2.127661 1.7319857
0000a0 ef 16 fd 3f 5f ad 03 40 ce 98 f1 3f 58 60 08 40
       1.9772624 2.0574567 1.8874757 2.1308804
0000b0 08 f2 ea 3f 30 f7 0e 40 af fd ce 3f 8d b4 14 40
       1.8355112 2.2338371 1.6171168 2.32352
0000c0 35 89 f9 3f be 14 1d 40 12 aa cd 3f 66 e3 12 40
       1.9494997 2.454391 1.6067526 2.2951293
0000d0 c4 f3 23 40 65 a0 10 40 74 24 08 40 a1 b9 fb 3f
       2.5617533 2.2597897 2.127225 1.9666024
0000e0 1a a1 fa 3f 45 0a c5 3f 2d 98 0d 40 d3 96 18 40
       1.9580414 1.5393759 2.212413 2.3842056
0000f0 23 a3 12 40 da 4a 1a 40 82 c5 14 40 e1 df 01 40
       2.291207 2.4108186 2.324555 2.0292895

features.10.bias f4 [64]
000000 14 de 35 3d 9d 06 64 3f 31 eb 3c 3e e1 ff 26 3f
       0.044401243 0.8907259 0.18449093 0.6523419
000010 2c 75 27 3f 95 79 91 bd a4 e4 f6 3e 4d 15 8d 3e
       0.65413165 -0.07103268 0.48221314 0.27555314
000020 de 72 ac be b4 ff 9b 3f 1a 2f 88 be 0c 08 da bf
       -0.33681387 1.2187409 -0.26598436 -1.7033706
000030 c7 b4 88 3f 2c 57 b5 be 4b fe d1 bc ab 8c 8b 3e
       1.0680169 -0.3541807 -0.025633952 0.2725576
000040 fb e0 82 be dc 76 15 3f eb 26 a1 3f 84 11 be 3e
       -0.2556227 0.5838449 1.2590002 0.37122738
000050 e4 f9 03 40 20 70 ee 3e d4 ca bf be 30 61 43 3f
       2.062127 0.4656992 -0.37459433 0.7632017
000060 cc 09 cc 3f 8d 6a 11 3f bb c7 e3 3e 6a ce ff 3e
       1.594049 0.5680321 0.4448832 0.4996217
000070 2c 0b 0d bf 83 a3 61 bf c8 3b 43 3f fd 80 8c bc
       -0.5509517 -0.88140124 0.76263094 -0.01715135
000080 d8 c4 d8 3f d8 11 a2 be c6 c3 8d 3f d8 f0 66 be
       1.6935072 -0.3165424 1.107537 -0.22552812
000090 6d 69 d6 be 82 3f 47 bf 02 3f 82 3e b6 2a 34 bf
       -0.41877308 -0.7783128 0.25438696 -0.7037767
0000a0 76 e7 db 3f 14 e6 a4 3d 27 98 a9 3e 64 68 da 3d
       1.7180011 0.080516964 0.33123896 0.10664442
0000b0 73 17 0b be 8c 38 28 bf 31 c8 a6 be b5 9f 8b 3f
       -0.13583164 -0.65711284 -0.3257461 1.0908114
0000c0 9b 3a 92 3e 91 6c 37 3f 5b 5b 31 be c9 f7 5e 3f
       0.28560337 0.71650034 -0.17320006 0.8709684
0000d0 1f aa e1 3f 81 79 bb be c3 71 ab be b5 00 a2 3e
       1.7630042 -0.36616138 -0.3348523 0.31641164
0000e0 d0 69 e8 be c0 48 d8 3a 5b d0 65 3e 80 86 32 3f
       -0.4539323 0.0016501173 0.22442763 0.6973648
0000f0 13 8d 37 bf bc b6 e1 3e f4 1d be 3e 87 bb cb be
       -0.7169964 0.44084728 0.37132227 -0.3979151

features.10.running_mean f4 [64]
000000 a7 d9 bb 41 fc 68 73 42 e7 1c eb 41 5a e9 b7 41
       23.481276 60.852524 29.389112 22.988941
000010 53 d5 d2 41 f5 d8 dc 41 1f 9d 17 42 54 0f d4 41
       26.354162 27.605936 37.90344 26.507484
000020 87 14 f5 41 09 7b f8 41 73 7c 48 42 ae be 06 42
       30.635023 31.060076 50.121532 33.68621
000030 4c 59 f4 41 3c 3f 06 42 2f 5a f4 41 d7 6e cd 42
       30.543602 33.561752 30.544035 102.716484
000040 54 32 e1 41 90 87 38 42 b2 93 e7 41 a6 12 3d 42
       28.149574 46.132385 28.947117 47.26821
000050 b3 da 20 42 1c 64 17 42 01 8f bb 41 16 fb 7c 42
       40.213573 37.847763 23.444826 63.2452
000060 6f e0 e6 41 af ef 02 42 97 b9 04 42 6d 48 c9 41
       28.859587 32.734066 33.18124 25.160364
000070 75 65 4c 42 0d 80 1b 42 08 b8 b3 41 59 e4 8f 41
       51.09908 38.87505 22.464859 17.986498
000080 3b d6 4d 42 10 65 55 42 96 ee 46 42 23 98 b6 41
       51.45921 53.348694 49.732994 22.824286
000090 f8 03 90 42 f6 3f b1 41 62 4c 16 42 28 c9 a0 41
       72.00775 22.15623 37.574593 20.09822
0000a0 ab d8 86 41 3f d9 7f 42 01 e0 d6 41 e8 85 ce 41
       16.855795 63.962154 26.859377 25.815384
0000b0 53 36 fc 41 6f 13 bc 42 91 2d 39 42 be db dc 41
       31.526525 94.03796 46.2945 27.607296
0000c0 85 d1 4f 42 ba 2e 3e 42 d8 67 14 42 aa 53 3f 42
       51.95461 47.54563 37.10141 47.831703
0000d0 d1 3e 19 42 e1 24 d2 41 52 a8 4a 42 c4 e0 1b 42
       38.311344 26.268007 50.664375 38.969498
0000e0 82 26 39 42 b3 f2 09 42 36 61 85 42 07 b5 37 42
       46.287605 34.48701 66.689865 45.926785
0000f0 9e e7 81 41 db 01 06 42 16 3e f1 41 f3 05 95 42
       16.238094 33.501812 30.155315 74.51162

features.10.running_var f4 [64]
000000 8c df 62 45 22 4c 0c 46 a4 05 77 45 28 1f 3f 45
       3629.9717 8979.033 3952.3525 3057.9473
000010 2f cf 57 45 17 fb 54 45 24 65 91 45 62 dc 4b 45
       3452.949 3407.693 4652.6426 3261.774
000020 56 df 8b 45 65 9f 7c 45 28 6e f7 45 54 6a 99 45
       4475.917 4041.9622 7917.7695 4909.291
000030 a7 b7 74 45 b7 c4 8d 45 fe 9a 6f 45 5e e0 8b 46
       3915.4783 4536.5894 3833.687 17904.184
000040 d3 d3 54 45 44 44 e8 45 9b cb 69 45 b5 b4 eb 45
       3405.239 7432.533 3740.7253 7542.5884
000050 26 1d aa 45 02 ef 91 45 13 43 35 45 09 38 2b 46
       5443.6436 4669.876 2900.1921 10958.009
000060 71 bc a9 45 3a 3e 85 45 ca 2a 91 45 bd 16 37 45
       5431.555 4263.7783 4645.3486 2929.4211
000070 cc 64 09 46 79 92 a1 45 7b e8 45 45 a4 76 08 45
       8793.199 5170.309 3166.53 2183.415
000080 7d a4 03 46 dc 29 f7 45 d4 70 e6 45 1b 57 37 45
       8425.122 7909.2324 7374.1035 2933.444
000090 54 4f 31 46 f8 4d 4e 45 28 f2 a6 45 43 59 23 45
       11347.832 3300.873 5342.2695 2613.5789
0000a0 26 50 e0 44 a7 74 11 46 42 7c 5e 45 7f 0d 3b 45
       1794.5046 9309.163 3559.766 2992.8435
0000b0 3c 4b 59 45 88 91 7d 46 41 c3 c1 45 11 4f 83 45
       3476.7021 16228.383 6200.4067 4201.8833
0000c0 c4 ea f5 45 af 47 fb 45 29 83 8f 45 29 ea 06 46
       7869.3457 8040.9604 4592.395 8634.54
0000d0 ea 04 a4 45 cd eb 6f 45 0d c2 f9 45 e8 11 b7 45
       5248.6143 3838.7375 7992.2563 5858.2383
0000e0 a3 e7 b2 45 5b 3f 98 45 e3 88 16 46 5a 79 d6 45
       5724.9546 4871.9194 9634.222 6863.169
0000f0 16 c0 18 45 87 c5 90 45 97 74 87 45 c3 e5 5a 46
       2444.0054 4632.691 4334.5737 14009.44

features.11.weight f4 [64, 64, 3, 3]
000000 79 06 2e 3f ce 82 74 3e 0a f2 51 3f 73 4e 76 bf
       0.67978626 0.23878023 0.8200995 -0.96213454
000010 17 5c 04 bd 75 f7 ed 3e 4f cb c0 bf 83 78 99 3f
       -0.032314386 0.46477857 -1.5062045 1.1989902
000020 f4 17 4a bf 3b ce 6a 3e 17 29 c8 3c 4b 77 64 3f
       -0.789428 0.22930233 0.024433656 0.89244527
000030 53 50 98 3f 8c 6d 1b 3e 7b bd 07 bf e9 bb 12 3f
       1.1899513 0.15178508 -0.530235 0.5731798
000040 d1 02 38 3f 5d 92 ad 3f 70 83 23 40 71 03 09 40
       0.718793 1.3560292 2.5548973 2.140835
000050 8f 0d 95 3f ae f4 59 40 f6 a6 ab 3f 4b 00 b1 bf
       1.1644763 3.405559 1.3410327 -1.3828214
000060 3b 65 2e 40 13 d1 73 3e 91 36 d4 bf eb 7a 38 3e
       2.7249286 0.23810224 -1.6579152 0.1801564
000070 b1 2d c3 bf 2d 26 34 c0 27 b4 85 bf d0 7d 0d c0
       -1.5248319 -2.81483 -1.0445603 -2.210804
000080 e1 4d 0a c0 99 80 d9 bf 6e 14 37 c0 59 3f 21 c0
       -2.1610034 -1.699237 -2.860622 -2.5194914
000090 fa e2 9b bf ec fd df 3f dd 71 6a be af e2 4a 3f
       -1.2178643 1.7499366 -0.22894998 0.7925214
0000a0 3f 0d f9 3f 03 83 1c c0 80 d2 2b 3f a9 de 18 40
       1.9457167 -2.4454963 0.6711807 2.38859
0000b0 cd d4 99 bf c2 96 df 3f a1 ec ba be 7e e1 3e be
       -1.2018067 1.7467883 -0.3650866 -0.18640706
0000c0 52 81 1e 3f d0 b7 9c bf e0 49 4b 3f 37 c2 8c be
       0.6191608 -1.2243595 0.794096 -0.27491924
0000d0 0f 3f df 3e 73 b1 d0 3e 94 99 9b bf 85 2b ef bf
       0.43602797 0.40760383 -1.2156243 -1.8685156
0000e0 98 43 ac be 49 50 04 bf 5c 37 b7 bc 8e eb c6 3f
       -0.3364532 -0.51685005 -0.022365265 1.5540636
0000f0 86 ce 23 bf 9a c6 93 3f 77 f9 5e 3e 44 2a 13 c0
       -0.63987005 1.1544983 0.21774851 -2.2994547
000100 2b 30 c2 be 5f c0 a3 3f 03 10 ac 3f 5f cf 81 40
       -0.37927374 1.2793082 1.3442386 4.056564
000110 fa 4c 92 40 b2 9d 12 be fd f8 73 3f f3 49 57 3f
       4.5718966 -0.14317968 0.953018 0.8409721
000120 8f bc f4 bf ff 6e c6 bf 33 71 ce bf 72 95 b7 bf
       -1.9120044 -1.5502623 -1.6128296 -1.4342482
000130 20 12 14 c0 64 b1 2c c0 af 30 70 bf f9 82 66 c0
       -2.3136063 -2.698327 -0.93824285 -3.601744
000140 7e 25 8c c0 f9 bc 3f 40 3f d4 3d 40 12 f5 72 3f
       -4.3795767 2.995909 2.9660795 0.949052
000150 b8 c5 0e 3f 72 dc dc be 07 03 99 bf 02 83 ae be
       0.55770445 -0.43136936 -1.1954049 -0.34084326
000160 e4 ac f2 bf 7e f1 01 c0 15 f8 4d bf a8 8b 98 bf
       -1.8959012 -2.0303645 -0.8045667 -1.191762
000170 be d9 98 bf c6 21 80 bd 86 e0 36 bf 98 4a f4 be
       -1.194145 -0.06256442 -0.71436346 -0.4771316
000180 c6 42 a7 bf e2 6c 38 c0 1e 70 b9 bf 34 16 02 40
       -1.3067253 -2.8816457 -1.448734 2.0326052
000190 cf 0a 02 40 39 fd a1 3f 22 68 ca 3f 24 2f c8 3f
       2.0319097 1.2655402 1.5813029 1.5639386
0001a0 23 d4 c1 bf 0b 58 47 40 4b 05 75 3f d5 b2 ed 3d
       -1.5142864 3.1147487 0.957112 0.11606375
0001b0 76 b2 1d 3f 7f 15 e1 bf c7 7f 2f bf 9e 23 da bf
       0.61600435 -1.7584685 -0.6855435 -1.704212
0001c0 e8 cb 8f 3f 1d 57 64 40 8d ed 60 3f fc e3 c6 3f
       1.1234102 3.567817 0.87862474 1.5538325
0001d0 55 a4 4e 40 70 83 30 40 4f 00 22 40 51 22 96 be
       3.22878 2.7580223 2.5312688 -0.29323056
0001e0 92 98 6f 3f 2a eb f2 be 78 fa dc bf c2 7e 81 3e
       0.9359218 -0.4744504 -1.7263937 0.2529202
0001f0 5f 65 ea bf 67 ad 63 be f6 51 01 c0 68 43 50 3f
       -1.8312186 -0.22234116 -2.0206275 0.81352854
000200 54 fb cd 3f 31 b5 60 bf 3f de a6 3e d5 06 80 bf
       1.6092324 -0.87776476 0.32591435 -1.0002085
000210 4e 44 d0 3d d9 86 29 3f bc 18 71 3f 74 87 22 c0
       0.10169278 0.66221386 0.94178367 -2.5395174
000220 24 e1 da bf 4f 95 b6 be 33 84 68 bf 16 b7 25 3f
       -1.7099957 -0.35660788 -0.9082672 0.6473249
000230 6f 79 1c 40 17 9b c0 3f 66 b8 42 3f 2d 42 06 3f
       2.4449117 1.504733 0.7606262 0.52444726
000240 3c 5b 0e bf ac d1 a0 be 36 36 71 be 82 0b 3f 3f
       -0.5560796 -0.31409967 -0.23555836 0.74626935
000250 b9 64 03 3f f4 c1 55 be 99 a5 f6 be 36 3a 48 bf
       0.51325566 -0.20874768 -0.48173216 -0.7821382
000260 8e 3c f6 3e d9 09 5f 3f 0f 5d dc 3e 94 f6 6c 3f
       0.48093075 0.871244 0.43039748 0.9256375
000270 f8 08 c1 bf 96 58 13 c0 1f 39 42 bf 15 12 8a bf
       -1.5080862 -2.3022819 -0.7586841 -1.0786768
000280 f0 b8 55 bf 0a e9 ab be 15 08 2d be e5 3a 2a 3f
       -0.8348532 -0.33576232 -0.16897614 0.66496116
000290 2c 30 3d bf 90 26 35 bf 53 e2 b3 3e f8 87 68 bf
       -0.7390163 -0.70761967 0.3513361 -0.9083247
0002a0 87 fa 91 3f 21 a2 b9 3f d8 1a f0 3f cf 5a 2c 3f
       1.140458 1.4502603 1.8758192 0.6732606
0002b0 01 ee f2 3e 8a 8c b7 3f 28 fd 7e 3f 98 b3 1c be
       0.47447208 1.4339764 0.99605036 -0.15302885
0002c0 33 e4 a1 be 09 cd a6 3f cd 8f 4b 3e 6f a9 01 c0
       -0.31619415 1.3031322 0.19879074 -2.0259664
0002d0 77 d6 7b bf f0 74 8e bf 73 c2 63 c0 33 5f 85 be
       -0.9837412 -1.1129436 -3.5587432 -0.26049194
0002e0 1b af e8 3d b1 ab b3 be b5 9d 92 3e 4d 85 2e bf
       0.11361524 -0.35091928 0.28635946 -0.6817215
0002f0 d5 2b db bf 35 a7 03 be 86 2e 91 bf ec 11 f4 bd
       -1.7122751 -0.12856753 -1.1342323 -0.11917481
000300 21 ec d8 bf d2 d5 cd bf f2 0c 59 3f ad 0c 04 c0
       -1.6947061 -1.6080878 0.8478538 -2.0632737
000310 8e eb 3a bc f9 97 ba 3f f6 86 c6 3f 7f a9 d8 3e
       -0.0114087 1.4577628 1.5509937 0.42316815
000320 30 35 8a bf 95 0b 1a 3f 8e d5 b8 bf 18 52 22 c0
       -1.0797482 0.6017392 -1.4440172 -2.5362606
000330 86 f4 6c 3f ee 92 59 bf af 14 95 bf c3 dc ff be
       0.92560613 -0.8498982 -1.1646937 -0.49973115
000340 86 d8 2e bf 89 d8 8d bf b9 d4 9e bf d7 dc 84 bf
       -0.6829914 -1.1081706 -1.2408668 -1.0379895
000350 86 c9 e7 be af f6 0b bf e7 61 5f bf 08 20 08 3e
       -0.45270938 -0.54673284 -0.8725876 0.13293469
000360 be 1e 42 bf 80 00 bd 3e e3 09 3e 3f e4 23 0d c0
       -0.7582816 0.36914444 0.74233836 -2.2053156
000370 23 96 e8 bf 81 e1 89 bf 97 b7 03 c0 22 e1 b8 bf
       -1.8170818 -1.0771943 -2.0580804 -1.4443705
000380 3d 27 98 bf e4 5d 3e bf fe 73 e8 bf b2 29 9e bf
       -1.1886975 -0.74362016 -1.8160398 -1.2356474
000390 74 0f 88 3f a6 69 ec be e9 5b 59 bf bb f8 26 40
       1.0629716 -0.46174353 -0.8490587 2.6089313
0003a0 ca 6d 73 bd b0 6f 93 bf e0 7b 00 40 bd 74 93 3e
       -0.059430875 -1.1518459 2.0075607 0.28800002
0003b0 ac 33 8f 3e a2 5d 9b 3f 02 05 7d 3f 97 bd 2f 3d
       0.2796911 1.213795 0.98835766 0.042905416
0003c0 65 ec b9 3f f5 08 a2 3f 01 ba 14 40 8b f7 1e 40
       1.4525267 1.2658983 2.3238528 2.4838588
0003d0 ba 30 18 bf 26 f5 77 bf c3 9a 72 3e e1 2e de be
       -0.5944935 -0.9685844 0.2369185 -0.4339514
0003e0 bb 63 7c 3f f1 d6 f4 be ed e3 16 3f b7 59 b8 3f
       0.98589677 -0.47820237 0.5894154 1.4402379
0003f0 e8 ff 28 bf 1d 23 19 bf 72 4f 5d 40 4f 89 9b 3f
       -0.6601548 -0.59819204 3.457974 1.2151278

features.11.bias f4 [64]
000000 32 e7 f3 bf 90 5f 91 bf cc e8 51 c0 99 14 a4 bf
       -1.905493 -1.1357288 -3.2798338 -1.2818786
000010 c1 25 39 c0 98 f5 33 c0 19 1f be 3f ca 03 a4 be
       -2.8929293 -2.8118649 1.485324 -0.3203414
000020 ea b8 be 3e 86 37 b7 40 c8 85 44 c0 43 e4 85 bf
       0.37250453 5.725528 -3.0706654 -1.0460285
000030 76 0f 31 40 0d 3a 36 c0 72 46 11 c0 88 eb 61 c0
       2.7665687 -2.8472931 -2.2699246 -3.5300007
000040 78 5b 60 bf 29 98 23 3e 20 5a a8 bf c8 66 3c c0
       -0.8763957 0.15976013 -1.3152504 -2.9437733
000050 84 b7 1c c0 ce 91 93 c0 0e 98 90 3f 0d 5b 7f bf
       -2.448701 -4.6115484 1.1296403 -0.9974831
000060 ed f4 45 c0 5e 7d 39 bf 3a e7 5b 3f 87 ea 91 bf
       -3.093074 -0.7245692 0.858997 -1.1399697
000070 6d 11 6c bf f7 db 92 bf e4 45 4a 3f 8b 0b fb 3f
       -0.9221409 -1.1473378 0.79012895 1.9612898
000080 50 73 97 bf e6 0f 9d bf 29 bf 0f c0 be 4b 5c bf
       -1.1832066 -1.2270477 -2.2460425 -0.86053073
000090 fd 06 ac 3f bd cc 4b bf 22 99 bd bd 0d 45 d9 be
       1.3439633 -0.7960928 -0.092577234 -0.42435494
0000a0 79 3d 8c bf 26 03 7b bf fb 57 aa bf 93 39 e5 bf
       -1.095626 -0.9805168 -1.33081 -1.7908195
0000b0 49 13 3b bf c5 11 06 bf 31 91 bd bf 35 ac 39 3f
       -0.730763 -0.52370864 -1.4809934 0.7252839
0000c0 e8 d4 20 c0 15 8a 06 c0 52 f2 67 c0 2e b7 fd bf
       -2.5129948 -2.1021779 -3.624165 -1.9821527
0000d0 ad 55 98 3f 2e 3d 02 3e 56 93 c9 bf bd 12 94 3d
       1.1901146 0.1271865 -1.5748088 0.072301365
0000e0 ce d5 f6 bf 3d e9 fb bf 05 bf 3e c0 27 80 e9 be
       -1.9283998 -1.9680554 -2.980409 -0.45605585
0000f0 f6 ed 91 bf f2 72 5a 40 70 6c e7 bf 5b f0 99 bf
       -1.1400745 3.4132657 -1.8079967 -1.2026476

features.13.weight f4 [64]
000000 db 25 a4 bd b1 2e c9 bd a1 9b b2 bd 0f e8 73 3d
       -0.08015033 -0.09823359 -0.0872109 0.05954748
000010 15 7d df bd f3 7a be bd 52 1b c9 3d 66 fc 2c 3e
       -0.109125294 -0.093007945 0.09819664 0.16893157
000020 ef b2 ce 3d 51 6d 04 3e 04 84 be bd ae d0 b5 bc
       0.100927226 0.12932326 -0.09302524 -0.022194233
000030 8e 54 8e 3d 97 a5 14 be 67 c0 59 bd 75 0d ef bd
       0.06949721 -0.14516293 -0.053162005 -0.116724886
000040 32 ff 4e 3d eb 15 8d 3d 63 df b8 bd a7 c9 65 bd
       0.050536342 0.06888946 -0.09026983 -0.056100514
000050 c5 1e 9b bd 4f 25 5a be 65 0a d1 3d 81 27 48 bd
       -0.07574228 -0.21303295 0.10207061 -0.0488658
000060 4a 1d 15 be 5c 78 e2 3d df d8 17 3e 41 f7 02 3e
       -0.14561954 0.11058113 0.14828824 0.12789632
000070 0c f3 5b bd db 02 a5 3d cd 25 68 3d d4 e1 d6 3d
       -0.053698584 0.08057185 0.056676675 0.10492292
000080 33 ff c3 bc 3c 52 a0 3d 40 47 ca bb 95 8b 3d bd
       -0.0239254 0.07828185 -0.0061730444 -0.046275694
000090 79 3b d0 3d 11 6d 3d 3d 13 60 1d 3e fe fc 72 3d
       0.101675935 0.046246592 0.1536868 0.059323303
0000a0 c6 a9 0f be bb 90 0e 3d 8c 16 a6 bd 32 c8 b3 bd
       -0.14029607 0.034805994 -0.08109769 -0.087784186
0000b0 0a 0e cc bd fe 65 a0 3d 3e 9a 0f be cf 47 d4 3d
       -0.09963615 0.078319535 -0.14023682 0.10365259
0000c0 c1 dd 69 bc 09 5a 2a be 9d d9 23 be 0a 8d 5a bd
       -0.014274062 -0.16635908 -0.16000982 -0.05335716
0000d0 04 57 2c 3e 6f 17 c7 3d 09 3d 30 3d 96 b0 2e 3e
       0.16830069 0.097212665 0.043026958 0.1705955
0000e0 3a 08 96 bd 1b 7d 94 bd 84 7f d0 bd 27 d0 07 3e
       -0.07325788 -0.072504245 -0.10180572 0.13262998
0000f0 30 d0 ea bd 2b e7 d8 3d 32 cf b9 bd 18 98 c8 bd
       -0.1146549 0.10590967 -0.090727225 -0.097946346

features.13.bias f4 [64]
000000 4c a6 2a bd 28 99 0e bd b4 3c b5 bc 02 d9 10 3b
       -0.0416625 -0.03481403 -0.022123672 0.0022102003
000010 49 94 0c bc 7f 5a 08 bc ce 9d f3 bc be 46 3e bd
       -0.008580276 -0.008322357 -0.029738333 -0.046454184
000020 bd 73 e7 bc f4 2f 6e bd 4a bd dc bc 9a 11 c4 3b
       -0.02825343 -0.0581512 -0.026945729 0.0059835436
000030 85 4b 62 bd 3e 15 47 bd bf 84 cf bc 1e be 5c bb
       -0.055247802 -0.048604243 -0.025331853 -0.0033682655
000040 b0 42 43 bc 96 99 36 bd 93 b4 c9 bc 32 6a 35 bd
       -0.011917755 -0.044580065 -0.024622237 -0.04429073
000050 23 19 42 bc 3c 30 e2 3a 66 46 db bc 97 62 f4 bc
       -0.011846813 0.0017256807 -0.026766967 -0.029832168
000060 5e ea d2 3b a8 c8 6a bd a9 f7 3a bd ad 08 08 bd
       0.00643663 -0.057320267 -0.045646343 -0.0332114
000070 ee 38 28 bd 88 26 da 39 46 e2 52 bd 82 f9 37 bd
       -0.041069917 0.00041608908 -0.051485322 -0.044915684
000080 e6 66 c3 3c 1c aa bd bc fe dd d4 bb b8 fe 8a bc
       0.023852777 -0.023152404 -0.00649619 -0.016967162
000090 31 08 5a bd 16 07 cf bc e1 52 32 bd 4e 5a 8d bc
       -0.05323047 -0.025271934 -0.04353607 -0.017254975
0000a0 57 d3 22 bd 8d db f3 bc b9 51 48 bd b9 f8 8d bd
       -0.03975233 -0.029767776 -0.04890606 -0.06932206
0000b0 18 99 e5 bc ff b2 d8 bc 3d e8 09 bd ff 8f a3 bc
       -0.028027102 -0.02645254 -0.033668745 -0.019966124
0000c0 c6 eb bd bc ba ee bf bb 0c 67 07 bd c3 2d f6 bc
       -0.023183715 -0.005857316 -0.033057258 -0.030051118
0000d0 dc 4f 83 bd b0 2a 41 bd 22 64 fe bc e2 4c 84 bd
       -0.06411716 -0.04715985 -0.031053606 -0.06459977
0000e0 88 ec 41 bd 46 4c 02 bc ac 9b 7c bc 98 c5 53 bd
       -0.047344714 -0.007952755 -0.015417974 -0.051702112
0000f0 67 df 99 3c 90 c9 38 bd 95 e7 23 bd 1c d6 9b bc
       0.018783284 -0.0451141 -0.040015776 -0.019022994

features.13.running_mean f4 [64]
000000 8c 67 69 41 dd 3f 25 41 ac 93 18 3e b2 57 ba 41
       14.58778 10.328092 0.14900082 23.29282
000010 74 2d 44 41 d1 70 3a 41 00 b3 88 42 71 9e cd 42
       12.261097 11.652543 68.34961 102.809456
000020 a9 7f 79 42 d9 14 05 43 6b 1a a5 41 80 b5 86 41
       62.37467 133.08144 20.6379 16.838623
000030 d6 73 e9 42 15 e5 fc 40 69 fb ec 40 b3 ed f8 40
       116.72624 7.902964 7.4056897 7.779016
000040 54 6b c0 41 0a 55 45 42 a2 9b d9 41 a4 bb 69 3e
       24.052406 49.333046 27.200993 0.22825485
000050 b8 ff f1 40 f0 75 00 39 05 6d ac 42 f7 a9 0f 41
       7.5624657 0.00012250966 86.21293 8.978995
000060 f5 d9 99 3d 24 5f 87 42 a1 66 8c 42 28 71 65 41
       0.07512275 67.68582 70.20045 14.340126
000070 a4 dc 1a 42 f9 f1 55 41 98 bf 4f 42 27 91 c7 42
       38.71547 13.371575 51.937103 99.7835
000080 10 25 33 41 d0 c9 e8 41 2f 3c 6b 00 5e 91 8a 41
       11.196548 29.098541 9.847988e-39 17.32098
000090 be 13 a8 42 a7 71 bf 41 47 96 83 42 75 3c 9d 42
       84.03856 23.930494 65.79351 78.61808
0000a0 e0 6a d6 41 e1 36 e2 41 c8 2c bf 41 ed 5c 23 41
       26.802185 28.276796 23.896866 10.210187
0000b0 4f ce 24 41 ff 4d 01 42 1e 11 a7 41 39 79 1e 42
       10.300368 32.326168 20.883358 39.61838
0000c0 1a 49 15 40 ff e4 83 40 f2 55 94 3f b8 5c c5 41
       2.3325868 4.1217036 1.1588728 24.670273
0000d0 4e cb db 42 45 4b 4a 42 f5 7c d4 41 f3 5b 9c 42
       109.89708 50.573505 26.561014 78.17959
0000e0 4e 45 b0 41 27 c7 c5 40 08 51 0b 3e bf e6 1f 42
       22.03384 6.1805606 0.1360513 39.975338
0000f0 cf 07 a1 41 84 72 01 43 97 8b 32 41 91 b5 9e 41
       20.128813 129.44733 11.15908 19.838655

features.13.running_var f4 [64]
000000 71 28 33 45 6d e7 cf 44 63 0e 3d 41 6a a2 6c 45
       2866.5276 1663.232 11.816012 3786.151
000010 f5 aa dd 44 6f 07 ed 44 67 c8 bd 45 20 6c 14 46
       1773.3424 1896.2323 6073.0503 9499.031
000020 d7 ae c5 45 87 d0 0a 46 b2 9d a6 45 3c c0 23 45
       6325.855 8884.132 5331.712 2620.0146
000030 de 42 11 46 8f 57 a7 44 8a c8 91 44 53 10 aa 44
       9296.717 1338.7362 1166.2668 1360.5101
000040 d3 a1 40 45 cc bb 9e 45 53 ba 96 45 2c e9 b0 41
       3082.114 5079.4746 4823.2905 22.113853
000050 19 9e 99 44 16 34 91 3b 0c 3e e6 45 0f 15 b6 44
       1228.9406 0.004431258 7367.756 1456.6581
000060 34 92 97 40 65 49 eb 45 3f 53 dd 45 fb 04 ab 44
       4.736597 7529.1743 7082.406 1368.1556
000070 03 6a 96 45 03 7e e4 44 70 3a ac 45 3c 1b e7 45
       4813.2515 1827.9379 5511.3047 7395.4043
000080 f2 7d c1 44 54 34 59 45 0c c1 97 02 58 af 28 45
       1547.9358 3475.2705 2.229826e-37 2698.959
000090 62 64 dc 45 fe 30 19 45 ce 41 fd 45 93 a9 eb 45
       7052.548 2451.062 8104.2256 7541.197
0000a0 51 9a 44 45 af 54 80 45 7c 64 46 45 77 f0 c6 44
       3145.6448 4106.5854 3174.2803 1591.5145
0000b0 60 24 a8 44 33 eb 61 45 6f 10 56 45 6e 2a 8d 45
       1345.1367 3614.7 3425.027 4517.3037
0000c0 01 d7 d4 43 14 5b 2e 44 51 fd 5c 43 0f 27 8a 45
       425.67972 697.4231 220.98952 4420.8823
0000d0 94 b8 0f 46 09 96 aa 45 57 f0 4a 45 08 47 0a 46
       9198.145 5458.7544 3247.0212 8849.758
0000e0 8c 01 78 45 97 90 70 44 22 8a 22 41 6c b2 93 45
       3968.0967 962.2592 10.158724 4726.3027
0000f0 89 dd 44 45 32 a3 38 46 32 ff 0c 45 f8 80 10 45
       3149.846 11816.799 2255.9497 2312.0605
