models/DenseNet_on_cifar10.pth (torch_old, 696170 bytes, 160 tensors)

features.0.weight f4 [16, 3, 3, 3]
-0.25408942 -0.17007002 -0.1084589 -0.17003733 -0.27769578 0.4579846 0.3142202 0.20613359
0.011071825 -0.081394024 0.0077552507 0.07663238 0.007931957 -0.40710604 0.3352444 -0.0074926857
-0.17505988 0.14666723 0.17854415 -0.094052605 0.054666243 -0.08365304 -0.35308686 0.21334559
0.18067586 -0.13926359 0.07144474 0.00033449754 -0.014005461 -0.023210479 0.08117603 -0.014938371
0.023377692 0.45172393 -0.08219536 -0.080940954 0.13955507 0.3639763 0.26259792 0.028661953
-0.28583115 -0.17578723 0.34886715 -0.29829383 -0.25595373 0.25900778 0.46682903 0.19381522
0.039556887 -0.13349491 -0.006118064 0.26631448 -0.20019266 -0.10700552 -0.0016711863 0.08676602
0.21508509 -0.25171584 -0.3657004 -0.18694067 -0.3020023 -0.3695448 -0.042986885 -0.13881987
0.109280206 0.042059097 -0.09690705 -0.14125456 0.0691967 0.021994013 0.12544703 0.1297892
0.017499046 -0.07096577 -0.38958645 -0.06311929 -0.5302873 -0.2898841 -0.079291515 -0.3063717
0.008417919 -0.049102 -0.098714694 0.06313328 -0.05513509 0.17603295 -0.64082587 -0.010992438
-0.0067713982 0.19792606 -0.14799641 0.086480096 0.15258197 0.06468199 0.16152513 -0.69760716
-0.16725239 0.28937644 -0.023782054 -0.086527206 0.07761214 0.17426984 0.11952776 0.18549429
-0.43013072 0.19761302 -0.062611625 0.050640304 -0.006668994 -0.3790323 -0.18296532 -0.06650405
0.4483645 0.009452655 0.18477191 0.30068818 -0.026463142 -0.05280135 -0.00838516 0.021125222
0.13628489 0.45234215 -0.16046065 -0.16323723 -0.047774766 -0.25684372 0.16231848 -0.12918338
0.040988725 0.06269361 0.46127072 -0.2070344 -0.14702195 -0.064682186 -0.1510321 0.4868538
0.26742622 -0.14294985 -0.008661624 0.21199583 -0.20139472 0.112762034 -0.3023377 -0.28245503
0.14280233 0.34172955 -0.21558438 -0.22386591 -0.004855693 -0.114873104 -0.071396224 -0.09320985
0.11380305 -0.3345641 0.056329202 0.064420044 -0.3212289 0.12045131 0.11659515 0.07976577
0.0016984328 0.3305477 -0.08093149 0.09799422 -0.046153255 -0.06511492 -0.31765077 0.17631465
0.25222823 0.20773786 0.33792868 0.16071732 -0.17829955 -0.02816517 -0.22206928 -0.5662108
0.014618223 0.002022137 -0.08120861 -0.23134103 0.0968636 0.42688504 0.20579989 0.09522737
-0.011184925 0.24534462 -0.28568658 -0.08320058 -0.14831333 0.15880258 0.16640225 0.17932719
0.14226319 0.23011637 0.38299096 -0.30075786 0.05824998 0.19309501 0.24984452 0.21467476
0.08517785 0.016152678 0.26225388 0.45587394 -0.22181158 -0.055876564 0.11377957 -0.36701953
0.025678687 -0.083729744 -0.14944266 -0.18337715 0.28965637 -0.054111175 -0.15065512 0.16901651
-0.026223416 -0.094667904 -0.349298 -0.15964541 -0.14589903 -0.4114096 0.024421988 0.22924857
0.16866569 0.17399476 0.38175985 0.18860056 -0.08027585 0.33114555 -0.23866573 0.12134926
0.14587754 0.42634487 0.038457308 -0.06134756 0.017005928 0.04870962 -0.11217243 -0.42512092
-0.05501931 -0.24991667 -0.09852939 0.011341197 -0.025705613 0.076147586 0.15649413 0.37151366
-0.16869979 0.2241542 -0.012631909 0.14210503 -0.14203082 -0.07432252 -0.4185443 0.25475734
00000000: 0218 82be d626 2ebe b31f debd 441e 2ebe
00000010: 242e 8ebe f57c ea3e 78e1 a03e af14 533e
00000020: 9a66 353c e9b1 a6bd c21f fe3b 70f1 9c3d
00000030: 0af5 013c 3470 d0be 27a5 ab3e 3485 f5bb
00000040: e642 33be ef2f 163e 47d4 363e a79e c0bd
00000050: b6e9 5f3d 4952 abbd cdc7 b4be 4477 5a3e
00000060: 1803 393e 1d9b 0ebe 9f51 923d 805f af39
00000070: 2977 65bc e723 bebc 9e3f a63d 12c0 74bc
00000080: 9382 bf3c 5c48 e73e 0a56 a8bd 5fc4 a5bd
00000090: 86e7 0e3e 1a5b ba3e 3c73 863e 79cc ea3c
000000a0: 7658 92be 9101 34be b79e b23e f8b9 98be
000000b0: 5e0c 83be ab9c 843e 3704 ef3e 7f77 463e
000000c0: 6706 223d e4b2 08be 0a7a c8bb 5f5a 883e
000000d0: 4eff 4cbe b625 dbbd b50b dbba 62b2 b13d
000000e0: 443f 5c3e e6e0 80be 153d bbbe 606d 3fbe
000000f0: 0ca0 9abe fa34 bdbe 0413 30bd cc26 0ebe
00000100: 4dce df3d 2946 2c3d 3477 c6bd 09a5 10be
00000110: 00b7 8d3d ca2c b43c 3075 003e 76e7 043e
00000120: 295a 8f3c 8056 91bd e077 c7be b044 81bd
00000130: e9c0 07bf b06b 94be 9763 a2bd c0dc 9cbe
00000140: 50eb 093c 2e1f 49bd ee2a cabd 054c 813d
00000150: 55d5 61bd fb41 343e 2a0d 24bf a019 34bc
00000160: 9be2 ddbb 21ad 4a3e 5f8c 17be 7a1c b13d
00000170: 733e 1c3e fe77 843d d866 253e 6296 32bf
00000180: 3644 2bbe 2629 943e 95d2 c2bc 2d35 b1bd
00000190: 1df3 9e3d cb73 323e f8ca f43d 37f2 3d3e
000001a0: 183a dcbe 115b 4a3e 863a 80bd 356c 4f3d
000001b0: 9487 dabb 8610 c2be 435b 3bbe 4633 88bd
000001c0: 0890 e53e 4fdf 1a3c d934 3d3e cdf3 993e
000001d0: 3bc9 d8bc 3a46 58bd e961 09bc cd0e ad3c
000001e0: 448e 0b3e 6499 e73e cc4f 24be a927 27be
000001f0: 79af 43bd 0581 83be d136 263e a648 04be
00000200: cbe3 273d 8265 803d ad2b ec3e d300 54be
00000210: ec8c 16be 1878 84bd 29a8 1abe e744 f93e
00000220: 17ec 883e 7261 12be 7ce9 0dbc 6f15 593e
00000230: 6b3a 4ebe c8ef e63d 02cc 9abe f29d 90be
00000240: c63a 123e 2df7 ae3e 27c2 5cbe 1b3d 65be
00000250: 811c 9fbb 9742 ebbd 2f38 92bd cee4 bebd
00000260: 9311 e93d fc4b abbe 73b9 663d a8ee 833d
00000270: 1d78 a4be 2daf f63d 70c9 ee3d 3c5c a33d
00000280: f39d de3a 8c3d a93e 69bf a5bd 32b1 c83d
00000290: 320b 3dbd f95a 85bd 1fa3 a2be d48b 343e
000002a0: 0f24 813e 3cb9 543e fd04 ad3e 1593 243e
000002b0: 2894 36be a5ba e6bc 2166 63be 31f3 10bf
000002c0: 4581 6f3c d485 043b b350 a6bd aae4 6cbe
000002d0: 6c60 c63d ad90 da3e 35bd 523e 9106 c33d
000002e0: fa40 37bc 9f3b 7b3e 8345 92be 1165 aabd
000002f0: 73df 17be 259d 223e 5a65 2a3e 8ca1 373e
00000300: 71ad 113e a0a3 6b3e 6417 c43e effc 99be
00000310: 8897 6e3d b3ba 453e 3ed7 7f3e b3d3 5b3e
00000320: ba71 ae3d 9f52 843c 2446 863e 4f68 e93e
00000330: 9322 63be d3de 64bd 4305 e93d fce9 bbbe
00000340: 1c5c d23c 807a abbd 7f07 19be 38c7 3bbe
00000350: d74d 943e aea3 5dbd 5645 1abe aa12 2d3e
00000360: 7dd2 d6bc 3fe1 c1bd 30d7 b2be 167a 23be
00000370: 8e66 15be 47a4 d2be 9f10 c83c 23c0 6a3e
00000380: b3b6 2c3e af2b 323e 0776 c33e 8120 413e
00000390: aa67 a4bd e98b a93e ca64 74be f685 f83d
000003a0: ec60 153e e049 da3e 6985 1d3d 9447 7bbd
000003b0: 0450 8b3c bd83 473d a9ba e5bd 73a9 d9be
000003c0: ee5b 61bd 28ea 7fbe c7c9 c9bd 6ed0 393c
000003d0: 9494 d2bc 44f3 9b3d ff3f 203e 0a37 be3e
000003e0: a3bf 2cbe ae88 653e 11f6 4ebc fb83 113e
000003f0: 8770 11be 6836 98bd 704b d6be 8e6f 823e

features.0.bias f4 [16]
0.22279309 0.0004014691 -0.07762728 0.09469136 0.22353801 -0.2999585 0.1985277 -0.17359228
-0.22698808 0.24603204 0.040308136 -0.15442906 0.058039155 -0.025764 0.05171159 0.017567083
00000000: df23 643e 457c d239 0dfb 9ebd 8bed c13d
00000010: 26e7 643e 2994 99be d84a 4b3e 2dc2 31be
00000020: 906f 68be d3ef 7b3e 251a 253d a722 1ebe
00000030: 77ba 6d3d 060f d3bc 88cf 533d d8e8 8f3c

features.1.blocks.0.unit.0.weight f4 [16]
0.90125257 0.88098365 0.7305466 0.8610122 0.9362902 0.8837659 0.9231138 0.71921045
0.85939556 0.83261365 0.85775125 0.9170049 0.7696112 0.7918757 0.9973229 0.87444746
00000000: 7db8 663f 2588 613f 1a05 3b3f 4c6b 5c3f
00000010: b7b0 6f3f 7b3e 623f 3051 6c3f 2d1e 383f
00000020: 5901 5c3f 2b26 553f 9695 5b3f d5c0 6a3f
00000030: 3d05 453f 5eb8 4a3f 8e50 7f3f cadb 5f3f

features.1.blocks.0.unit.0.bias f4 [16]
0.9114074 -0.18607844 -0.14131473 -0.26481053 0.9778492 0.7893946 0.4903493 -0.27417186
0.36785102 0.7717429 0.98077613 -0.33662033 -0.16986671 0.023160724 0.76796466 0.33231917
00000000: ff51 693f 598b 3ebe cfb4 10be 3f95 87be
00000010: 5354 7a3f c415 4a3f 100f fb3e 4160 8cbe
00000020: f856 bc3e f190 453f 2514 7b3f 8059 acbe
00000030: 8af1 2dbe 8fbb bd3c 5599 443f bd25 aa3e

features.1.blocks.0.unit.0.running_mean f4 [16]
0.22190323 -0.087530315 0.11883294 0.08630936 0.22204462 -0.31217325 0.17857893 -0.18830913
-0.1719388 0.23489536 0.058214486 -0.01010313 -0.1452394 -0.15080485 0.09693494 0.02814927
00000000: 9a3a 633e 1843 b3bd af5e f33d f6c2 b03d
00000010: aa5f 633e 2cd5 9fbe 65dd 363e 1cd4 40be
00000020: ba10 30be 6988 703e 5072 6e3d 9987 25bc
00000030: a3b9 14be 966c 1abe d385 c63d 4c99 e63c

features.1.blocks.0.unit.0.running_var f4 [16]
0.08571142 0.3976276 1.6095874 0.10584425 0.083293825 0.048627045 0.057824545 0.81201625
0.100853615 0.13292411 0.042419333 0.5022989 0.6392042 0.29414243 0.30363303 0.06685498
00000000: 7889 af3d d895 cb3e f606 ce3f dfc4 d83d
00000010: f495 aa3d 272d 473d 6ed9 6c3d 4ce0 4f3f
00000020: 578c ce3d 421d 083e e5bf 2d3d a996 003f
00000030: e3a2 233f d699 963e ca75 9b3e 44eb 883d

features.1.blocks.0.unit.2.weight f4 [32, 16, 1, 1]
-0.22538963 -0.018947955 -0.0737841 0.2484513 -0.19555594 -0.08610119 -0.33865085 -0.06512774
0.17641322 0.22132528 0.28127247 0.18327285 0.2518349 -0.12262005 -0.7821496 0.054373708
0.16301757 0.4353195 0.43259066 0.09254526 -0.31409982 0.18812212 0.26146594 0.1899367
-0.19611166 -0.041386478 0.0057474324 0.38135424 0.03267287 0.13798197 -0.21302757 -0.05418072
0.061327063 0.1749928 0.26007658 0.17828664 -0.4421447 -0.3019842 -0.1761161 -0.06819218
-0.21110508 -0.14797445 -0.25463706 -0.33776066 -0.07933518 -0.01875962 0.33501053 -0.14498492
-0.274723 -0.14864765 0.121952236 0.22600935 0.46630147 -0.25166366 0.02705481 0.34203202
-0.010787343 -0.26206762 -0.034131225 -0.047736388 0.3763556 0.018999647 0.15399848 -0.44968292
-0.28673863 -0.08464026 -0.28380236 -0.16114917 0.5138467 0.23962599 -0.08837592 -0.016218008
0.1408874 0.082912885 -0.3693248 0.036372196 0.29105717 0.10931428 0.08946386 0.314747
-0.11800217 -0.35950118 -0.12796219 -0.22701834 -0.364352 -0.06930587 -0.29811695 0.11056096
-0.3758063 -0.32619318 -0.42038357 0.10296648 0.12065478 -0.067935385 0.01696003 0.16857386
0.20408446 0.05066185 0.026503548 -0.30056912 -0.19178481 -0.5553839 0.39921975 -0.28470802
0.10542821 0.09699696 -0.26344863 0.21938638 -0.016393628 -0.06575668 -0.08723542 -0.164338
-0.16126315 -0.25613448 0.31533185 0.14005256 -0.19005279 0.04601167 -0.46130374 -0.18391998
0.28886464 -0.27590314 -0.08024205 -0.22349699 -0.057155613 -0.33713472 0.15955111 -0.17863351
-0.2273812 0.32011026 0.34024373 0.17211734 -0.44631284 -0.037564278 0.17257479 -0.14481716
0.08681745 0.071848415 -0.13540903 -0.06680771 0.00514683 0.33897007 -0.36749423 -0.24691816
-0.20904118 -0.16289459 -0.29115817 -0.40757015 0.012418549 0.29631686 0.2276261 0.08451255
0.034687556 -0.39981118 0.19541726 -0.4742501 -0.03967607 0.17418273 -0.20157056 0.21675326
0.102994785 0.15720455 0.008590838 -0.28243944 -0.26034167 0.39708176 -0.08974843 -0.020602832
-0.31040642 -0.40654054 0.29880208 -0.20584358 -0.38689625 0.13704571 -0.042734157 0.07247802
-0.46552595 -0.12624826 -0.113039896 0.21626598 0.33686736 0.08270137 -0.31577763 -0.27369794
0.07541924 0.4183124 -0.013893652 -0.24441108 0.04066985 -0.21888949 0.14582577 -0.121824086
-0.29288337 -0.27473024 -0.04028243 0.3619936 0.3966579 -0.1380262 -0.22046183 -0.15931466
0.08940107 0.11527312 0.101223364 -0.42359498 -0.05752447 0.07627327 -0.33719826 -0.017618237
0.2235891 -0.2096505 -0.3268512 0.038793962 0.09610909 -0.5746409 -0.046855886 0.13860111
-0.18621165 -0.35877794 0.086329006 -0.2563972 -0.17764379 -0.010156925 0.30352685 -0.02604834
0.32131556 0.042258088 0.09357195 0.051291086 0.03916721 -0.12511939 -0.20119411 -0.011876766
0.04762162 0.2190266 0.33828902 -0.30802086 0.19344445 -0.053627368 -0.3520507 0.45018202
-0.04066166 0.108123034 -0.025782457 0.16462344 -0.07025568 0.6133004 -0.26140887 0.1259484
0.21699533 0.34049025 0.3397432 -0.1677351 -0.3704406 0.27527335 0.1559374 -0.0038481548
00000000: 8acc 66be be38 9bbc 1e1c 97bd 056a 7e3e
00000010: d13f 48be d255 b0bd a563 adbe b161 85bd
00000020: aba5 343e 18a3 623e f202 903e e1ab 3b3e
00000030: 81f0 803e 3920 fbbd f53a 48bf f7b6 5e3d
00000040: 14ee 263e 33e2 de3e 867c dd3e 5f88 bd3d
00000050: b1d1 a0be 16a3 403e ddde 853e c47e 423e
00000060: 7fd1 48be de84 29bd f554 bc3b dd40 c33e
00000070: fdd3 053d 254b 0d3e e623 5abe 9aec 5dbd
00000080: 1632 7b3d 5031 333e c228 853e c690 363e
00000090: ca60 e2be ac9d 9abe c757 34be 57a8 8bbd
000000a0: ee2b 58be 9d86 17be ca5f 82be f7ee acbe
000000b0: 7c7a a2bd c6ad 99bc 8086 ab3e ed76 14be
000000c0: 7ea8 8cbe 1737 18be 18c2 f93d ff6e 673e
000000d0: 11bf ee3e 0fda 80be 0da2 dd3c d21e af3e
000000e0: 65bd 30bc ba2d 86be 2fcd 0bbd 3b87 43bd
000000f0: aeb1 c03e 26a5 9b3c c7b1 1d3e d73c e6be
00000100: 68cf 92be df57 adbd 8b4e 91be 4a04 25be
00000110: 758b 033f 8460 753e 6ffe b4bd a1db 84bc
00000120: c944 103e 3bce a93d 2418 bdbe 03fb 143d
00000130: 7205 953e 2ae0 df3d d438 b73d 8526 a13e
00000140: 1fab f1bd 8a10 b8be 8508 03be 7f77 68be
00000150: 588c babe 3cf0 8dbd c9a2 98be c96d e23d
00000160: af69 c0be cb02 a7be 843c d7be 17e0 d23d
00000170: da19 f73d b521 8bbd c3ef 8a3c a09e 2c3e
00000180: 84fb 503e cd82 4f3d f81d d93c 32e4 99be
00000190: 3d63 44be a42d 0ebf 8866 cc3e 40c5 91be
000001a0: bfea d73d 58a6 c63d bde2 86be d3a6 603e
000001b0: ee4b 86bc 70ab 86bd 7ca8 b2bd 3848 28be
000001c0: 2b22 25be 0f24 83be 2d73 a13e f069 0f3e
000001d0: 339d 42be bc76 3c3d 0130 ecbe 8555 3cbe
000001e0: 11e6 933e 2d43 8dbe f255 a4bd 65dc 64be
000001f0: 011c 6abd ec9c acbe 5e61 233e b4eb 36be
00000200: 9ed6 68be 7ee5 a33e 6d34 ae3e 873f 303e
00000210: 1e83 e4be 00dd 19bd 72b7 303e f34a 14be
00000220: 59cd b13d 4325 933d aaa8 0abe 7bd2 88bd
00000230: bda6 a83b 7c8d ad3e 3428 bcbe 1dd8 7cbe
00000240: e40e 56be d7cd 26be af12 95be 09ad d0be
00000250: 2b77 4b3c d8b6 973e d116 693e ea14 ad3d
00000260: 8a14 0e3d 0db4 ccbe 761b 483e e9d0 f2be
00000270: 6083 22bd f55c 323e 8368 4ebe 91f4 5d3e
00000280: eeee d23d 3bfa 203e 96c0 0c3c e79b 90be
00000290: 814b 85be 4d4e cb3e 06ce b7bd 45c7 a8bc
000002a0: 97ed 9ebe 1526 d0be 96fc 983e a9c8 52be
000002b0: 4417 c6be b655 0c3e 030a 2fbd 5b6f 943d
000002c0: 6b59 eebe 3947 01be 7681 e7bd d474 5d3e
000002d0: e179 ac3e 565f a93d 9bad a1be 2322 8cbe
000002e0: 6775 9a3d 0b2d d63e 33a2 63bc e646 7abe
000002f0: 6e95 263d 9124 60be 5a53 153e e87e f9bd
00000300: cff4 95be 71a9 8cbe 30ff 24bd 3a57 b93e
00000310: bf16 cb3e bd56 0dbe bfc0 61be 6223 23be
00000320: e817 b73d 5014 ec3d 324e cf3d 71e1 d8be
00000330: c79e 6bbd 2935 9c3d 40a5 acbe 1f54 90bc
00000340: 8bf4 643e 9fae 56be 0a59 a7be 6be6 1e3d
00000350: d8d4 c43d ab1b 13bf f5eb 3fbd 73ed 0d3e
00000360: 44ae 3ebe beb1 b7be 43cd b03d 7e46 83be
00000370: 41e8 35be 3b69 26bc df67 9b3e 5463 d5bc
00000380: 7983 a43e d116 2d3d a7a2 bf3d 9a16 523d
00000390: cc6d 203d 4c1f 00be d405 4ebe c496 42bc
000003a0: e30e 433d 8248 603e 3834 ad3e e9b4 9dbe
000003b0: 4d16 463e 5fa8 5bbd fd3f b4be 427e e63e
000003c0: d78c 26bd 9c6f dd3d bb35 d3bc 0c93 283e
000003d0: 36e2 8fbd 4101 1d3f 62d7 85be 9ef8 003e
000003e0: 0634 5e3e bd54 ae3e d2f2 ad3e c0c2 2bbe
000003f0: 64aa bdbe a1f0 8c3e 0eae 1f3e 5331 7cbb

features.1.blocks.0.unit.2.bias f4 [32]
-0.24067934 0.19490393 -0.07902355 0.062398423 -0.11225527 0.37054926 0.031129347 0.19046526
0.20276935 -0.058111805 0.19194989 -0.019429594 0.13272223 0.14625789 0.32630676 0.18221484
0.09080464 -0.10750513 -0.35810784 0.2344374 0.16338181 -0.24687484 0.092227705 -0.039700918
0.21389738 0.24056076 -0.10485905 0.054588918 -0.26510274 -0.038000148 -0.19030294 -0.16072752
00000000: a574 76be e594 473e 19d7 a1bd 7d95 7f3d
00000010: 17e6 e5bd a2b8 bd3e f902 ff3c 5309 433e
00000020: c5a2 4f3e a506 6ebd 838e 443e d02a 9fbc
00000030: 56e8 073e a1c4 153e ae11 a73e 8796 3a3e
00000040: c8f7 b93d a62b dcbd e959 b7be 5c10 703e
00000050: 904d 273e c2cc 7cbe e1e1 bc3d 6e9d 22bd
00000060: ea07 5b3e 8f55 763e 57c0 d6bd a198 5f3d
00000070: 8cbb 87be 0ba6 1bbd c6de 42be c195 24be

features.1.blocks.0.unit.3.weight f4 [32]
0.96456593 1.1655023 0.70999104 0.79272765 1.0862943 1.0355628 1.0339588 1.1399214
0.7924296 0.729194 1.1743082 1.2161458 1.2666445 0.73045325 0.9499626 0.98069346
0.98322994 1.1000838 0.89601386 1.0171857 0.8283606 1.2780937 0.7136003 0.91240716
0.88174546 1.0700697 0.7071865 0.89866763 1.1034979 0.8787671 1.1058089 1.3568616
00000000: cbed 763f 2e2f 953f f9c1 353f 33f0 4a3f
00000010: b10b 8b3f 528d 843f c358 843f f2e8 913f
00000020: abdc 4a3f 75ac 3a3f bb4f 963f aaaa 9b3f
00000030: 6821 a23f fcfe 3a3f c030 733f ba0e 7b3f
00000040: f5b4 7b3f 8ccf 8c3f 2a61 653f 2433 823f
00000050: 710f 543f 9398 a33f 82ae 363f 8493 693f
00000060: 12ba 613f 0bf8 883f 2d0a 353f 150f 663f
00000070: 6b3f 8d3f e1f6 603f 258b 8d3f a4ad ad3f

features.1.blocks.0.unit.3.bias f4 [32]
0.6823481 -0.14743721 -0.37779593 -0.4014808 0.35797542 -0.04523527 0.13732712 -0.23248155
0.28176364 -0.2564473 -0.073254995 0.5461385 0.14677899 -0.14453635 -0.30058485 -0.1335878
0.63024116 0.27433312 -0.14850931 -0.17308955 -0.096252896 -0.081287965 -0.073032096 0.23770845
-0.11872218 0.34482297 -0.16892812 -0.22976735 0.017341347 0.105329126 0.35919303 0.0028026504
00000000: 5dae 2e3f c8f9 16be 786e c1be e48e cdbe
00000010: 8e48 b73e 9e48 39bd 7b9f 0c3e a50f 6ebe
00000020: 5343 903e 0f4d 83be b706 96bd bccf 0b3f
00000030: 3b4d 163e 5601 14be 42e6 99be 3ecb 08be
00000040: 7c57 213f 6475 8c3e d312 18be 633e 31be
00000050: 3d20 c5bd 4e7a a6bd da91 95bd d869 733e
00000060: 9d24 f3bd a38c b03e 7efb 2cbe 2248 6bbe
00000070: 710f 8e3c ccb6 d73d 26e8 b73e acac 373b

features.1.blocks.0.unit.3.running_mean f4 [32]
-0.9679465 0.4140294 -1.1036788 -0.1050745 0.2967149 -1.3309021 -0.5679114 -0.7056501
-0.63130057 -0.2731637 -0.009682982 0.028454218 -0.17274345 -0.32917604 0.94358456 1.3774239
-1.7052414 -0.7136566 -0.20020035 1.5153513 -0.34876662 -0.59767395 -1.407094 0.09470216
0.8304338 -1.0746304 -0.24194114 -0.0993417 -0.3901557 0.026725214 -0.2775483 0.53652924
00000000: 58cb 77bf a9fb d33e 5945 8dbf 4d31 d7bd
00000010: 04eb 973e 005b aabf a462 11bf 7ca5 34bf
00000020: ea9c 21bf 1ddc 8bbe 5fa5 1ebc d218 e93c
00000030: a9e3 30be c389 a8be c28e 713f 6d4f b03f
00000040: 5a45 dabf 33b2 36bf 5201 4dbe 08f7 c13f
00000050: 8a91 b2be 2901 19bf a81b b4bf 35f3 c13d
00000060: 4f97 543f 7d8d 89bf 6bbf 77be a973 cbbd
00000070: 7dc2 c7be d6ee da3c d01a 8ebe fb59 093f

features.1.blocks.0.unit.3.running_var f4 [32]
0.6649744 0.3004846 0.30372596 0.33514455 0.6537925 0.34610125 0.3846235 0.39937755
0.3201012 0.31818384 0.4886654 0.71044225 0.53346103 0.43824947 0.49674731 0.4247768
0.47036883 0.591201 0.27713066 0.26985046 0.28954887 0.37907892 0.3279228 0.39495403
0.28769523 0.46858266 0.7076962 0.6564896 0.4469654 0.3303776 0.32070196 0.72842205
00000000: c33b 2a3f 1ed9 993e f881 9b3e 1198 ab3e
00000010: f25e 273f 2f34 b13e 5fed c43e 377b cc3e
00000020: 4ee4 a33e fee8 a23e 5a32 fa3e 8bdf 353f
00000030: e790 083f 3c62 e03e aa55 fe3e 587c d93e
00000040: 2fd4 f03e f358 173f 12e4 8d3e d729 8a3e
00000050: c03f 943e a216 c23e 7fe5 a73e 6a37 ca3e
00000060: ca4c 933e 11ea ef3e 942b 353f b40f 283f
00000070: a6d8 e43e 4127 a93e 0c33 a43e de79 3a3f

features.1.blocks.0.unit.5.weight f4 [32, 32, 3, 3]
-0.2846974 0.06369349 -0.40078363 -0.17842601 -0.13306804 -0.62829137 0.10005119 -0.13521184
-0.29443538 -0.19879961 -0.34517303 -0.4481898 -0.06736564 0.048076518 -0.13575938 0.14870515
0.11307134 0.11742268 0.02041901 -0.049552657 0.19143097 0.15357663 0.010674891 -0.016724156
0.038137965 0.123393126 0.048722547 -0.158958 -0.09327009 0.1622835 -0.14974742 -0.14810583
-0.051780254 -0.15382572 -0.072812326 -0.01526847 0.23806506 0.028889054 0.1928275 -0.14314736
-0.2586608 0.05547844 -0.15328318 -0.14235465 -0.259846 0.071170226 0.15559669 0.5138652
0.16687503 0.14723209 0.36448398 -0.12160689 0.02666965 -0.01496103 -0.1594956 -0.26517153
0.052919414 0.09131188 -0.05169574 -0.29829878 0.18264143 0.11243815 -0.027682975 -0.092999585
-0.07717086 -0.085528366 0.3482801 0.18157862 0.02210136 0.1997079 0.1380357 0.0006083119
-0.24776758 -0.25858745 -0.44401577 0.2397179 0.08358089 -0.17901711 0.22710192 0.08979026
0.027757557 0.42447177 0.11029006 -0.010546184 0.08071903 0.041505504 0.0935222 0.16133663
-0.07710106 -0.13065745 0.2935499 0.14802045 0.035877794 -0.11706833 0.19586134 0.14295655
-0.10846617 -0.2506982 0.091373034 0.12036861 0.062402073 0.055340625 0.1437717 -0.10933961
0.038209073 -0.061796594 -0.1616457 -0.13487524 -0.04052395 -0.027641352 0.0038844533 -0.22447966
-0.33896154 -0.32666755 -0.03790692 -0.21919216 0.039907012 0.25955197 0.12184184 0.39993644
-0.16782576 -0.020430336 -0.025098685 -0.11575211 0.03190896 0.055945523 0.27392405 0.28363323
0.15435511 -0.41060165 -0.2146779 -0.3698251 -0.17672864 -0.2957058 -0.17261003 0.065998666
0.19705823 -0.20225474 0.10881356 -0.04502702 0.10763368 0.025173955 -0.15787713 -0.41217914
-0.019658366 -0.30492932 -0.25239894 0.17570505 -0.022920553 0.17216301 -0.0067001954 0.08138075
0.15740465 -0.11450052 -0.052038893 0.029389603 -0.3347873 -0.11918813 -0.35187757 -0.2466804
-0.2097206 -0.11802162 -0.018568816 0.09182603 -0.21569267 -0.11923822 -0.11236531 -0.13005269
0.017074123 -0.2248376 -0.33505812 0.21772833 0.19963786 0.23291042 -0.12391595 0.07110238
-0.014333886 -0.13354322 -0.003050297 0.047536857 -0.10555282 -0.040541563 -0.042731814 -0.33962846
-0.30217507 -0.11456008 -0.3287699 -0.233931 -0.25735548 0.08633164 -0.018922636 0.060037408
0.059442826 -0.38285813 -0.10477105 0.065863244 -0.1961 -0.28817487 -0.25658017 -0.09354713
0.19476976 0.32296267 0.17375468 0.011867287 0.11132033 0.16791172 -0.008918591 0.19494098
0.15412283 0.26020837 -0.14114232 -0.25248817 -0.12394643 -0.310293 -0.11956851 -0.2511254
0.002639286 -0.17190115 -0.041952495 0.06864369 -0.15804698 -0.15941067 -0.15102547 0.05328938
-0.020499103 0.19142525 0.18878993 0.31753343 -0.07775923 0.030576747 -0.03875222 0.031463787
-0.06734223 -0.2647858 0.30662015 0.27997774 0.13914639 -0.040124208 0.1570539 0.1526255
-0.32447296 -0.12870997 -0.15771239 0.32421827 0.1263366 0.37455854 0.045350995 0.073715605
0.0023304343 -0.22396319 -0.12594627 0.08741951 0.06788043 0.019080807 0.16009273 0.32464907
00000000: dcc3 91be bc71 823d 8333 cdbe 4fb5 36be
00000010: fd42 08be b4d7 20bf a3e7 cc3d f974 0abe
00000020: 3cc0 96be 2092 4bbe 85ba b0be 2279 e5be
00000030: fff6 89bd e2eb 443d 8204 0bbe 2a46 183e
00000040: f291 e73d 4d7b f03d c545 a73c baf7 4abd
00000050: 7b06 443e 3143 1d3e bde5 2e3c 1901 89bc
00000060: 8e36 1c3d 89b5 fc3d 4b91 473d e3c5 22be
00000070: 6404 bfbd a52d 263e 6357 19be 0ea9 17be
00000080: 8817 54bd 7d84 1dbe a11e 95bd 9b28 7abc
00000090: 54c7 733e bda8 ec3c 9274 453e 3995 12be
000000a0: 306f 84be 5c3d 633d 44f6 1cbe 6bc5 11be
000000b0: 890a 85be b2c1 913d bd54 1f3e ab8c 033f
000000c0: 4ae1 2a3e 02c4 163e a59d ba3e 080d f9bd
000000d0: 4f7a da3c 1c1f 75bc d152 23be 90c4 87be
000000e0: 07c2 583d b901 bb3d eabe 53bd 9eba 98be
000000f0: 5b06 3b3e f945 e63d 68c7 e2bc 9176 bebd
00000100: c10b 9ebd 7f29 afbd c551 b23e bfef 393e
00000110: e90d b53c 3a80 4c3e 3b59 0d3e 1f77 1f3a
00000120: c9b6 7dbe 9365 84be 0956 e3be 9c78 753e
00000130: 752c ab3d 4350 37be 688d 683e f5e3 b73d
00000140: d163 e33c 5d54 d93e c1df e13d e7c9 2cbc
00000150: 0550 a53d ad01 2a3d 9188 bf3d 6e35 253e
00000160: 29e7 9dbd 11cb 05be 2c4c 963e ac92 173e
00000170: 98f4 123d 85c1 efbd e08f 483e 3463 123e
00000180: 8323 debd 845b 80be c921 bb3d d183 f63d
00000190: 5199 7f3d daac 623d e338 133e 72ed dfbd
000001a0: 1e81 1c3d 6d1e 7dbd 7386 25be bc1c 0abe
000001b0: 71fc 25bd 1e70 e2bc 5092 7e3b ffdd 65be
000001c0: 5e8c adbe f840 a7be 4944 1bbd e973 60be
000001d0: 8975 233d ffe3 843e 3788 f93d 78c4 cc3e
000001e0: 84da 2bbe 855d a7bc c29b cdbc 710f edbd
000001f0: f8b2 023d 2227 653d c63f 8c3e 6038 913e
00000200: 440f 1e3e 613a d2be 86d4 5bbe b759 bdbe
00000210: 5af8 34be c066 97be afc0 30be 4f2a 873d
00000220: a2c9 493e de1b 4fbe a5d9 de3d 416e 38bd
00000230: 0c6f dc3d 9c39 ce3c 8baa 21be 2509 d3be
00000240: 950a a1bc b21f 9cbe 6f3a 81be 06ec 333e
00000250: e2c3 bbbc 804b 303e 508d dbbb f3aa a63d
00000260: af2e 213e 407f eabd bc26 55bd 77c2 f03c
00000270: 3e69 abbe e818 f4bd 4c29 b4be c999 7cbe
00000280: ffc0 56be 52b5 f1bd a11d 98bc 490f bc3d
00000290: 8ade 5cbe 2b33 f4bd c91f e6bd 882c 05be
000002a0: 08df 8b3c d43b 66be bd8c abbe 2df4 5e3e
000002b0: de6d 4c3e 1280 6e3e a5c7 fdbd 209e 913d
000002c0: add8 6abc 8ebf 08be 7ee7 47bb 02b6 423d
000002d0: 142c d8bd e90e 26bd 8e07 2fbd c8e3 adbe
000002e0: b1b6 9abe 7a9e eabd 8754 a8be 9c8b 6fbe
000002f0: 19c4 83be a5ce b03d a503 9bbc c9e9 753d
00000300: 527a 733d fb05 c4be 3492 d6bd 4fe3 863d
00000310: 70ce 48be a88b 93be 7a5e 83be a395 bfbd
00000320: b971 473e 5d5b a53e bfec 313e 026f 423c
00000330: eafb e33d 0df1 2b3e 481f 12bc 9c9e 473e
00000340: 60d2 1d3e 083a 853e 9d87 10be 2146 81be
00000350: a0d7 fdbd b9de 9ebe 56e0 f4bd 8293 80be
00000360: dff7 2c3b db06 30be 61d6 2bbd 1095 8c3d
00000370: 11d7 21be 8d3c 23be 6ca6 1abe f745 5a3d
00000380: bced a7bc fb04 443e 2652 413e be93 a23e
00000390: 3b40 9fbd 167c fa3c a6ba 1ebd 2ce0 003d
000003a0: b9ea 89bd 0192 87be 51fd 9c3e 3e59 8f3e
000003b0: 647c 0e3e 4859 24bd bdd2 203e dc49 1c3e
000003c0: 5221 a6be 8ccc 03be 5b7f 21be f0ff a53e
000003d0: 625e 013e 23c6 bf3e f7c1 393d 35f8 963d
000003e0: 33ba 183b 9b56 65be 0ff8 00be 0009 b33d
000003f0: e504 8b3d 5a4f 9c3c 59ef 233e 6738 a63e

features.1.blocks.0.unit.5.bias f4 [32]
-0.04480353 -0.060094588 0.039759576 0.048119854 0.045001693 -0.062149078 -0.030555746 -0.022387091
0.013643821 0.02523438 -0.0033357858 -0.092758186 0.004296847 0.02731517 0.042210657 -0.019717455
0.03850966 -0.11227843 -0.029133404 -0.026966767 0.016368102 0.08309628 0.034104913 0.03056487
-0.035306454 -0.0691503 0.011454333 0.029685436 -0.05276477 0.049137592 -0.021978825 -0.017310102
00000000: e883 37bd be25 76bd f0da 223d 5319 453d
00000010: b253 383d 0890 7ebd 0b50 fabc 2265 b7bc
00000020: 558a 5f3c 55b8 ce3c 339d 5abb 01f8 bdbd
00000030: 91cc 8c3b 10c4 df3c 15e5 2c3d 8086 a1bc
00000040: 4ebc 1d3d 3cf2 e5bd 2da9 eebc 69e9 dcbc
00000050: 6616 863c 622e aa3d 98b1 0b3d 2e63 fa3c
00000060: 809d 10bd ac9e 8dbd f4aa 3b3c df2e f33c
00000070: df1f 58bd 8044 493d f00c b4bc eacd 8dbc

features.1.blocks.1.unit.0.weight f4 [32]
0.8424308 0.90642214 1.1640857 1.2321932 0.9844076 1.1898303 0.99960864 0.9108775
0.96093905 1.0722126 0.8607527 1.0084381 0.9946213 1.1166236 0.9019427 1.047372
0.64481616 1.1185149 0.8950411 0.94543654 1.1377313 1.0869286 1.1641134 1.1626062
1.0324897 0.91714 1.0803512 0.9100527 1.011741 1.0562396 0.6397393 0.9627853
00000000: 8ba9 573f 480b 683f c300 953f 82b8 9d3f
00000010: 2302 7c3f 5c4c 983f 5ae6 7f3f 452f 693f
00000020: 1a00 763f 433e 893f 4a5a 5c3f 8014 813f
00000030: 809f 7e3f 86ed 8e3f b7e5 663f 4910 863f
00000040: ac12 253f 7f2b 8f3f 6a21 653f 2108 723f
00000050: 2ea1 913f 7a20 8b3f ab01 953f 48d0 943f
00000060: 9f28 843f b0c9 6a3f f348 8a3f 37f9 683f
00000070: bb80 813f dc32 873f f4c5 233f 1979 763f

features.1.blocks.1.unit.0.bias f4 [32]
-0.15479192 -0.20284882 0.14581224 0.27100217 0.57326514 0.35932148 0.17150377 -0.29699022
-0.042534243 0.34786275 0.0010736283 0.6016131 -0.060344085 0.39154512 -0.17215665 0.004081247
0.039542638 0.55109024 0.12675683 -0.101787016 0.12219227 0.4724059 0.016698565 0.18480758
0.13978255 -0.12653588 0.32080448 0.03209594 -0.25327772 0.47143313 -0.13272384 -0.22332221
00000000: c681 1ebe 9ab7 4fbe ce4f 153e ccc0 8a3e
00000010: 81c1 123f fcf8 b73e af9e 2f3e 1a0f 98be
00000020: 6338 2ebd 111b b23e fdb8 8c3a 5103 1a3f
00000030: 5c2b 77bd 9a78 c83e d549 30be fbbb 853b
00000040: 76f7 213d 4014 0d3f 8bcc 013e b675 d0bd
00000050: f13f fa3d 30df f13e 6ecb 883c 333e 3d3e
00000060: 2823 0f3e 9f92 01be 7c40 a43e 0877 033d
00000070: 9ead 81be af5f f13e c2e8 07be 94ae 64be

features.1.blocks.1.unit.0.running_mean f4 [32]
-4.1288304 0.17310789 -4.6681714 -2.0985444 0.15782793 -2.7611265 -3.7332752 -0.5395549
-1.8240311 -4.6293435 -1.9414037 1.1895094 -5.662135 -3.7916183 -5.4661317 -3.0320334
4.410321 0.7742581 0.75435233 1.4683481 -4.43408 -5.8655195 2.240557 -4.8940473
-2.412127 -1.6612816 -3.0318916 -6.468874 -3.0460567 -1.8833196 -6.926456 1.5124787
00000000: 611f 84c0 3243 313e a961 95c0 8d4e 06c0
00000010: a59d 213e 4cb6 30c0 fbed 6ec0 4520 0abf
00000020: da79 e9bf 9523 94c0 eb7f f8bf d841 983f
00000030: 3630 b5c0 e0a9 72c0 8dea aec0 d60c 42c0
00000040: 5a21 8d40 c735 463f 3c1d 413f d5f2 bb3f
00000050: fce3 8dc0 56b2 bbc0 4965 0f40 099c 9cc0
00000060: 4a60 1ac0 e0a4 d4bf 830a 42c0 0401 cfc0
00000070: 98f2 42c0 9e10 f1bf 87a5 ddc0 e798 c13f

features.1.blocks.1.unit.0.running_var f4 [32]
23.047064 14.096637 17.490526 20.55086 13.56655 18.00216 11.008132 20.908766
13.274962 18.740852 23.053097 18.252607 22.668182 13.123753 29.841482 18.793537
19.234493 15.312287 19.288095 12.514166 27.07054 19.642427 26.061106 20.137161
19.25114 15.044606 29.873564 20.156555 16.177197 16.376415 19.702827 15.831069
00000000: 6360 b841 d38b 6141 99ec 8b41 2968 a441
00000010: 9710 5941 6c04 9041 4f21 3041 2745 a741
00000020: 3f66 5441 44ed 9541 be6c b841 5705 9241
00000030: 7058 b541 e4fa 5141 5bbb ee41 2a59 9641
00000040: 3ee0 9941 21ff 7441 054e 9a41 063a 4841
00000050: 7790 d841 b123 9d41 257d d041 e818 a141
00000060: 5602 9a41 b5b6 7041 0ffd ee41 a040 a141
00000070: e66a 8141 e602 8341 649f 9d41 0f4c 7d41

features.1.blocks.1.unit.2.weight f4 [32, 32, 1, 1]
-0.049586516 0.19837284 0.38589916 -0.023130804 0.31520012 -0.24474165 -0.265564 -0.06785669
-0.014697584 0.022623029 0.11567607 -0.42090183 -0.06408162 0.36280066 0.11268543 0.09226997
0.17510904 -0.329873 -0.13877435 -0.24261841 -0.10408343 0.265827 -0.41804615 -0.1719032
-0.018263731 0.17997949 -0.18408744 0.2818839 0.108017065 0.04827536 0.12384144 0.044766556
-0.051592305 -0.25459743 0.09070326 -0.18305346 -0.200654 -0.032512005 0.08305529 -0.14338371
0.1220212 0.1941736 0.15971442 -0.5517521 -0.27318308 0.21312687 0.12038982 -0.14273809
-0.0018334725 -0.17779423 0.1110612 -0.11116938 -0.3066744 0.02138234 0.047144294 -0.09137898
0.029889196 0.08313998 -0.23201719 -0.454458 -0.37936023 -0.47864723 -0.047070265 -0.047916193
0.19757389 -0.41401896 -0.21428642 0.06686477 -0.30365154 -0.122352265 -0.15849192 -0.3804646
-0.36103904 0.16531919 0.11076487 0.04313353 -0.37404183 -0.13154101 0.03509245 0.019969907
-0.18630554 -0.14769047 -0.5742177 -0.17142475 0.3279955 -0.07076087 -0.104355335 0.31809658
0.04731444 0.018032318 0.017542865 0.11897469 0.28511465 0.08333581 0.1077768 -0.060588676
-0.3468929 0.19112806 0.10781981 -0.1192905 0.14811926 -0.045728423 0.26117617 -0.079580784
0.0706792 0.18784963 0.10691015 -0.0048444346 0.3549982 -0.2678284 -0.21617278 -0.03402043
0.1415888 -0.15976913 -0.4022239 0.26079878 0.2527424 0.0977442 -0.37676468 0.05635384
-0.35697976 -0.50009733 0.037793484 -0.16446649 -0.07091196 0.13384072 0.22151141 -0.43695572
-0.23580086 -0.17122798 -0.35360312 0.17211904 -0.07481077 -0.024732877 0.41014567 -0.05320152
-0.14596798 -0.07749793 -0.19202211 0.120588645 0.41210094 -0.1520137 0.21605206 -0.09162861
-0.18525037 -0.042081457 -0.108253494 0.01899731 -0.5844749 -0.18417627 0.02148015 -0.121203855
-0.2306926 -0.11612511 -0.0010223265 -0.03023246 -0.20027876 0.012665239 0.089461975 -0.48554853
0.09982061 -0.17006603 0.31735632 -0.47683635 -0.2535523 -0.1563899 0.05731903 0.19337837
0.19699231 -0.22447553 0.27421105 0.07392857 0.101267815 0.40582153 -0.1091516 0.040090155
-0.08749443 0.3429478 0.27257252 -0.17547452 -0.27310726 -0.26122776 -0.1902423 0.025666257
0.25238287 0.062114965 -0.2240002 0.028353686 0.18236822 -0.15062594 0.0870573 -0.0676659
-0.26352358 -0.27590153 0.06886982 -0.44664854 0.14414261 -0.24337149 0.12740774 0.07059596
0.16929366 0.42737174 0.11883083 -0.06723237 -0.07540407 -0.12237725 0.14447463 -0.41972977
0.17393662 -0.53921205 0.10039219 -0.03598813 0.24475594 -0.0056506223 -0.06906339 0.123493165
-0.08908181 -0.06314815 -0.025142318 -0.1961986 -0.14388576 -0.21506052 0.06512311 -0.18488151
-0.10456617 0.20377229 -0.31564873 -0.049153402 -0.25298658 0.35926777 -0.050310627 -0.15372679
0.15555792 0.36702865 -0.048068076 -0.06519667 -0.27650225 -0.036248285 0.29620743 0.26548994
-0.24855664 0.1386522 -0.017447853 -0.056376316 0.28726342 0.031057818 0.37478888 -0.21794723
0.09994838 -0.24110311 0.3314244 -0.210717 -0.08402013 -0.061095875 0.12110937 0.060992304
00000000: 3b1b 4bbd 4022 4b3e 9394 c53e d07c bdbc
00000010: e961 a13e 8e9d 7abe 01f8 87be 73f8 8abd
00000020: 23ce 70bc ee53 b93c 93e7 ec3d 7280 d7be
00000030: 393d 83bd 02c1 b93e 9ec7 e63d 0af8 bc3d
00000040: c94f 333e 1de5 a8be dd1a 0ebe f670 78be
00000050: b129 d5bd 7a1a 883e 250a d6be 6407 30be
00000060: d29d 95bc 8b4c 383e 6b81 3cbe 1653 903e
00000070: 0d38 dd3d 62bc 453d 95a0 fd3d 235d 373d
00000080: 7452 53bd 985a 82be a1c2 b93d 5e72 3bbe
00000090: 3e78 4dbe 4f2b 05bd e418 aa3d 2ed3 12be
000000a0: 40e6 f93d 72d5 463e 2d8c 233e a03f 0dbf
000000b0: a7de 8bbe ee3d 5a3e f08e f63d ef29 12be
000000c0: 2151 f0ba b10f 36be 0e74 e33d c6ac e3bd
000000d0: 6d04 9dbe 042a af3c 601a 413d e724 bbbd
000000e0: 30da f43c 4b45 aa3d ea95 6dbe b8ae e8be
000000f0: 813b c2be 4011 f5be c0cc 40bd c543 44bd
00000100: cf50 4a3e 4bfa d3be e66d 5bbe 66f0 883d
00000110: 3778 9bbe d393 fabd b54b 22be 42cc c2be
00000120: 1cda b8be 6f49 293e b1d8 e23d c9ac 303d
00000130: 6982 bfbe b0b2 06be 1abd 0f3d ee97 a33c
00000140: e1c6 3ebe 2c3c 17be eeff 12bf f889 2fbe
00000150: 07ef a73e 13eb 90bd 40b8 d5bd 8edd a23e
00000160: c9cc 413d 83b8 933c 0eb6 8f3c 01a9 f33d
00000170: 8cfa 913e f7ab aa3d 15ba dc3d d52b 78bd
00000180: f29b b1be 13b7 433e a2d0 dc3d 944e f4bd
00000190: 93ac 173e ba4d 3bbd e2b8 853e 40fb a2bd
000001a0: 42c0 903d a75b 403e b5f3 da3d 10be 9ebb
000001b0: 53c2 b53e ce20 89be 665c 5dbe 0259 0bbd
000001c0: a8fc 103e 859a 23be 4bf0 cdbe 6b87 853e
000001d0: 7467 813e 1c2e c83d 4de7 c0be 49d3 663d
000001e0: 0dc6 b6be 6106 00bf 57cd 1a3d e769 28be
000001f0: 4a3a 91bd 8b0d 093e e3d3 623e a9b8 dfbe
00000200: c875 71be 6356 2fbe 780b b5be f93f 303e
00000210: 6436 99bd 9a9c cabc 9dfe d13e d6e9 59bd
00000220: a178 15be 3cb7 9ebd 72a1 44be 2ef7 f63d
00000230: e5fe d23e 7ba9 1bbe c03c 5d3e c8a7 bbbd
00000240: 46b2 3dbe 9b5d 2cbd 02b4 ddbd 3fa0 9b3c
00000250: 26a0 15bf b498 3cbe 24f7 af3c ba39 f8bd
00000260: ae3a 6cbe 00d3 edbd 96ff 85ba 10aa f7bc
00000270: e015 4dbe dd81 4f3c d737 b73d d199 f8be
00000280: bf6e cc3d ca25 2ebe 877c a23e e523 f4be
00000290: 9bd1 81be ad24 20be 5cc7 6a3d fb04 463e
000002a0: 5ab8 493e eadc 65be 6465 8c3e dd67 973d
000002b0: 8065 cf3d d7c7 cf3e e08a dfbd 9335 243d
000002c0: 4830 b3bd db96 af3e a08e 8b3e 98af 33be
000002d0: b7d4 8bbe a5bf 85be e1ce 42be 0b42 d23c
000002e0: 5438 813e 436c 7e3d 4f60 65be fd45 e83c
000002f0: bcbe 3a3e b03d 1abe 194b b23d 6b94 8abd
00000300: 90ec 86be f742 8dbe 9f0b 8d3d 1eaf e4be
00000310: 1f9a 133e 6036 79be 2d77 023e 9d94 903d
00000320: 515b 2d3e 78d0 da3e 945d f33d 20b1 89bd
00000330: 736d 9abd eca0 fabd 28f1 133e d2e6 d6be
00000340: 711c 323e cd09 0abf 6c9a cd3d 4a68 13bd
00000350: 4da1 7a3e db28 b9bb 1b71 8dbd fce9 fc3d
00000360: 8670 b6bd d153 81bd 43f7 cdbc 49e8 48be
00000370: ca56 13be d338 5cbe 445f 853d 9451 3dbe
00000380: ca26 d6bd afa9 503e b69c a1be 1455 49bd
00000390: 7587 81be f2f1 b73e 8412 4ebd 8e6a 1dbe
000003a0: 934a 1f3e 2eeb bb3e 08e3 44bd d585 85bd
000003b0: b491 8dbe 1579 14bd 80a8 973e 4cee 873e
000003c0: a285 7ebe d8fa 0d3e cdee 8ebc daea 66bd
000003d0: 3114 933e f76c fe3c 54e4 bf3e 8f2d 5fbe
000003e0: bcb1 cc3d bce3 76be 75b0 a93e 32c6 57be
000003f0: bf12 acbd ab3f 7abd 3008 f83d 11d3 793d

features.1.blocks.1.unit.2.bias f4 [32]
0.059845835 0.05723879 0.061981738 -0.0449541 0.0471167 0.18800098 0.026354007 0.21305503
-0.071292505 -0.015447897 0.08407553 0.034327555 -0.13030384 -0.10994272 0.19181773 -0.08242208
-0.10993778 -0.13968964 0.096465334 0.11717663 -0.19531952 -0.105839536 -0.073030815 -0.0057470207
-0.07080716 -0.15916884 0.16172165 -0.19420542 0.101740286 0.038457245 0.04759509 -0.02040177
00000000: e820 753d 3973 6a3d 90e0 7d3d ca21 38bd
00000010: 71fd 403d 5483 403e 5ce4 d73c 192b 5a3e
00000020: ce01 92bd 2d19 7dbc cb2f ac3d 0d9b 0c3d
00000030: 5f6e 05be a629 e1bd de6b 443e e8cc a8bd
00000040: 0f27 e1bd cd0a 0fbe 9e8f c53d 4dfa ef3d
00000050: d701 48be 66c2 d8bd 2e91 95bd 8151 bcbb
00000060: 5803 91bd 28fd 22be 5c9a 253e c9dd 46be
00000070: 365d d03d 5885 1d3d 12f3 423d 9d21 a7bc

features.1.blocks.1.unit.3.weight f4 [32]
1.1735106 1.1197011 0.884406 0.68308496 1.0625467 1.3053671 0.8784078 1.2147555
1.0287373 0.9618293 1.0643677 0.99689585 1.2762896 0.84734094 1.134013 1.0259968
0.9751111 0.93656534 0.8738876 0.8962506 1.2021636 0.9242404 0.9759053 0.80386597
1.3584708 0.82931703 1.078766 1.0299128 1.0587326 1.1374141 1.0082649 0.6652543
00000000: 9835 963f 5e52 8f3f 6e68 623f a8de 2e3f
00000010: 8801 883f 4516 a73f 55df 603f 1c7d 9b3f
00000020: aaad 833f 723a 763f 333d 883f 9134 7f3f
00000030: 755d a33f 56eb 583f 5727 913f dd53 833f
00000040: e2a0 793f bfc2 6f3f 19b7 5f3f ae70 653f
00000050: 7fe0 993f 059b 6c3f eed4 793f 29ca 4d3f
00000060: 5fe2 ad3f 1f4e 543f 0115 8a3f 2fd4 833f
00000070: 8d84 873f c996 913f d30e 813f 1b4e 2a3f

features.1.blocks.1.unit.3.bias f4 [32]
0.21779127 0.23077431 -0.18467607 0.068656944 0.04634509 0.036062848 0.06129448 0.14473794
0.10633725 -0.22056647 0.08397475 -0.102663 0.2092422 -0.21445575 -0.0060713105 0.16601963
0.3918808 -0.021288794 -0.27257785 -0.2728156 0.1126962 0.0023316871 0.1556655 -0.3481801
-0.0132843 -0.20761687 -0.18731706 0.011114574 0.0826306 0.30932543 0.18454409 -0.091868065
00000000: ad04 5f3e 1a50 6c3e b91b 3dbe 039c 8c3d
00000010: 59d4 3d3d a3b6 133d ec0f 7b3d 2f36 143e
00000020: 58c7 d93d 2ddc 61be f4fa ab3d fb40 d2bd
00000030: 9643 563e 4a9a 5bbe d8f1 c6bb 0d01 2a3e
00000040: 9aa4 c83e d665 aebc 538f 8bbe 7cae 8bbe
00000050: 44cd e63d 38cf 183b c766 1f3e a944 b2be
00000060: 65a6 59bc 8499 54be 0bd0 3fbe e719 363c
00000070: 3b3a a93d e75f 9e3e 20f9 3c3e 5325 bcbd

features.1.blocks.1.unit.3.running_mean f4 [32]
-0.086398244 -1.4075738 -0.6664254 -0.33391964 -0.94936097 0.04681736 -0.7882346 0.6015734
-0.80362755 -0.20698214 -0.15555902 -0.46904242 -1.2964761 1.4675782 -0.8158184 -0.951597
0.03286428 -0.552413 -0.31503063 -0.57622916 -1.1120839 0.06120723 -0.051577616 -0.4791322
0.6157769 -1.0318557 -0.82056856 -0.7223184 -0.124764025 0.015855858 0.32903752 -0.22702782
00000000: 90f1 b0bd 612b b4bf db9a 2abf 84f7 aabe
00000010: 5209 73bf 8fc3 3f3d bec9 49bf b700 1a3f
00000020: 89ba 4dbf 20f3 53be dd4a 1fbe 5426 f0be
00000030: eef2 a5bf 9ad9 bb3f 7ad9 50bf dc9b 73bf
00000040: b29c 063d f06a 0dbf b24b a1be c183 13bf
00000050: c458 8ebf 6fb4 7a3d 0d43 53bd d150 f5be
00000060: 8ea3 1d3f d913 84bf c810 52bf dce9 38bf
00000070: 4884 ffbd 25e4 813c 9b77 a83e fb79 68be

features.1.blocks.1.unit.3.running_var f4 [32]
1.447843 1.1673968 0.6728506 0.8285526 0.6428824 1.0181562 0.9925834 1.2678806
1.6712121 0.610035 1.2840283 1.0411413 1.9690868 0.7064532 0.8003755 1.0200046
0.9852326 1.0505445 1.062868 0.77535 1.7003082 0.58084625 0.8354918 0.67261213
1.5476242 1.3233367 0.93479615 1.461974 1.2765939 1.1303511 1.2463062 0.9673578
00000000: eb52 b93f 426d 953f f03f 2c3f 061c 543f
00000010: f193 243f f152 823f f219 7e3f e949 a23f
00000020: 47ea d53f 412b 1c3f 0a5b a43f 1e44 853f
00000030: 090b fc3f 1eda 343f 69e5 4c3f 838f 823f
00000040: 3438 7c3f 3e78 863f 0f0c 883f 567d 463f
00000050: b3a3 d93f 57b2 143f cae2 553f 4f30 2c3f
00000060: 8d18 c63f 1963 a93f cd4e 6f3f f721 bb3f
00000070: 6e67 a33f 58af 903f f686 9f3f c3a4 773f

features.1.blocks.1.unit.5.weight f4 [32, 32, 3, 3]
-0.20865414 -0.022910312 0.057126097 0.060350858 -0.050313547 0.05949885 -0.17279434 0.06730438
0.37215498 -0.01707498 0.020532973 -0.13020751 0.30757308 0.21926098 0.009047704 -0.07930895
0.20590378 0.31898296 -0.1388182 -0.35062832 -0.09766334 -0.35818732 -0.16449013 0.02329118
-0.21491767 0.0040446115 -0.20777361 -0.25259197 -0.17893194 0.1843738 0.113595486 -0.18374039
-0.13095824 0.22401147 0.004492258 0.1859007 0.03948167 0.10962607 0.19247861 -0.32057726
0.062048662 0.22616056 0.083206825 0.050920453 0.017959695 0.24895531 0.15882224 -0.10932174
0.22393169 -0.10705043 -0.19122036 -0.29218435 0.18602902 0.24086109 -0.08054471 -0.08974978
-0.023646511 0.3857928 0.12436805 -6.4396314e-05 0.12510902 0.218885 0.15039502 -0.02607531
0.047583893 -0.10463374 -0.03079123 -0.013852783 -0.15057483 0.30073026 0.034828052 -0.2578603
0.057307567 -0.21251802 -0.21448164 -0.17193462 -0.43523943 -0.18302195 -0.042769197 0.19579448
0.18603177 0.23501924 0.08050017 -0.041484095 -0.104017496 -0.27024698 0.004552887 0.1902058
0.23166159 0.06336572 0.2130737 0.17634416 0.08442503 -0.2816258 0.035231307 -0.0330317
0.07348725 0.08197725 -0.09483625 -0.117716536 -0.013682201 0.028346311 -0.3367568 -0.35764217
0.008670219 -0.10215221 -0.22351757 -0.17409626 -0.108098395 0.08907922 -0.17999956 0.11642863
-0.113594696 0.058937617 -0.3733569 0.25039837 0.28410575 0.030413251 -0.39717773 -0.0068790317
-0.07972511 0.03440823 -0.11684454 -0.12364851 -0.07048766 0.23846559 0.30536646 -0.04911375
-0.11569554 0.06630085 -0.0884314 -0.21203245 -0.22390382 0.21115747 0.09128526 -0.21151759
0.08187011 0.10215948 -0.017999444 -0.24451064 -0.28403285 -0.18834333 -0.1915997 -0.13334472
0.13764721 -0.25385728 -0.022865336 -0.36157012 0.065670036 -0.13515626 0.12685682 -0.09756194
-0.15846549 0.14964339 -0.05283773 -0.0017897121 0.020142598 -0.24633187 -0.035805095 0.2299108
0.09811622 -0.11831801 -0.0025038882 0.04865762 -0.10598432 0.044300858 -0.027513398 0.010063777
-0.054655 0.2566791 0.06873984 -0.15009093 0.136782 -0.0032259987 0.050458305 0.007832607
0.04506681 -0.39412767 -0.14949751 -0.18039022 -0.028536988 -0.074579 -0.07986788 0.13126329
-0.29832572 -0.25415945 -0.03163844 0.2357917 0.14370091 0.3551127 -0.018351333 0.058754217
0.13198641 -0.239193 -0.3160331 0.0027592743 -0.06193363 0.05374729 -0.18240404 -0.07334264
0.033660397 0.31585622 -0.008200487 0.109199844 -0.20781556 0.14624877 0.3292577 -0.1426851
-0.1240148 -0.20635423 0.04174658 0.041209467 0.044878695 0.34419072 0.25346288 0.2048144
-0.3778951 -0.124571845 0.17385864 -0.15427813 0.23123679 0.06290964 0.38008294 -0.014008811
-0.069658935 -0.023487972 0.26398152 -0.099608585 -0.3984509 -0.13385156 -0.043428164 -0.32069734
-0.34656733 -0.11527034 -0.19043127 0.2747761 0.062306933 -0.2733981 -0.12234022 0.30938983
-0.008877007 0.009860312 0.005422166 -0.4205979 -0.077288374 -0.5732021 -0.13252927 -0.057110604
0.040123202 -0.39819834 0.1809804 0.26732343 -0.040593628 -0.17058738 0.027414765 -0.1730974
00000000: 6ea9 55be 68ae bbbc 0efd 693d 7632 773d
00000010: 9415 4ebd 11b5 733d 00f1 30be e1d6 893d
00000020: 198b be3e d4e0 8bbc c434 a83c 1e55 05be
00000030: 387a 9d3e f385 603e d23c 143c bb6c a2bd
00000040: 71d8 523e bc51 a33e 5c26 0ebe 8e85 b3be
00000050: b803 c8bd 5464 b7be 1a70 28be 25cd be3c
00000060: 6113 5cbe a988 843b 9bc2 54be bc53 81be
00000070: ef39 37be 7ccc 3c3e c0a4 e83d 7126 3cbe
00000080: eb19 06be 4363 653e cb33 933b c15c 3e3e
00000090: 88b7 213d a283 e03d 1d19 453e b422 a4be
000000a0: bd26 7e3d a296 673e 5768 aa3d f791 503d
000000b0: 3620 933c 24ee 7e3e 4ca2 223e 14e4 dfbd
000000c0: 594e 653e 413d dbbd 45cf 43be 3099 95be
000000d0: 647e 3e3e 4aa4 763e a0f4 a4bd bcce b7bd
000000e0: 54b6 c1bc a286 c53e adb4 fe3d 820c 87b8
000000f0: 941c 003e 6423 603e 2701 1a3e e39b d5bc
00000100: 54e7 423d 374a d6bd e43d fcbc c8f6 62bc
00000110: 4a30 1abe 51f9 993e dca7 0e3d 4406 84be
00000120: 57bb 6a3d 539e 59be 13a1 5bbe a10f 30be
00000130: b4d7 debe 1b6a 3bbe c12e 2fbd 597e 483e
00000140: 1d7f 3e3e e2a8 703e 46dd a43d 3aeb 29bd
00000150: 2007 d5bd d05d 8abe 6230 953b 4fc5 423e
00000160: b238 6d3e e3c5 813d fe2f 5a3e 9093 343e
00000170: 08e7 ac3d 4231 90be b44e 103d 3f4c 07bd
00000180: 7c80 963d b0e3 a73d 8239 c2bd 5e15 f1bd
00000190: 4f2b 60bc 8636 e83c 636b acbe e01c b7be
000001a0: 890d 0e3c 2e35 d1bd cae1 64be 4a46 32be
000001b0: b162 ddbd 2b6f b63d ce51 38be 2272 ee3d
000001c0: 56a4 e8bd 9268 713d a328 bfbe 3734 803e
000001d0: 4f76 913e 3625 f93c e15a cbbe 8069 e1bb
000001e0: eb46 a3bd a5ef 0c3d 314c efbd 6e3b fdbd
000001f0: d65b 90bd 5330 743e fe58 9c3e 802b 49bd
00000200: c9f1 ecbd bdc8 873d 861b b5bd 091f 59be
00000210: 0b47 65be aa39 583e c4f3 ba3d 1198 58be
00000220: 84ab a73d fd38 d13d 9273 93bc ff60 7abe
00000230: c16c 91be 13dd 40be b632 44be 858b 08be
00000240: 64f3 0c3e 95f9 81be 1650 bbbc b81f b9be
00000250: 037e 863d 6766 0abe c1e6 013e 8ece c7bd
00000260: c744 22be 1e3c 193e 606c 58bd c694 eaba
00000270: 1702 a53c 6c3e 7cbe 5da8 12bd bd6d 6b3e
00000280: 28f1 c83d b650 f2bd 4618 24bb 364d 473d
00000290: 4f0e d9bd d174 353d c763 e1bc 8ae2 243c
000002a0: ecdd 5fbd 716b 833e 79c7 8c3d 70b1 19be
000002b0: 9510 0c3e 476b 53bb 5ead 4e3d 5654 003c
000002c0: fa97 383d 1acb c9be e015 19be 37b8 38be
000002d0: 67c6 e9bc e0bc 98bd c591 a3bd e269 063e
000002e0: 26be 98be 3021 82be 4f97 01bd 6173 713e
000002f0: 5526 133e 55d1 b53e 8955 96bc 43a8 703d
00000300: 7227 073e 03ef 74be 17cf a1be f1d4 343b
00000310: 1eae 7dbd 1e26 5c3d 20c8 3abe ab34 96bd
00000320: 7cdf 093d e8b7 a13e 565b 06bc 2ba4 df3d
00000330: 9acd 54be 3dc2 153e 7794 a83e 0b1c 12be
00000340: 79fb fdbd 864e 53be 76fe 2a3d 42cb 283d
00000350: b9d2 373d c439 b03e e3c5 813e deba 513e
00000360: 777b c1be 861f ffbd 0008 323e 16fb 1dbe
00000370: 56c9 6c3e c5d6 803d 3b9a c23e 3685 65bc
00000380: 58a9 8ebd d969 c0bc 9628 873e 96ff cbbd
00000390: c201 ccbe 6210 09be bbe1 31bd 7132 a4be
000003a0: 4671 b1be db12 ecbd 6a00 43be 74af 8c3e
000003b0: 8e35 7f3d d6fa 8bbe 828d fabd 5868 9e3e
000003c0: de70 11bc 258d 213c 6dac b13b 9c58 d7be
000003d0: 5e49 9ebd 5fbd 12bf c1b5 07be cfec 69bd
000003e0: 3a58 243d a7e0 cbbe ed52 393e 9ede 883e
000003f0: 8145 26bd 75ae 2ebe ee94 e03c 7240 31be

features.1.blocks.1.unit.5.bias f4 [32]
-0.020309582 -0.002709759 0.04963336 -0.064878605 0.022582948 0.032790627 -0.061202098 0.04271339
0.01196496 -0.027760193 -0.080953255 -0.010183147 0.0026219694 0.04835662 0.018971998 0.013901684
0.046743356 -0.010718871 -0.008193125 -0.047168534 -0.04457314 -0.0273498 -0.08529649 -0.011266696
-0.042631313 0.0146198515 -0.016563592 -0.0652813 -0.060840573 0.013463032 -0.07253315 -0.030324247
00000000: 4860 a6bc 3696 31bb 5a4c 4b3d 13df 84bd
00000010: e0ff b83c 774f 063d 0daf 7abd 3cf4 2e3d
00000020: ae08 443c 5869 e3bc d2ca a5bd 37d7 26bc
00000030: 59d5 2b3b 9711 463d 2a6b 9b3c e4c3 633c
00000040: f675 3f3d 349e 2fbc 753c 06bc cb33 41bd
00000050: 5392 36bd b00c e0bc edaf aebd f397 38bc
00000060: 2c9e 2ebd 1a88 6f3c 5fb0 87bc 34b2 85bd
00000070: f733 79bd 0d94 5c3c 438c 94bd 8e6a f8bc

features.1.blocks.2.unit.0.weight f4 [32]
0.95070183 1.0889025 0.8427885 1.1545177 1.0466093 0.7780848 1.0138572 0.79813087
1.0698004 0.7027297 0.9432838 0.9250281 1.1012391 0.9325689 1.1728731 1.0189198
1.2951056 1.0955179 0.9191814 0.958975 1.0513849 0.9551503 1.2703142 1.1443635
0.7934151 0.664701 1.053548 0.8075751 1.1980165 1.1177999 1.0814334 1.2295977
00000000: 3261 733f 2861 8b3f fdc0 573f 3cc7 933f
00000010: 4bf7 853f 9130 473f 13c6 813f 4e52 4c3f
00000020: 38ef 883f 18e6 333f 0c7b 713f a4ce 6c3f
00000030: 67f5 8c3f d6bc 6e3f b520 963f f76b 823f
00000040: 05c6 a53f ee39 8c3f 794f 6b3f 637f 753f
00000050: c893 863f bb84 743f a899 a23f 817a 923f
00000060: 411d 4b3f d829 2a3f a9da 863f 3ebd 4e3f
00000070: 9b58 993f 1114 8f3f 696c 8a3f 7563 9d3f

features.1.blocks.2.unit.0.bias f4 [32]
-0.07497551 0.068442345 0.027758442 0.051738154 0.0122833 -0.09549566 0.24416721 -0.42076856
-0.015010556 0.054319236 -0.06860205 -0.26802966 -0.06368845 -0.286493 0.32912666 0.16682105
0.4929269 0.1361291 -0.12693556 -0.035624675 -0.107970156 -0.06549448 -0.055944853 0.2375005
-0.3112422 -0.35863665 0.022283232 -0.04060128 -0.05554054 0.25755486 0.30377334 0.062713675
00000000: c38c 99bd 802b 8c3d ac65 e33c 63eb 533d
00000010: e53f 493c 3b93 c3bd f806 7a3e fa6e d7be
00000020: d6ee 75bc d97d 5e3d 3b7f 8cbd 2f3b 89be
00000030: 176f 82bd 36af 92be 4a83 a83e 23d3 2a3e
00000040: ea60 fc3e 6d65 0b3e 65fb 01be 2eeb 11bd
00000050: 751f ddbd f821 86bd 6e26 65bd 5533 733e
00000060: 235b 9fbe 399f b7be 538b b63c 874d 26bd
00000070: 7a7e 63bd 3bde 833e 2e88 9b3e 0770 803d

features.1.blocks.2.unit.0.running_mean f4 [32]
-1.8098983 -2.239496 -7.043423 1.7056574 -0.6600378 -1.6665211 -1.560092 4.4293613
-0.13572465 -5.6719885 -5.100745 -5.617289 1.9092735 -0.97444475 -2.6231987 -1.7963916
-4.0220447 -1.4254936 -2.2114651 0.21372852 -2.1485262 -5.405208 -2.8142352 -0.8745828
-5.5318894 -2.0891795 -5.849178 -2.1488788 -0.89206636 -3.9345953 -2.47174 -2.9833448
00000000: bfaa e7bf e753 0fc0 b963 e1c0 fb52 da3f
00000010: 3df8 28bf 9050 d5bf 18b1 c7bf 54bd 8d40
00000020: 67fb 0abe ee80 b5c0 4e39 a3c0 d5c0 b3c0
00000030: 1363 f43f 3675 79bf 7de2 27c0 29f0 e5bf
00000040: 97b4 80c0 9376 b6bf a588 0dc0 a6db 5a3e
00000050: 7481 09c0 77f7 acc0 6e1c 34c0 a9e4 5fbf
00000060: 3d05 b1c0 1eb5 05c0 772c bbc0 3b87 09c0
00000070: 765e 64bf 69d0 7bc0 fd30 1ec0 1fef 3ec0

features.1.blocks.2.unit.0.running_var f4 [32]
13.298956 16.974443 24.263968 17.494774 13.610442 14.745575 18.506184 12.62336
16.1652 19.663778 20.856464 13.240188 26.881592 12.515776 14.150114 19.891863
24.473036 18.561312 20.757025 14.862439 18.373987 17.642954 14.923979 21.557016
19.412912 14.775928 22.762941 11.483232 19.318888 15.907916 19.44309 22.813936
00000000: 86c8 5441 a9cb 8741 9b1c c241 4cf5 8b41
00000010: 5fc4 5941 e0ed 6b41 aa0c 9441 48f9 4941
00000020: 5452 8141 6b4f 9d41 0ada a641 cfd7 5341
00000030: 800d d741 9e40 4841 de66 6241 8922 9f41
00000040: c7c8 c341 917d 9441 630e a641 8dcc 6d41
00000050: edfd 9241 c524 8d41 9ec8 6e41 c574 ac41
00000060: a54d 9b41 336a 6c41 811a b641 51bb 3741
00000070: 158d 9a41 d386 7e41 738b 9b41 f182 b641
